outputs/hybrid/Brini_model.pt (torch, 36357 bytes, 3 tensors)

brain.0.weight f4 [128, 48, 1, 1]
0.21657299 0.15432377 -0.022873579 0.25784183 0.06992445 0.041618988 0.029434118 -0.10298294
-0.10546115 -0.09258636 -0.041465834 -0.03778211 -0.094180524 0.05247021 -0.03974152 -0.13103883
-0.079545096 0.026181284 -0.26999947 0.046329156 -0.041236047 -0.31762427 -0.075142555 0.10602067
0.17491585 0.036342714 -0.0634715 0.058183175 -0.098307826 -0.017691262 0.09451493 -0.022974988
0.079753704 0.04285308 0.06558355 -0.06454959 0.08271927 -0.05966882 -0.032865454 -0.00062688714
0.1050891 -0.03191718 0.1035977 0.048473954 0.008905814 0.01929656 -0.08666368 -0.0112719815
-0.06158767 0.2085751 0.087298475 -0.0039486294 -0.035958044 -0.074490614 -0.06627162 -0.11137525
-0.03687453 -0.25313237 0.09378654 0.04182105 0.034109496 -0.024836438 -0.018728826 -0.068767995
0.011727582 -0.0093298685 -0.20094776 -0.028423954 0.021524908 0.15400061 -0.045158878 0.031481143
-0.04227423 0.046463013 -0.022944424 0.029999655 -0.14301406 0.05121414 0.05867206 -0.04691472
-0.0037338415 0.44076297 0.08672047 -0.02781943 -0.013166651 0.054807372 0.07986732 -0.09092152
0.1618817 -0.042563543 0.14721894 0.15408319 0.010701845 0.2202427 -0.017916815 0.017637376
-0.039564405 0.06577285 0.080780275 -0.18348739 0.09983881 -0.06354721 -0.08222222 -0.05659064
-0.06151322 -0.03601035 0.044002052 -0.023069348 0.08639712 -0.033723336 -0.05223654 0.3002995
0.013029335 -0.055488188 0.12340933 -0.07045307 0.010378423 0.24565928 0.037336927 0.04705865
0.06644542 -0.0017261313 -0.028033622 -0.14368853 0.06338475 0.02117664 -0.09024854 -0.023149345
-0.022574782 -0.20050633 0.00038447528 -0.052321244 -0.055639368 0.06977953 0.0052004824 -0.076693006
-0.035395592 -0.100912705 -0.20048173 -0.08949396 0.06448104 -0.57919014 0.024228139 -0.04284986
-0.15731306 0.06289675 0.09640254 -0.116653025 0.08073267 0.105930224 0.101754926 -0.0016133519
-0.035035953 -0.06720437 0.039937366 0.07830604 0.039685912 -0.09257879 -0.02500829 -0.12103758
0.06459268 -0.0051532495 -0.27669406 0.0016582108 -0.08115683 -0.13778037 -0.034805764 -0.022424402
0.296845 0.04398847 0.012535987 0.04916223 -0.09020251 0.04684856 0.17356798 0.012922117
0.10086932 -0.30492988 -0.0068753245 -0.015519937 0.40898064 -0.04902164 0.116813235 0.22482407
0.08823892 0.010941406 -0.20981468 -0.00963513 -0.075076625 -0.31017485 -0.06518448 -0.06504644
-0.0070911027 0.09533575 0.06661827 0.06989106 0.0083204 0.009000263 0.12834817 0.0074708066
-0.091664776 0.019183539 -0.028102668 -0.03494912 -0.074524686 0.025601994 -0.029879492 0.18837403
-0.052343003 0.123880364 -0.23109919 0.13284509 0.0250145 0.07750891 -0.08201463 -0.07189509
0.0869066 -0.04307273 0.06821079 0.061395716 -0.1539115 -0.005690043 -0.097644284 0.09622213
0.013796114 0.3019477 0.07081236 0.1136082 0.1315859 -0.045308564 -0.04967691 -0.0041450197
-0.030970527 0.05226091 0.15553422 -0.03277841 -0.094198085 -0.38671684 0.0898048 -0.025305146
-0.046443317 0.10704507 0.040745813 -0.07034893 0.070550345 -0.08999981 -0.13091369 -0.09718932
0.035213433 -0.18095487 -0.018376581 0.031604588 0.06726538 0.058448084 -0.06346279 0.33123738
00000000: 4fc5 5d3e 0d07 1e3e 5f61 bbbc d803 843e
00000010: 8d34 8f3d ac78 2a3d d21f f13c b8e8 d2bd
00000020: 04fc d7bd eb9d bdbd 14d8 29bd 6ac1 1abd
00000030: b8e1 c0bd 01eb 563d 01c8 22bd 0b2f 06be
00000040: 8ae8 a2bd 227a d63c 5f3d 8abe a4c3 3d3d
00000050: 21e7 28bd a69f a2be 57e4 99bd 5d21 d93d
00000060: 241d 333e 19dc 143d 59fd 81bd 7b51 6e3d
00000070: 9d55 c9bd 44ed 90bc 0b91 c13d 0b36 bcbc
00000080: e955 a33d b686 2f3d ab50 863d 9332 84bd
00000090: b868 a93d 4b67 74bd ed9d 06bd af55 24ba
000000a0: f438 d73d 97bb 02bd 082b d43d a08c 463d
000000b0: b1e9 113c d213 9e3c ba7c b1bd 1eae 38bc
000000c0: 5a43 7cbd b694 553e 8bc9 b23d 8163 81bb
000000d0: be48 13bd 898e 98bd 6ab9 87bd b518 e4bd
000000e0: bf09 17bd 919a 81be 2813 c03d 8d4c 2b3d
000000f0: 66b6 0b3d c975 cbbc 326d 99bc 3cd6 8cbd
00000100: 0b25 403c 4edc 18bc 40c5 4dbe 5ad9 e8bc
00000110: 0155 b03c 56b2 1d3e 84f8 38bd 5ff2 003d
00000120: be27 2dbd 0050 3e3d f2f5 bbbc d6c1 f53c
00000130: 4772 12be ebc5 513d 1d52 703d a629 40bd
00000140: 77b3 74bb afab e13e 809a b13d 93e5 e3bc
00000150: f0b8 57bc b27d 603d 7a91 a33d 1035 babd
00000160: 51c4 253e 1c57 2ebd 90c0 163e fcc7 1d3e
00000170: cb56 2f3c 4d87 613e 49c6 92bc 427c 903c
00000180: 490e 22bd eab3 863d 2170 a53d 1ee4 3bbe
00000190: 4a78 cc3d 0a25 82bd 2064 a8bd 96cb 67bd
000001a0: 49f5 7bbd 977f 13bd 7f3b 343d eefb bcbc
000001b0: f9f0 b03d 7b21 0abd fbf5 55bd dbc0 993e
000001c0: fe78 553c 9547 63bd 08be fc3d b349 90bd
000001d0: 430a 2a3c 1b8e 7b3e 9bee 183d 92c0 403d
000001e0: 8914 883d 5b3f e2ba c4a6 e5bc 1623 13be
000001f0: ddcf 813d a27a ad3c 3ad4 b8bd b2a3 bdbc
00000200: c0ee b8bc 8851 4dbe 6693 c939 cd4e 56bd
00000210: 1be6 63bd 92e8 8e3d cf68 aa3b 3911 9dbd
00000220: f8fa 10bd 52ab cebd 154b 4dbe 9c48 b7bd
00000230: a30e 843d ce45 14bf 177a c63c 5683 2fbd
00000240: ad16 21be 03d0 803d b26e c53d c8e7 eebd
00000250: 2c57 a53d f2f1 d83d e364 d03d 1b77 d3ba
00000260: dc81 0fbd 72a2 89bd 5d95 233d eb5e a03d
00000270: b28d 223d f399 bdbd 2fde ccbc 8de2 f7bd
00000280: 2b49 843d 97dc a8bb d8aa 8dbe 5258 d93a
00000290: 8d35 a6bd 4c16 0dbe 7d90 0ebd 61b3 b7bc
000002a0: 11fc 973e 412d 343d be63 4d3c 565e 493d
000002b0: 18bc b8bd 47e4 3f3d cebb 313e 49b7 533c
000002c0: 9394 ce3d c51f 9cbe 674a e1bb 5547 7ebc
000002d0: e965 d13e eaca 48bd c73b ef3d 4838 663e
000002e0: 9bb6 b43d 9543 333c a9d9 56be aadc 1dbc
000002f0: c6c1 99bd 3dcf 9ebe 717f 85bd 1137 85bd
00000300: 7b5c e8bb 643f c33d 296f 883d 0b23 8f3d
00000310: 4952 083c d775 133c b46d 033e abcd f43b
00000320: beba bbbd cc26 9d3c 9137 e6bc cf26 0fbd
00000330: 66a0 98bd 46bb d13c d6c5 f4bc 1fe5 403e
00000340: 9e65 56bd fdb4 fd3d 44a5 6cbe 8b08 083e
00000350: 35eb cc3c febc 9e3d 49f7 a7bd bc3d 93bd
00000360: 16fc b13d 086d 30bd 19b2 8b3d 137a 7b3d
00000370: fa9a 1dbe 8a73 babb baf9 c7bd 1c10 c53d
00000380: 1909 623c e498 9a3e 1206 913d 6aab e83d
00000390: 74be 063e 7995 39bd 047a 4bbd f2d2 87bb
000003a0: e7b5 fdbc 890f 563d 5d44 1f3e a742 06bd
000003b0: edea c0bd c0ff c5be 94eb b73d bd4c cfbc
000003c0: 593b 3ebd 723a db3d 15e5 263d 1a13 90bd
000003d0: b37c 903d d251 b8bd 3d0e 06be 320b c7bd
000003e0: f63b 103d 3c4c 39be 7c8a 96bc d073 013d
000003f0: 6ec2 893d 4267 6f3d c7f8 81bd f297 a93e

brain.0.bias f4 [128]
-0.27783352 -0.016170874 0.061583646 -0.05346166 0.042537246 -0.060035277 -0.08769982 -0.1775181
-0.033988822 0.10083764 -0.19678822 0.08319155 -0.0108859 -0.19110534 -0.027928608 0.0345013
-0.13648793 0.024560321 0.0042965626 0.0064122463 -0.05711889 -0.12999585 -0.04080796 0.04039692
-0.072248824 0.029883401 0.026772186 -0.019555157 0.009908971 0.058545608 -0.14246625 -0.032629054
0.021945892 -0.2880289 0.026428174 -0.0071328576 0.025740085 -0.0226479 -0.051550075 -0.15264979
-0.09430798 -0.0677448 -0.14322576 0.04965222 0.017302357 -0.036580905 -0.17407545 -0.28923333
0.034551192 -0.1406209 0.014258503 -0.13950679 -0.13904788 0.019705113 -0.12540783 -0.10551675
-0.1975127 0.00085835654 0.02976575 -0.24015 -0.013299466 -0.1051511 -0.12576741 0.039052013
0.045270894 -0.1805113 0.019042568 -0.026062619 0.008580429 -0.018729726 0.000674877 -0.29367438
-0.062556535 -0.07231343 -0.08001954 -0.081771605 -0.20546211 0.062030192 -0.004577869 -0.08536356
-0.13922836 0.05529359 0.15412728 -0.061937526 -0.26865503 -0.071465455 -0.22592954 -0.14998461
-0.14765792 -0.05827999 0.013882675 -0.0030696623 0.046033 -0.25864682 -0.028246002 -0.115896
-0.226713 0.046898063 0.047946207 -0.16000761 0.01681954 -0.0033324605 -0.01586961 -0.08898319
-0.17715962 0.020365737 -0.014619454 -0.0040187445 -0.13128662 -0.088925965 -0.06986967 0.0038706453
0.0037886526 -0.3694776 0.03539311 0.0055669653 0.045497708 -0.033954058 0.026188102 -0.37981817
-0.0075517297 -0.1904873 -0.065599516 0.040549006 -0.12625512 -0.14606945 -0.0240655 0.035558783
00000000: 3240 8ebe c878 84bc 223f 7c3d 9dfa 5abd
00000010: 893b 2e3d 8de7 75bd f79b b3bd 4ec7 35be
00000020: dd37 0bbd f783 ce3d da82 49be 5560 aa3d
00000030: c65a 32bc 1eb1 43be 89ca e4bc 3c51 0d3d
00000040: 7ec3 0bbe ba32 c93c 2eca 8c3b d21d d23b
00000050: 7ff5 69bd a21d 05be 3f26 27bd 3e77 253d
00000060: 31f7 93bd 09ce f43c 5851 db3c 2332 a0bc
00000070: 3d59 223c 85cd 6f3d ace2 11be 0ba6 05bd
00000080: dfc7 b33c 8678 93be e67f d83c bfba e9bb
00000090: dfdc d23c 1788 b9bc 2c26 53bd 3a50 1cbe
000000a0: 8b24 c1bd c9bd 8abd c6a9 12be 2060 4b3d
000000b0: acbd 8d3c dcd5 15bd d640 32be 6416 94be
000000c0: 8d85 0d3d edfe 0fbe 7f9c 693c deda 0ebe
000000d0: 9162 0ebe 9e6c a13c e96a 00be 2a19 d8bd
000000e0: c540 4abe 5503 613a 4dd7 f33c e2e9 75be
000000f0: 01e6 59bc 7659 d7bd 2cc9 00be 01f5 1f3d
00000100: f96d 393d f4d7 38be 29ff 9b3c 4681 d5bc
00000110: ed94 0c3c 156f 99bc 3bea 303a 7d5c 96be
00000120: a41d 80bd 1019 94bd 49e1 a3bd df77 a7bd
00000130: a964 52be 5f13 7e3d f301 96bb 17d3 aebd
00000140: e191 0ebe 887b 623d 8bd3 1d3e 34b2 7dbd
00000150: 278d 89be 7b5c 92bd 135a 67be 9195 19be
00000160: a333 17be 00b7 6ebd 2974 633c 632c 49bb
00000170: 198d 3c3d 5b6d 84be 2964 e7bc e25a edbd
00000180: 7427 68be 2f18 403d 3e63 443d 09d9 23be
00000190: 22c9 893c 6965 5abb fc00 82bc d23c b6bd
000001a0: 5569 35be 0cd6 a63c 6f86 6fbc acaf 83bb
000001b0: 0070 06be d11e b6bd d417 8fbd a7aa 7d3b
000001c0: 0b4b 783b 2b2c bdbe 5ef8 103d 176b b63b
000001d0: ce5b 3a3d 6913 0bbd 6e88 d63c 8777 c2be
000001e0: 8074 f7bb 1a0f 43be 0a59 86bd b716 263d
000001f0: 0649 01be 3b93 15be 0325 c5bc 16a6 113d

brain.2.weight f4 [16, 128, 1, 1]
-0.17054503 -0.04466038 -0.028137276 0.02431864 -0.015617447 -0.0016007967 -0.029452043 0.048154045
0.028621338 -0.06550108 -0.060979273 0.00499105 0.019718563 -0.06772952 0.0717924 0.029195484
0.061106533 0.08030281 0.07923436 0.0022375348 -0.05061981 0.01531952 -0.05651571 -0.006278274
0.008018714 -0.0011312754 0.048207253 -0.039863177 0.02938756 0.047220558 0.017391203 0.017395265
-0.015526805 -0.027325926 0.032989286 0.027735433 0.04192044 -0.07393386 0.04308067 -0.075984515
0.057672735 0.072823554 0.07297257 0.036302548 0.026577964 0.038892467 -0.023049375 -0.036431815
0.028500559 0.07720511 -0.00080316846 -0.035719115 0.06119871 0.026948465 -0.06797921 0.06091819
-0.071778856 -0.0318738 0.025937596 0.071738586 -0.056934368 0.06985307 0.010510702 0.04493776
0.02658089 0.010089879 0.03895989 -0.009835165 0.053433757 -0.06329632 0.07949633 0.09919534
0.001065791 -0.022609407 0.063571654 0.05684812 -0.04124389 -0.019376824 0.033946324 -0.05009053
0.05435438 -0.0203468 -0.015204508 -0.0409555 0.0858943 0.0169871 0.003353368 0.046037562
0.06176946 0.03372334 0.033514567 0.054805476 -0.022069095 0.0065578027 -0.008706465 0.05279527
0.070472986 -0.028603634 -0.029466141 0.057126172 -0.008052472 0.02703552 0.033696678 -0.007039613
0.04010826 -0.10388113 0.03030534 -0.03127736 0.021444954 0.064885624 0.009931323 -0.029019644
0.03603044 0.015610416 0.0108069545 -0.0013209683 0.0564168 0.071836375 0.064242534 0.029080333
0.051763617 -0.054387446 -0.072434366 0.0068205567 0.01354381 0.011700943 0.04594523 0.019573795
-0.11588359 -0.026817355 -0.0144764595 0.020219188 -0.0046611503 0.014420182 -0.014226183 0.037217196
0.016895555 -0.047276318 -0.04128949 0.006326412 0.013437444 -0.045746982 0.058215514 0.021881247
0.043218426 0.0544565 0.053912066 0.0038182435 -0.03246225 0.016088556 -0.024346521 -0.0036872278
0.009091093 -0.010073133 0.039486643 -0.027512966 0.023636697 0.03209564 0.005263119 0.008880492
-0.0060526715 -0.021848384 0.02067976 0.01684715 0.032987636 -0.056553237 0.029574031 -0.046617284
0.037969712 0.045207884 0.049539905 0.01411812 0.013585756 0.03514756 -0.009587563 -0.02335797
0.017909862 0.04600929 -0.0019741685 -0.0061607114 0.04307648 0.021404399 -0.043974366 0.047408365
-0.048299436 -0.019969061 0.019772282 0.0443689 -0.029696923 0.047407392 0.00156131 0.022579575
0.02152809 0.008856388 0.022264464 -0.014728278 0.031934276 -0.035600383 0.06269085 0.064848304
0.00030437755 -0.016749574 0.039381586 0.038345903 -0.026219685 -0.007230411 0.028005626 -0.026379578
0.032066014 -0.0046425364 -0.0066156164 -0.016503979 0.065477714 0.012539783 0.00016143969 0.027564056
0.04355337 0.033344023 0.021877687 0.043328255 -0.009005089 0.0017869909 -0.007511122 0.031831402
0.043225374 -0.02350214 -0.019468915 0.039434474 -0.0064775306 0.02672784 0.024309654 0.0037496183
0.020088015 -0.05981645 0.024424031 -0.008439543 0.013741723 0.04640857 0.024107257 -0.02360922
0.028569741 0.008200475 0.012011117 0.0023514233 0.049834706 0.041433536 0.050225057 0.003345824
0.036980845 -0.039125945 -0.049840532 -0.007356376 0.014428727 0.01083028 0.037336938 0.016238723
00000000: 5ba3 2ebe cded 36bd 2580 e6bc e237 c73c
00000010: 52e0 7fbc d3d1 d1ba 6945 f1bc 2d3d 453d
00000020: 4c77 ea3c 6e25 86bd 67c5 79bd f68b a33b
00000030: d388 a13c c6b5 8abd e507 933d 5e2b ef3c
00000040: d84a 7a3d cd75 a43d a045 a23d 9ba3 123b
00000050: b856 4fbd b9fe 7a3c 047d 67bd fbb9 cdbb
00000060: ed60 033c 4e47 94ba f874 453d 9247 23bd
00000070: 2ebe f03c 586a 413d ff77 8e3c 8480 8e3c
00000080: 2464 7ebc 9fda dfbc c61f 073d 6b35 e33c
00000090: c4b4 2b3d a36a 97bd 5b75 303d c59d 9bbd
000000a0: 3f3a 6c3d 8424 953d a572 953d fbb1 143d
000000b0: 08ba d93c b54d 1f3d 0bd2 bcbc 8739 15bd
000000c0: 017a e93c b61d 9e3d b98b 52ba 354e 12bd
000000d0: 80ab 7a3d 07c3 dc3c af38 8bbd 5a85 793d
000000e0: cb00 93bd 1a8e 02bd 157b d43c aeeb 923d
000000f0: 0334 69bd 200f 8f3d 1435 2c3c a810 383d
00000100: 2bc0 d93c 0550 253c 6894 1f3d ac23 21bc
00000110: 5bdd 5a3d 80a1 81bd f9ce a23d ed26 cb3d
00000120: 03b2 8b3a 5d37 b9bc db31 823d 93d9 683d
00000130: 5aef 28bd 25bc 9ebc 4d0b 0b3d ba2b 4dbd
00000140: b3a2 5e3d 55ae a6bc 541c 79bc f4c0 27bd
00000150: 5ae9 af3d 8828 8b3c 2ec4 5b3b e291 3c3d
00000160: f901 7d3d 7c21 0a3d 9246 093d b57b 603d
00000170: 3fca b4bc d6e2 d63b 90a5 0ebc da3f 583d
00000180: 2454 903d 2b52 eabc fa62 f1bc 22fd 693d
00000190: 84ee 03bc 9879 dd3c 8705 0a3d 8eac e6bb
000001a0: 8f48 243d a1bf d4bd e842 f83c b01c 00bd
000001b0: 54ad af3c c1e2 843d fdb6 223c 9bba edbc
000001c0: a894 133d d5c2 7f3c a70f 313c 5724 adba
000001d0: 4d15 673d f31e 933d 9791 833d e139 ee3c
000001e0: 1606 543d 5fc5 5ebd 7858 94bd fa7e df3b
000001f0: dbe6 5d3c 50b5 3f3c 1131 3c3d 3959 a03c
00000200: 6054 edbd 12b0 dbbc ac2e 6dbc b6a2 a53c
00000210: 90bc 98bb a142 6c3c f014 69bc 0f71 183d
00000220: 8c68 8a3c d0a4 41bd 2b1f 29bd ca4d cf3b
00000230: ba28 5c3c 3061 3bbd 6473 6e3d 4d40 b33c
00000240: ce05 313d c70d 5f3d e6d2 5c3d 7f3b 7a3b
00000250: 23f7 04bd 26cc 833c 5b72 c7bc 6ba5 71bb
00000260: cff2 143c c809 25bc bfbc 213d df62 e1bc
00000270: bfa1 c13c b876 033d 3e76 ac3b 7c7f 113c
00000280: 7d55 c6bb 62fb b2bc 9a68 a93c 0903 8a3c
00000290: 0b1e 073d 5ea4 67bd 3d45 f23c c4f1 3ebd
000002a0: 2186 1b3d e72b 393d 5bea 4a3d b04f 673c
000002b0: ca96 5e3c e3f6 0f3d 2715 1dbc 3759 bfbc
000002c0: b4b7 923c 3d74 3c3d 0d61 01bb cbdf c9bb
000002d0: f770 303d 4758 af3c 771e 34bd 462f 423d
000002e0: a1d5 45bd 2896 a3bc 7bf9 a13c 2abc 353d
000002f0: f646 f3bc 412e 423d dfa4 cc3a cdf8 b83c
00000300: ad5b b03c 621a 113c f763 b63c e04e 71bc
00000310: 84cd 023d b5d1 11bd 0f64 803d 30cf 843d
00000320: dd94 9f39 6736 89bc 964e 213d 9810 1d3d
00000330: aaca d6bc 15ed ecbb 0e6c e53c fc19 d8bc
00000340: a757 033d 6b20 98bb d0c7 d8bb 5a33 87bc
00000350: 2e19 863d a973 4d3c 2348 2939 04ce e13c
00000360: 0565 323d be93 083d d638 b33c f878 313d
00000370: 158a 13bc 7739 ea3a dc1f f6bb a561 023d
00000380: 170d 313d 8f87 c0bc 467d 9fbc 0b86 213d
00000390: 7741 d4bb 58f4 da3c 0a25 c73c 28bc 753b
000003a0: 9f8f a43c 1802 75bd e814 c83c 0246 0abc
000003b0: f724 613c ea16 3e3d 957c c53c 1f68 c1bc
000003c0: 170b ea3c 495b 063c 47ca 443c 561a 1a3b
000003d0: 7a1f 4c3d 36b6 293d cab8 4d3d 9d45 5b3b
000003e0: 3a79 173d 8742 20bd 9625 4cbd c10d f1bb
000003f0: 7866 6c3c 7d71 313c 9eee 183d 1207 853c
