outputs/hybrid/hybrid_model.pt (torch, 36366 bytes, 3 tensors)

brain.0.weight f4 [128, 48, 1, 1]
0	0xbe4f1011	-0.20220973
1	0xbdd64bc1	-0.10463668
2	0x3d9f1d09	0.0776921
3	0xbe364aef	-0.17802022
4	0x3dc745fe	0.09730147
5	0x3b369abf	0.0027863232
6	0xbda9c8d8	-0.08290261
7	0x3db8d47f	0.090249054
8	0xbcc85b21	-0.024457516
9	0xbd8880fc	-0.06665227
10	0xbc7867ee	-0.0151614975
11	0xbd05dca6	-0.03268113
12	0xbda84cc4	-0.08217767
13	0xbca11cf4	-0.019667126
14	0xbdf3af30	-0.11898649
15	0xbe21e210	-0.15808892
16	0x3d984c48	0.074364245
17	0x3cd62e73	0.026145196
18	0x3d41d582	0.047322758
19	0x3d171bb3	0.03689165
20	0xbc3ab6c6	-0.011396116
21	0xbe674f21	-0.22588779
22	0x3b94b225	0.004537838
23	0x3e00b4e1	0.12569
24	0xbe508ba2	-0.20365766
25	0xbd3e1ed8	-0.046416134
26	0xbd8fb81c	-0.07017538
27	0xbd1ab0aa	-0.037766136
28	0xbd22bfba	-0.039733626
29	0x3d04378d	0.03227954
30	0x3e221e52	0.15831879
31	0xbd8086ce	-0.06275712
32	0xbda5f492	-0.08103289
33	0x3e4aaa5e	0.19791552
34	0x3dd033ee	0.10166155
35	0xbd7e48c7	-0.062081125
36	0x3e1a491b	0.1506695
37	0x3cb07b02	0.02154303
38	0xbe0f5e22	-0.14000753
39	0x3c855ca5	0.016279528
40	0xbdff5ae8	-0.12468511
41	0xbd5ee94e	-0.054421715
42	0xbd8729f9	-0.065998025
43	0x3d5a01c5	0.053224344
44	0x3c231cc3	0.009955588
45	0xbe18b3fc	-0.14912409
46	0x3d2f5c90	0.042812884
47	0x3dad623a	0.08466001
48	0xbe432f54	-0.19061023
49	0x3de1d196	0.110263035
50	0xbd9a4ba9	-0.07533962
51	0xbe1ee9d5	-0.15518887
52	0x3ccf0b70	0.025274009
53	0x3dc7c96b	0.09755214
54	0xbbadfaa7	-0.005309421
55	0xbdd3a2f8	-0.10333818
56	0xbd457d72	-0.048215337
57	0x3cc4d27d	0.02402615
58	0xbd186a21	-0.037210587
59	0xbb52bfce	-0.0032157782
60	0xbdfc0bbc	-0.12306926
61	0x3d0cdc90	0.034390032
62	0xbd3487e7	-0.04407492
63	0xbcd5a902	-0.026081566
64	0xbdc53f08	-0.09631163
65	0xbd6da8d2	-0.058022328
66	0x3e57b36e	0.2106454
67	0x3d4c313c	0.04985164
68	0xbc4d4a9d	-0.012529996
69	0xbd0dd6f3	-0.03462882
70	0xbd8076c5	-0.062726535
71	0xbd15e424	-0.036594525
72	0xbdf385d0	-0.11890757
73	0xbd09a528	-0.03360477
74	0xb9edef2e	-0.00045382365
75	0xbe269795	-0.16268761
76	0xbd86e30c	-0.065862745
77	0x3cbdba28	0.023160055
78	0x3bedc468	0.0072560795
79	0xbd2b0b1d	-0.041758645
80	0xbbe0e30e	-0.0068630045
81	0x3dbdfc44	0.092766315
82	0x3e449fb0	0.19201541
83	0x3e0759d6	0.13217863
84	0x3e956093	0.29175243
85	0xbe013fd4	-0.12622005
86	0xbe0938a9	-0.1340052
87	0xbdfc1575	-0.1230878
88	0x3ce0295a	0.027363468
89	0x3df7a4a5	0.1209195
90	0x3da31891	0.0796367
91	0xbda29fc3	-0.079406284
92	0xbd43a124	-0.047761098
93	0x3e58af4a	0.21160617
94	0x3db667bf	0.08906507
95	0xbde6ece0	-0.11275649
96	0xbe188867	-0.14895783
97	0xbe27e917	-0.1639751
98	0x3b894dd5	0.0041901865
99	0xbdf200c7	-0.118165545
100	0x3dc60078	0.09668058
101	0xba9a14e7	-0.0011755497
102	0xbd9f3b93	-0.07775035
103	0x3d742b18	0.05961141
104	0x3d8195bd	0.063273884
105	0xbcc02fbe	-0.023460265
106	0xbd9ae646	-0.075634524
107	0xbc9e6ade	-0.019338068
108	0x3e61a236	0.22034535
109	0xbcc0d921	-0.023541035
110	0xbc38c63c	-0.0112777315
111	0xbe0b7b2d	-0.13621207
112	0x3d361dc1	0.04446197
113	0xbbebd141	-0.007196576
114	0xbcd26f54	-0.025687851
115	0x3cd7f3fd	0.02636146
116	0xbdc4c909	-0.09608657
117	0x3c1174e5	0.0088779675
118	0x3d50055f	0.050786372
119	0xbda8709a	-0.08224602
120	0x3e1dc4a2	0.1540704
121	0xbb1e1705	-0.0024122607
122	0xbc0c9550	-0.008580521
123	0xbd8d3204	-0.06894305
124	0x3d83dec0	0.064389706
125	0xbd4e1b9b	-0.050319295
126	0x3d3bb02f	0.04582232
127	0xbd9a007f	-0.07519626
128	0x3d984cc4	0.07436517
129	0xbe4b9b7b	-0.1988353
130	0xbbd17a14	-0.0063927267
131	0x3cd1ee12	0.025626216
132	0x3d909152	0.07058968
133	0x3db756cb	0.08952101
134	0xbda88262	-0.082279935
135	0x3ea28b2b	0.31746802
136	0x3b91edbe	0.00445339
137	0xbc2f2205	-0.010689263
138	0xbe14a004	-0.14514166
139	0xbd9bbd15	-0.07604424
140	0xbb648a3a	-0.0034872429
141	0xbe7ee2b9	-0.24891175
142	0x3db28580	0.08716869
143	0x3da64155	0.0811793
144	0xbdf047f6	-0.117324755
145	0xbd124578	-0.03571078
146	0xbd543372	-0.051806875
147	0xbd4f7805	-0.05065157
148	0xbd764db4	-0.060132697
149	0x3c7aa79d	0.015298751
150	0x3d096100	0.033539772
151	0x3e062e52	0.13103607
152	0x3bca1755	0.006167332
153	0xbdf10e6a	-0.117703274
154	0x3d039704	0.03212644
155	0x3dd0fed9	0.10204858
156	0xbe69f5d2	-0.2284768
157	0x3c44c985	0.012010937
158	0xbe0c3964	-0.13693768
159	0xbe03fa28	-0.12888396
160	0xbbbe1630	-0.005800985
161	0x3cb340f3	0.021881556
162	0x3e06db78	0.13169658
163	0xbc943753	-0.018092787
164	0x3bfa0024	0.0076294113
165	0xbc607e7e	-0.013702033
166	0xbe063446	-0.13105878
167	0x3d2dbce4	0.04241647
168	0xbb9636b4	-0.004584158
169	0xbd05dc90	-0.032681048
170	0x3de3f25b	0.1113021
171	0x3e0770d8	0.1322664
172	0x3df632c6	0.12021403
173	0xbc08d7d7	-0.0083522415
174	0xbda538b3	-0.08067455
175	0x3de63eff	0.11242484
176	0xbd83a9b7	-0.06428855
177	0xbe80d2e8	-0.2516091
178	0xbd24bf8e	-0.040221743
179	0xbdcd700b	-0.10031136
180	0x3cfbe415	0.030748406
181	0xbd40a8c1	-0.047035936
182	0x3e064f20	0.13116121
183	0xbd6c0e27	-0.057630684
184	0xbdbc2491	-0.09186662
185	0xbd7300ea	-0.059327044
186	0xbe1b7f55	-0.15185292
187	0x3d139f68	0.036040694
188	0xbd03d02a	-0.032180943
189	0xbda1690c	-0.07881364
190	0x3d29bde2	0.041440852
191	0x3c81eb05	0.015859136
192	0x3ddd3398	0.10800856
193	0x3b8f88f9	0.004380342
194	0xba9bcad0	-0.0011886004
195	0xbd4cccc4	-0.049999967
196	0x3d9c1138	0.07620472
197	0xbcfd07e9	-0.03088756
198	0x3d7d3d6a	0.061826147
199	0x3d07af6b	0.033126276
200	0xbc239457	-0.009984097
201	0x3db275a8	0.087138474
202	0x3d732777	0.05936381
203	0xbd276b30	-0.040873706
204	0x3d1f7313	0.038928103
205	0xbc9820ec	-0.018570386
206	0x3d8fc973	0.07020845
207	0xbd845fac	-0.064635605
208	0x3cca03af	0.02465996
209	0x3bc9a3a0	0.006153539
210	0xbd4fef3a	-0.050765254
211	0x3d66e433	0.05636997
212	0xbda4ea77	-0.08052533
213	0xbe711cdc	-0.23546165
214	0x3d0e608a	0.034760036
215	0x3c6538cc	0.013990592
216	0xbd78f6a5	-0.060782094
217	0xbcaf6513	-0.0214105
218	0x3cd8e4cb	0.026476284
219	0x3d55323d	0.052049864
220	0xbd8fa3e6	-0.07013683
221	0x3b526fd0	0.0032110102
222	0x3e19e8c2	0.15030196
223	0xbd2c17b4	-0.042014793
224	0xbce2b0c4	-0.027672179
225	0x3e11dc6e	0.14244244
226	0x3d4a3a26	0.04937186
227	0x3d46ae44	0.048506036
228	0xbc67f025	-0.014156376
229	0x3c873dc6	0.016508948
230	0xbca0ac63	-0.01961345
231	0x3db912dc	0.090368
232	0xbd5594ce	-0.052143864
233	0x3dacacc7	0.08431392
234	0xbdaff688	-0.08591944
235	0x3d421a37	0.04738828
236	0xbca495f7	-0.02009104
237	0xbe15b8eb	-0.14621322
238	0xbbfc1533	-0.007692957
239	0x3ca118a1	0.019665064
240	0xbaef2fc1	-0.0018248485
241	0x3d2cb55e	0.042165153
242	0xbcc2f043	-0.023796206
243	0x3ddb59fc	0.107105225
244	0xbd5afe0e	-0.05346494
245	0xbb051c5f	-0.00203111
246	0xbe0f7f1e	-0.14013335
247	0xbda2ca4d	-0.07948742
248	0x3de1f177	0.11032384
249	0xbe0f6089	-0.14001669
250	0x3d0c79ae	0.03429573
251	0xbdb4071e	-0.0879042
252	0xbd15a864	-0.036537543
253	0xbdeb5a67	-0.11491852
254	0x3d329b6e	0.04360526
255	0x3e1d3f1f	0.1535611

brain.0.bias f4 [128]
0	0xbc7810f9	-0.015140765
1	0xbe04d1d0	-0.12970662
2	0x3bf55977	0.0074874717
3	0xbdc96aba	-0.098348096
4	0xbe998851	-0.29986814
5	0x3ca22896	0.019794744
6	0xbd335338	-0.043780535
7	0xbd28f21a	-0.04124651
8	0xbe00bf22	-0.12572911
9	0xbe108351	-0.14112593
10	0x3c84a1e2	0.016190473
11	0xbe20875b	-0.15676634
12	0xbd272271	-0.04080433
13	0xbe2a8205	-0.16651161
14	0xbe03a29f	-0.12855004
15	0x3df6cefe	0.120511994
16	0x3c1daef4	0.009624232
17	0xbdd66816	-0.104690716
18	0xbdc069cd	-0.0939518
19	0xbe529029	-0.20562805
20	0xbe24163b	-0.16024105
21	0xbe180b62	-0.14848092
22	0xbc98793a	-0.018612493
23	0xbd084d97	-0.03327712
24	0xbdb0ba36	-0.08629267
25	0xbe641f22	-0.22277501
26	0x3ba260f5	0.004955406
27	0xbe059d55	-0.13048299
28	0xbe5d7de3	-0.21630053
29	0x3cfe1e40	0.031020284
30	0xbe24bb13	-0.16086988
31	0xbde1f126	-0.110323235
32	0xbdd1fd3e	-0.1025338
33	0xbe542a37	-0.20719229
34	0xbc90b4cc	-0.017664336
35	0xbe26f7f2	-0.16305521
36	0xbdd012c2	-0.10159828
37	0xbe499bfd	-0.19688411
38	0xbdca3856	-0.098740265
39	0xbe126680	-0.14296913
40	0x3b0a96a5	0.002114692
41	0xbe3de172	-0.18543032
42	0xbe441cd4	-0.19151622
43	0xbd1f89b5	-0.038949687
44	0xbd6d6f95	-0.05796774
45	0xbde01764	-0.109419614
46	0x3cb21ed6	0.02174322
47	0xbd18d0a0	-0.037308335
48	0x3ca7e447	0.020494593
49	0xbd456957	-0.048196163
50	0xbe52a113	-0.20569257
51	0xbdaf13bd	-0.08548687
52	0x3c97922f	0.018502323
53	0xbe164e51	-0.14678313
54	0xbe1f1866	-0.15536651
55	0xbe66aa0c	-0.22525805
56	0xbe8cff07	-0.2753832
57	0xbdf88b5d	-0.121359564
58	0xbe6af07e	-0.22943303
59	0xbcd6866e	-0.026187148
60	0xbdc35e27	-0.095394425
61	0xbd23fac3	-0.040034067
62	0xbd120620	-0.035650373
63	0xbdc965b7	-0.09833854
64	0xbe9d6d65	-0.30747524
65	0x3c1070ca	0.0088159535
66	0xbe809f79	-0.25121668
67	0xbd76e3b8	-0.060275763
68	0xbd2c063c	-0.041998133
69	0xbe5b74de	-0.214313
70	0xbe96de7d	-0.2946662
71	0x3c423b10	0.011854902
72	0xbbc3c4b1	-0.005974375
73	0xbda666af	-0.08125054
74	0xbdc6dcf0	-0.09710109
75	0xbca09c64	-0.019605823
76	0xbdda8ccc	-0.10671386
77	0xbe01bb8b	-0.12669198
78	0xbe15ff54	-0.14648181
79	0xbcab91b4	-0.0209435
80	0xbe151129	-0.14557327
81	0xbd19cec5	-0.037550706
82	0xbde4815c	-0.11157486
83	0xbd73b918	-0.05950269
84	0xbc161b99	-0.009161853
85	0xbdd9dd3f	-0.106379025
86	0xbb421616	-0.0029615215
87	0x3c92bd3d	0.017912501
88	0xbd63ff45	-0.055663366
89	0xbdb08725	-0.08619527
90	0xbdf59d5e	-0.11992906
91	0xbdeea088	-0.11651713
92	0xbd96665c	-0.07343742
93	0xbdd3c8b4	-0.103410155
94	0xbd70ba01	-0.058771137
95	0x3d2954fa	0.041340806
96	0xbe057327	-0.13032208
97	0x3cdd330f	0.027001886
98	0xbd464154	-0.048402146
99	0xbcd5e72c	-0.026111208
100	0x3b7eede3	0.0038899116
101	0xbe0664df	-0.13124417
102	0x3ce567bd	0.028003568
103	0xbe28d351	-0.16486861
104	0xbe12884f	-0.1430981
105	0xbdf2252c	-0.11823496
106	0xbdbba513	-0.09162345
107	0xbdb82739	-0.08991856
108	0xbe23632b	-0.15955798
109	0xbe03b47d	-0.1286182
110	0xbe1c98a7	-0.15292607
111	0xbe01d6b5	-0.1267956
112	0xbe2c4f17	-0.16827045
113	0xbe1ee29b	-0.1551613
114	0xbd1b3e2c	-0.03790109
115	0xbc4a726a	-0.01235638
116	0xbdbfe670	-0.09370124
117	0xbd0f805e	-0.03503453
118	0xbe0c218c	-0.13684672
119	0xbd10c109	-0.035340343
120	0xbe53ea34	-0.2069481
121	0xbce418b8	-0.027843818
122	0x3c1b4403	0.0094766645
123	0xbd7d1dd4	-0.061796024
124	0xbe17974d	-0.1480381
125	0xbdb9831c	-0.0905821
126	0xbe02f3aa	-0.12788263
127	0xbdf92dac	-0.12166914

brain.2.weight f4 [16, 128, 1, 1]
0	0x3d6cd5e5	0.057821173
1	0x3d17c5f2	0.03705401
2	0x3b3afe5e	0.0028532962
3	0xbc3665ba	-0.011132652
4	0xbd4b1e31	-0.04958934
5	0x3b237236	0.0024939901
6	0x3d71d018	0.059036344
7	0x3d71b046	0.059005998
8	0x3d903ba8	0.070426285
9	0xbcc2a4f5	-0.023760298
10	0x3d131190	0.03590542
11	0x3d873062	0.06601025
12	0xbd232d63	-0.039838206
13	0x3d83bcb6	0.06432478
14	0xbc89da0c	-0.016827606
15	0xbd8d2faf	-0.068938605
16	0x3d18f9cc	0.0373476
17	0xbb0635f6	-0.002047894
18	0xbd8aa830	-0.067703605
19	0x3b850d5a	0.0040604295
20	0xbd12b0f2	-0.03581328
21	0x3d8f1b32	0.06987609
22	0x3a81a9a1	0.0009892472
23	0x3d2ec776	0.04267069
24	0x3d108d52	0.035291024
25	0xbdd01450	-0.10160124
26	0x3c8433e3	0.016138023
27	0x3d35d2d2	0.044390507
28	0xbc1fe278	-0.009758584
29	0x3cf1421e	0.029450472
30	0x3d1384eb	0.036015432
31	0x3ca9bf84	0.020721205
32	0x3d38b8be	0.04509806
33	0xbc23f8fc	-0.010008093
34	0xbce111e9	-0.02747436
35	0xbd2dc50d	-0.04242425
36	0x3dc5ed28	0.096643746
37	0x3c46add3	0.012126404
38	0x3d8984e5	0.06714801
39	0xbd0d5080	-0.0345006
40	0xbc92cb02	-0.017919067
41	0xbd191446	-0.03737285
42	0xbd05759c	-0.032582864
43	0xbd872977	-0.06599706
44	0x3c89bdc9	0.01681413
45	0x3d9322df	0.071843855
46	0x3d0ec1fd	0.03485297
47	0x3d06b233	0.032884788
48	0x3d70289b	0.058632474
49	0x3cd8aa33	0.026448345
50	0x3d95f352	0.073218
51	0x3d51a8dd	0.05118643
52	0x3d491af2	0.049097963
53	0xbc698649	-0.0142532075
54	0x3caacc50	0.020849377
55	0xbd1e05bd	-0.03857969
56	0xbd810041	-0.062988766
57	0xbcc06476	-0.023485404
58	0x3b823e61	0.0039747213
59	0x3cb0abec	0.021566354
60	0x3d7cd72f	0.061728653
61	0xbd45257d	-0.048131455
62	0xbd17a17a	-0.03701923
63	0x3d266431	0.040622894
64	0xbd6376f8	-0.05553338
65	0x3d3535a2	0.0442406
66	0xbd3fb139	-0.046799872
67	0x3cf40b3e	0.029790517
68	0x3d38b4a7	0.04509416
69	0xbca433ff	-0.020044325
70	0xbc1bbe2d	-0.009505791
71	0x3d850ac4	0.06496194
72	0xbcd6525a	-0.026162315
73	0x3d88af47	0.066740565
74	0x3c36c99f	0.011156469
75	0xbb8874cb	-0.0041643134
76	0x3da62eca	0.08114393
77	0xbd18baae	-0.037287407
78	0x3d189760	0.037253737
79	0x3d0dc8d9	0.03461537
80	0x3be91ed6	0.0071142716
81	0x3c597a83	0.013273838
82	0x3d344fdd	0.044021476
83	0x3d49450f	0.049138125
84	0x3ce1591b	0.02750831
85	0xbd6c49ad	-0.05768745
86	0x3d64b677	0.055838075
87	0x3d19f50e	0.037587218
88	0xbcbb9288	-0.02289702
89	0xbca83937	-0.020535095
90	0xbc9ffa8f	-0.019528655
91	0x3d83e004	0.06439212
92	0xbb86057a	-0.0040900083
93	0xbbcfc37e	-0.006340443
94	0x3d886aa6	0.066609666
95	0x3caa6d0f	0.020803956
96	0xbd6fa19c	-0.058503732
97	0x3d8f1bc8	0.06987721
98	0xbc9333af	-0.01796898
99	0x3c21eeb8	0.009883575
100	0xbcc9d4d3	-0.024637615
101	0xbcdead2f	-0.02718219
102	0x3c8f7d08	0.017515674
103	0x3d51b09e	0.051193826
104	0x3c237b06	0.009978062
105	0xbd7602e1	-0.06006134
106	0x3d36524d	0.044512082
107	0x3d0ac073	0.03387494
108	0xbcc7a0af	-0.024368612
109	0x3d7becbd	0.061505068
110	0xbd431639	-0.047628615
111	0x3da5bd05	0.08092693
112	0x3c4c8b28	0.012484349
113	0xbc976343	-0.018479949
114	0x3d61e254	0.055147484
115	0x3d3c434f	0.045962628
116	0x3a948ca8	0.0011333423
117	0x3cecfc49	0.028928893
118	0xbd6bfaef	-0.057612356
119	0x3cdcf727	0.02697332
120	0xbc7aa175	-0.015297283
121	0x3c427237	0.011868051
122	0x391f8b5a	0.00015215334
123	0xbc990559	-0.018679308
124	0xbd07a75c	-0.03311859
125	0x3d4b7ba7	0.04967847
126	0x3c9f82ae	0.019471493
127	0x3cd047f4	0.025424935
128	0x3cf6b48c	0.030115388
129	0x3bb0298e	0.0053760475
130	0x3c233a15	0.009962578
131	0x3ab89ccc	0.0014084815
132	0x3bb1f549	0.0054308516
133	0xbca0287c	-0.019550554
134	0x3d166ab6	0.03672286
135	0x3d2e33b6	0.042529784
136	0x3c9115b4	0.017710544
137	0x3c860220	0.016358435
138	0x3b380e69	0.002808476
139	0x3d0c1633	0.03420086
140	0xbcd1d660	-0.025614917
141	0xbc8a4c82	-0.016882185
142	0xbc8606d2	-0.016360674
143	0xbcfb6d45	-0.030691752
144	0x3c98b35a	0.018640209
145	0xbcf53c8f	-0.029936103
146	0xbcb4b220	-0.022057593
147	0x3d1349c4	0.03595902
148	0xbcfeb44c	-0.031091832
149	0x3d3b7091	0.04576165
150	0xbca09860	-0.019603908
151	0x3d5aaac4	0.05338551
152	0x3c7df6d9	0.015500748
153	0xbd3014db	-0.04298864
154	0x3c00e676	0.007867446
155	0x3cc56328	0.024095133
156	0x3c858c40	0.016302228
157	0x3cc45e2e	0.02397069
158	0x3c009f5a	0.007850492
159	0x3c31590c	0.010824453
160	0x3c9d5d9a	0.019209672
161	0xbbf932fb	-0.0076049543
162	0xbbbd6355	-0.0057796636
163	0xbce39f10	-0.027785808
164	0x3d3c3862	0.04595221
165	0x3ca6bc67	0.02035351
166	0x3ce66ea0	0.028128922
167	0xbc65418d	-0.013992679
168	0xbcfa35c8	-0.030543223
169	0x3c8403ea	0.016115148
170	0x3a418a2b	0.00073829544
171	0xbcef90ec	-0.029243909
172	0xbd46bacb	-0.048517983
173	0x3c39bf91	0.011337177
174	0x3ca31fac	0.019912563
175	0x3cf0d5ec	0.02939888
176	0x3c206b72	0.009791242
177	0x3cc6d785	0.02427269
178	0x3d2d251d	0.042271722
179	0x3c88d8fd	0.01670503
180	0x3cfd49ef	0.030919043
181	0xbca008f7	-0.019535525
182	0x3cafc5da	0.021456648
183	0xbc506a62	-0.012720676
184	0x3b7a49be	0.0038190926
185	0xbc21e213	-0.00988056
186	0xbb6ceb75	-0.0036151086
187	0x3ce8e9c5	0.028431782
188	0x3d05d69b	0.032675367
189	0xbc913b3f	-0.017728446
190	0x3b06a70d	0.0020546347
191	0x3cb1b818	0.021694228
192	0xbca1b681	-0.019740345
193	0x3c8f15dc	0.017466478
194	0xbceaf652	-0.028681908
195	0x3a4456f4	0.00074897637
196	0x3c55b7ab	0.013044278
197	0xbbaae023	-0.0052147075
198	0xbb3d0ac8	-0.0028845537
199	0x3cd9fe64	0.02661056
200	0xbd0a372c	-0.033744022
201	0x3cf1a262	0.029496375
202	0x3b881962	0.0041534165
203	0xbc8ddc78	-0.017317042
204	0x3d551888	0.052025348
205	0xbc8022f7	-0.015641673
206	0x3d051e72	0.032499738
207	0x3c3da0ea	0.011574009
208	0x3bc2f3ed	0.0059494884
209	0xba4a3883	-0.00077141094
210	0xbd6fbbbd	-0.05852865
211	0x3ce45e23	0.02787692
212	0x3cf97703	0.030452257
213	0xbcc702f9	-0.02429341
214	0x3cae2738	0.021258935
215	0xbd022cc2	-0.031780966
216	0xbcfc5198	-0.030800626
217	0xbcdedb8c	-0.027204297
218	0xbceea527	-0.029131485
219	0x3c526132	0.012840556
220	0xbb0f505a	-0.0021867962
221	0xba365730	-0.0006955741
222	0x3cbaa3a4	0.022783108
223	0x3c02c415	0.00798132
224	0xbd459920	-0.048241735
225	0x3cb67cce	0.022276308
226	0xbca33612	-0.019923244
227	0x3cbbaf3e	0.02291071
228	0xbcf8d958	-0.030377075
229	0xbbd9e520	-0.0066496283
230	0x3d1e76cd	0.038687516
231	0x3cd12cfb	0.025534144
232	0xbb967069	-0.004591037
233	0xbd0a7afb	-0.03380869
234	0x3c625ad2	0.013815599
235	0x3ca2da4c	0.019879483
236	0xbce7c456	-0.028291862
237	0x3c84bb82	0.016202692
238	0xbc8e7402	-0.017389301
239	0x3cee0844	0.029056676
240	0x3c00b78f	0.007856264
241	0x3b1c8e47	0.0023888515
242	0xbd27c468	-0.040958792
243	0x3cc8d4f8	0.024515614
244	0x3cab1586	0.020884287
245	0xbcb5c5d1	-0.022189053
246	0xbc85dee4	-0.016341634
247	0x3c266480	0.010155797
248	0x3c2c095d	0.010500279
249	0x3c7ad15b	0.015308703
250	0x3bac54b9	0.005259123
251	0xbbd41773	-0.006472522
252	0xbd261dc5	-0.040555734
253	0x3cbd2733	0.02308998
254	0xbc0eb94b	-0.0087111695
255	0xbd14a028	-0.03628555
