outputs/blackSquare_model.pt (torch, 36027 bytes, 3 tensors)

brain.0.weight f4 [128, 48, 1, 1]
00000000: 7f68 a03e c0f0 68bd 7815 d63d 1e7f 8fbe
00000010: c91f 6d3d c0b0 b7bb 684c 5c3e d5e0 353e
00000020: b330 24bc 625e e7bd d553 4539 0ab4 d73b
00000030: 4be2 373e bee7 573e f3c6 2dbe 23b1 f13d
00000040: cfbc 833c 3208 753c a536 c43d e501 4f3c
00000050: 4de0 e93d 9bd6 5dbe 0fd8 ee3d 41f0 113e
00000060: 341b 733e 33c0 6c3c 84ec 3fbd 70b4 d2bd
00000070: 2026 163e 07d3 f13b d029 c83c 1804 93bc
00000080: ae9a d5bd d7ab 73be ea23 6b3c 90c9 cd3d
00000090: 282e cc3d 678b a4bd 2174 83bd 2335 843d
000000a0: 39c5 a5bb 2fca 7f3d 24bc 313e fd8f 053d
000000b0: 354b b23b 8372 e8bd fd1e 8f3d 4a34 14bd
000000c0: 53cd 39be c364 0a3d d4c7 943d 3e04 953c
000000d0: 1031 4e3d f1f1 873d f29a d73d 62d5 a23d
000000e0: df9d 363d f63e 4ebe 960e 293d ac16 e3bc
000000f0: bc24 513e 0bf8 bc3d 9a33 15be f81e af3d
00000100: 7fd7 0f3e 5316 b6bd 5f7e 2bbd e453 e43d
00000110: 25fe 7dbc 487b 533d 6f41 b4bc b307 21bc
00000120: 9765 833e 259a 803d 0d8f 51bc 4fe6 91bd
00000130: 2743 89bd bf59 aebc 1bb7 9e3e 6693 12bd
00000140: 12f0 6fbd f848 30be 314a 07be c09d 473d
00000150: f03f dcbd e789 203c 376c 973d 4952 9d3d
00000160: 8ed5 ffbd db64 7d3d 81c4 dfbb e807 613c
00000170: 87f0 11bd bf8e 0abe 0a78 023d bc25 553d
00000180: 5729 38bf 1d74 003f 73e8 84bd bc50 5ebe
00000190: 2d5d f93d e325 3abd 3fca 5b3e 34a6 0bbe
000001a0: 77d3 28ba aee2 e6bd 2cf4 0bbd 0dbe 0d3d
000001b0: 5d75 b0bc 5963 ff3d b6e6 34bd 8b77 12be
000001c0: fe99 973d 170e 413d f0ca 343d b6b1 19be
000001d0: 2f10 b13c 184c 66be 801e 593e 9ab9 c8bc
000001e0: 97ca c93d 5208 f13a 66de 53bd 208b d33c
000001f0: bb5f 3abd af55 8dbd 562b b5bd f941 b33d
00000200: f30d a63d d659 cd3d fc93 e3bd b799 bc3c
00000210: 8028 31be 68f6 6f3d af53 3ebd adf5 f5bb
00000220: b83b febc a498 f83c 5a94 693e 2bea 9dbd
00000230: c8e4 013e 5005 313e 1e8d c4bd a78b 51bd
00000240: d827 ffbe 1de2 883b 3e2a eabc d647 94bd
00000250: b970 973d cd4d 38be 14eb 20bf 5cec 2ebe
00000260: ce52 09be 83c9 d03c 624a 9f3d 148b 80bc
00000270: 0016 b0bd 245d 643e 4c5b a9bc 5131 d33d
00000280: a20f 063d 3e99 67ba 144f b43e 1390 dc3b
00000290: 5ce9 d2bd e04b 30be 647f d4bd 37ec 353d
000002a0: a76f f33b c3fb d03b 4ebf 1d3a 9b7c 82be
000002b0: d326 9d3c b4ae 5bbd 1f3f bf3d 79d5 26bd
000002c0: 9074 05bd 206e c0bd abdb 7bbd 1750 583d
000002d0: c259 353e 5de4 e5bc c29b c73c ff67 173e
000002e0: f753 f4bd 27a2 66bd 0669 00be 418d 773d
000002f0: e915 01bd a4de 763d 81b5 a33d 98ef a7bc
00000300: 550b 45be 1a64 923e 41d9 db3d ade6 f03e
00000310: fe41 c6bd 237f d73d b067 823e 7257 b53d
00000320: 5340 8fbd 8565 a7be 3c98 663c daeb 913c
00000330: e2ce 523e 90fb 97bd 6fc9 9c3d 2d31 943d
00000340: b3b9 36bc 619d dd3c 8221 4c3e 9ddb a8bd
00000350: c08e 31bd cd49 b3be bb13 04bd 0963 4ebc
00000360: 695d ef3e 0a0d 413c d1c0 1bbd 4838 8bbe
00000370: 4a80 02be 0d7a c23c c8ac 163d 43a9 32bd
00000380: 1b9c b4bc 33de c4be eadf 313d 7b5c cc3d
00000390: fd03 2ebc b8d9 433d 028b ef3c cfda 513d
000003a0: 3d75 873d ba05 59bd df28 e43d 49f4 1b3e
000003b0: 774c bf3d 9dc2 a83d 361d 3abd d09d 403e
000003c0: 6372 443e 708b 4cbd 83ed b7bc 4cc1 6ebc
000003d0: 08b1 e2bc 419a 6c3d 84b3 133d b9bc eebc
000003e0: 1874 573b 60eb 543d c5a4 9b3d 621f a3bc
000003f0: c5e0 663e f35d c33d 8742 08be 19df a03e
0.31329724 -0.056870222 0.104533136 -0.2802667 0.05789164 -0.005605787 0.21513522 0.17761548
-0.010021376 -0.11297299 0.00018818614 0.0065827416 0.17957418 0.21084496 -0.16970424 0.11801364
0.016081242 0.014955567 0.09580735 0.012634729 0.11419735 -0.21663897 0.11662304 0.14251806
0.23740846 0.014450121 -0.04685642 -0.10288322 0.14662981 0.0073798927 0.024434 -0.017946288
-0.104298934 -0.2379602 0.014351824 0.100482106 0.09969741 -0.080344014 -0.06418634 0.064554475
-0.005058911 0.062448677 0.17356926 0.03260802 0.0054410943 -0.113499664 0.069883324 -0.03618268
-0.18144731 0.0337875 0.07264677 0.0181905 0.05033976 0.066379435 0.105276 0.07950856
0.04458415 -0.20141205 0.041273676 -0.027720772 0.2042417 0.09226998 -0.14570466 0.08550829
0.14047049 -0.08890977 -0.041868564 0.11148813 -0.015502487 0.051631242 -0.022003857 -0.009828496
0.25663444 0.06279401 -0.012790454 -0.07124006 -0.067022614 -0.021283029 0.30999073 -0.0357851
-0.05857856 -0.17215335 -0.13211896 0.048734426 -0.107543826 0.0097985035 0.07393687 0.0768171
-0.12491904 0.06186376 -0.006828845 0.013734795 -0.035629775 -0.13531016 0.03185276 0.05203794
-0.7193808 0.50177175 -0.06489649 -0.21710485 0.12175975 -0.045446288 0.2146387 -0.1363762
-0.0006440202 -0.112737045 -0.034168407 0.034605075 -0.021540338 0.12470121 -0.044165336 -0.14303415
0.074024186 0.047132578 0.04413885 -0.15009198 0.021614162 -0.22489965 0.21203041 -0.024502564
0.09853094 0.001838932 -0.051725768 0.025823176 -0.045501452 -0.069011085 -0.08846156 0.08752818
0.08108129 0.100269005 -0.1111221 0.023022516 -0.17300606 0.0585846 -0.046466526 -0.0075060935
-0.031034335 0.030346222 0.22810498 -0.077106796 0.1268493 0.17287183 -0.095972285 -0.051158573
-0.49835086 0.0041773454 -0.028584596 -0.07240264 0.07394547 -0.17998429 -0.628587 -0.17082351
-0.13410494 0.025486713 0.07777859 -0.015691318 -0.08597946 0.22301155 -0.020673417 0.10312141
0.032729752 -0.00088347855 0.35216582 0.006731042 -0.10298416 -0.17216444 -0.1037586 0.044414725
0.0074290815 0.0063776686 0.00060175813 -0.2548569 0.019183552 -0.053633407 0.09338211 -0.040730927
-0.032581866 -0.09396005 -0.06148879 0.052810755 0.17710021 -0.028062994 0.024366263 0.14785765
-0.119300775 -0.056306984 -0.12540063 0.060437445 -0.031515036 0.06027092 0.079936035 -0.02049999
-0.19242604 0.28591996 0.10734797 0.47050992 -0.09680556 0.10522296 0.25469732 0.088545695
-0.06994691 -0.3269464 0.014074381 0.017812658 0.20586732 -0.074210286 0.07655608 0.07235942
-0.011152673 0.027052583 0.19934657 -0.08245013 -0.043349028 -0.35017243 -0.03224538 -0.012596854
0.46750954 0.011782894 -0.03802568 -0.27191377 -0.12744251 0.023739839 0.03678587 -0.04361845
-0.022047093 -0.38450775 0.04342643 0.09978577 -0.010621068 0.047815055 0.029241089 0.051234063
0.06614158 -0.052983977 0.11140608 0.15229906 0.093407564 0.082402445 -0.045438014 0.188102
0.1918426 -0.049937665 -0.022452122 -0.014572453 -0.027672306 0.057764295 0.03605987 -0.029142724
0.0032875594 0.051982284 0.07599787 -0.019912425 0.2254668 0.09539404 -0.13306628 0.3142021

brain.0.bias f4 [128]
00000000: 97cc 263b 33d8 0b3c 3072 bebd 0678 1cbe
00000010: f56f 4abb a764 04be e168 fabb 9537 22bd
00000020: db3c 46bd fe4c 59be 8378 83be 0634 db3a
00000030: 9ed6 28bd 2ac4 1b3c 9b2d f4bd 91af 89be
00000040: 47d9 38bd 0b9f a3bd ac30 c1bd 5746 2ebb
00000050: 1c9e c7bd 2dbc 49bc 8988 43bd eab8 81bd
00000060: e0e4 bf3b e450 24be 471f 82be 017b 29be
00000070: dc13 3ebd 8377 78bc 9129 cbbb 120c 18bd
00000080: fd29 29be b262 a7bd 74c8 b5bd 7058 40bc
00000090: 8327 993b cbc2 4c3c e3d4 bdbd 5c0d 47bc
000000a0: a722 f8ba fa75 64bd ddd6 01bd 2ed3 21be
000000b0: 0e3c 6cbd 9450 87bd 7271 46be 2a48 71bd
000000c0: f3d7 2dbe 0937 e0bd dc90 acba a1ac 5ebe
000000d0: ddd1 54be acbc febb 54ca 46be 28e9 23bd
000000e0: 8844 6cbe ed23 60bc 4a86 7b3a 448f 31bc
000000f0: ea7b 86be 6263 1bbd 89ad a9bd 8df8 85be
00000100: a823 d0ba 637b cbbd 5f33 8cbd f97b aabc
00000110: 7004 e8bd f7cd b9bd 6eb9 aabd 548e 14bd
00000120: 0e2d 43be 9d0c efbc f4b2 f3bb 5290 3fbe
00000130: 94d1 29be ca78 83be ba6c 80bd 133d 9abc
00000140: a0f4 2fbe 6cfa 9c3c c039 adbd 3903 9cbd
00000150: a10a 11bd 92ad 12be 21f3 8bbc 03e4 2fbd
00000160: 9e06 413b 4e7d 13bd 3f60 2fbd 5345 18be
00000170: c2ce f7bd eae9 84bb 0761 fdbd 4f3f 38be
00000180: d0a4 84bd 3d7f 5dbe 22d7 80be 9c21 ff3a
00000190: 8506 adbd 95aa 59bd b2ca 6ebe 9276 5bbe
000001a0: 4207 f03c 5412 d3bd b2d2 acbd 39f2 8bbd
000001b0: 3da6 5cbc b726 6fbe c215 4ebc c623 04be
000001c0: d7ea c3bc 0871 8ebd 3a75 39bd e9d8 3fbe
000001d0: c790 66be c1d2 9abb 7a17 88bd c764 483c
000001e0: 6fd7 8cbe d578 4cbe 9f2c 95bd c93d 0abd
000001f0: 5a07 c4bd 8005 fbbd 7186 1dbd 6d97 48bd
0.0025451535 0.008535433 -0.09299123 -0.1528016 -0.0030889485 -0.12929021 -0.007641897 -0.03960379
-0.04839788 -0.21220776 -0.2567788 0.0016723878 -0.0412203 0.009507218 -0.11922761 -0.2689176
-0.045129087 -0.079893194 -0.094331115 -0.0026592219 -0.09746954 -0.012312931 -0.047737632 -0.06334098
0.0058561414 -0.16046482 -0.25414488 -0.16550829 -0.046405658 -0.015165213 -0.0062000235 -0.037120886
-0.16519924 -0.081731215 -0.08876124 -0.011739835 0.0046738996 0.012497614 -0.092691205 -0.012149181
-0.0018931226 -0.055776574 -0.03169905 -0.15803215 -0.05767446 -0.06607166 -0.19379213 -0.05890671
-0.1697691 -0.10947997 -0.001316573 -0.2174554 -0.20783181 -0.0077739563 -0.1941312 -0.040017277
-0.23073018 -0.01368044 0.0009594901 -0.01083738 -0.26266414 -0.037936576 -0.08285052 -0.26166192
-0.0015879767 -0.099356435 -0.06845736 -0.020811068 -0.113289714 -0.09072488 -0.08336149 -0.036268547
-0.19060156 -0.02918082 -0.0074371044 -0.18707398 -0.16583854 -0.25678092 -0.06270738 -0.01882795
-0.17183161 0.01916238 -0.084582806 -0.07617802 -0.035410527 -0.14324024 -0.017083706 -0.04294206
0.0029453407 -0.03600817 -0.042816397 -0.14870195 -0.12099983 -0.004056205 -0.12372022 -0.179929
-0.06476748 -0.21630569 -0.25164133 0.0019464972 -0.08448509 -0.053141195 -0.2331951 -0.2143195
0.029300336 -0.1030623 -0.084386244 -0.0683331 -0.013467369 -0.23354612 -0.01257843 -0.12904271
-0.023915691 -0.06955153 -0.04527781 -0.18735088 -0.22516166 -0.004724831 -0.06645103 0.012231058
-0.27508113 -0.19967969 -0.072839014 -0.03375033 -0.09571715 -0.122569084 -0.03845829 -0.048972536

brain.2.weight f4 [16, 128, 1, 1]
00000000: dfa3 7bbb ab51 673b 7e19 cb3b cf5c a93a
00000010: 63ff 5d3c 44c1 d1ba 450c c23a 614a 31ba
00000020: c3a6 c3ba 5cbc ba3b 8d47 9bbb f7a2 f7ba
00000030: 1f10 13bb 7648 25bb 247a c3bb 8eb0 65bb
00000040: ff26 883c b75c 773b 372e 173b fa47 9d3b
00000050: 4837 39b9 e6d2 d13a de1b a13a 79c6 4f3b
00000060: 5d90 a3ba c2c7 a83b 1a33 cb3b c45f c3bb
00000070: c3df 333b bec1 09ba 675b 1bbb e3fa fbb8
00000080: e67c 213b b0ed 213a 31a7 2b3b 891a 1e3b
00000090: 8bfe 493a 8021 e7bb 2798 c239 2e70 813a
000000a0: c790 803b 3114 f23a b390 943a e82b cd39
000000b0: 5be6 8bba 7348 113a ebef ddba de06 1dba
000000c0: 5004 44bb dead 4a3b de1f 343b 8e91 173b
000000d0: 1b82 94bb a79a d5ba 01bb 84ba 9c68 2d3b
000000e0: f5cc 7ab9 a999 22bb b109 783b 2fc6 b8ba
000000f0: bce8 f3bb 60f1 dcba 9986 113a 1903 7dbb
00000100: ce9a 05bb cf18 2b3b 6854 b0ba 8a1b 8bb9
00000110: 121e d538 4002 59bc 009b 8bb8 48b7 fc3b
00000120: ba62 f2ba 2c01 983b 5e78 5cba dc9b b2b9
00000130: 712c d13a c0bd 9e3b 1957 e43a 7521 0c3a
00000140: db6a b3b9 eec1 083b 5870 b63a 4bd3 3b3a
00000150: 16f0 f23a a5b2 4a39 a996 19bb 2e77 a8bb
00000160: d449 13bc 54b5 3d39 23df 743a 7df7 353b
00000170: 878f 033c 54e4 df39 9680 0f3a 5c1e 2a3b
00000180: 40b8 8c3a 40eb a63b b555 2abb c3c8 fb3a
00000190: a158 4abc b0d9 72bb 1fb6 0bbc 93be 623b
000001a0: 6779 8738 6d64 d1bb 7f37 3cbb 04e5 3a3b
000001b0: 7143 8fb9 1948 123c 7673 93ba f34c 9239
000001c0: d22b 28ba 69af e33a fe7b 543b ad1d bcbb
000001d0: 34ca 15bb 6f18 8e3a 6b83 b3ba 828b 0bbb
000001e0: 4795 86ba 96a3 08bb 1faf 2a39 31a4 383b
000001f0: f5d6 933a 4bb0 e039 2b06 a13a ea3a 02bc
00000200: f7a3 92ba a4ec c63a 064d f3ba b13e 0c3b
00000210: ffcb 8639 5ebc 26ba b97a 9f3a d379 27b9
00000220: 0f3e 353b b24e 313c 04ff 5ebb 4f9a d4ba
00000230: db40 1fbb ddd9 b3ba c480 a5bb 3854 433a
00000240: f1c0 35bb 88cc 853a fdce bf3b 272d 32b9
00000250: b8a7 283b 8313 8d3a b94b 1c3a d3e6 0f3b
00000260: d718 233a 8a83 1c3a 7acf 94ba 3ce5 d0bb
00000270: d497 f83a 2a4c 543b 8595 333b 21f6 07bb
00000280: 021e 12bb b247 11b9 649b 2fba 9531 1dba
00000290: 9564 b639 7033 063a f1e6 49bb 896b a4ba
000002a0: 4238 86ba 8375 b4bb 4ead 17ba 3b8b 1d3b
000002b0: 392c 8d3b 8c71 843a 0b6e 30b9 6786 92ba
000002c0: af90 543b 2255 86bb f26d a7bb e511 c1ba
000002d0: e057 6c3b 77fa 18ba b582 81bb 2dee 48ba
000002e0: f9c1 2cbb 93fa 75b9 b1e3 79bb 3b0a 3ebb
000002f0: 12b4 4abb 2f52 1a3a 7ddb 11b9 5277 22bb
00000300: 6b52 2db3 6859 ca39 c2c2 cbbb 4693 8cba
00000310: 981e 97b9 8b4f 173a 7988 6fb7 4358 aaba
00000320: dff7 68bb 87be 81bb 8b7d 343a fd1c 11bb
00000330: 141f 7fba 694c 1dbb 147a 5f3b c845 e8b9
00000340: 5eb3 a93b e164 d7ba 3f3b f4b9 51c2 77bb
00000350: 63d5 973b 9f4a c7bb b0ac aebb df16 e6b9
00000360: 2298 02bb 589b 87ba 9657 3abb d587 e7ba
00000370: fa9e 23bb 5b17 d2ba b1d3 45bb a7ed 84bb
00000380: da2e 143b 475c 57bb 7ec7 c53a 8d56 553a
00000390: f93d da3b 6e07 4dbb e7b1 04bc 5968 0e3b
000003a0: d1e1 2e39 e29d 9ebb 1dd6 e4ba 29ce 3cbb
000003b0: 4f9a 98bb 1543 343a aedd b43a e62f 8a3b
000003c0: 0ea6 c33b 512d ccb9 0eac ee3b 3669 cebb
000003d0: 8269 87ba f382 c83a 8cf7 fcbb f4ea 14bb
000003e0: c47e 063b 5150 34b9 f04c 303b 4e5a 67b9
000003f0: 11d4 c13b c4b9 33bb 16b0 343b 8dd5 b73b
-0.0038397235 0.003529648 0.0061981073 0.0012921336 0.0135496585 -0.0016003032 0.0014804682 -0.00067630975
-0.0014927018 0.0056987237 -0.004738754 -0.0018893172 -0.002244003 -0.0025220192 -0.005965488 -0.0035047862
0.016620157 0.0037744471 0.0023068318 0.00479984 -0.00017663569 0.0016008287 0.001229163 0.0031703992
-0.0012478937 0.005150766 0.00620116 -0.005962344 0.0027446605 -0.0005255005 -0.0023705603 -0.00012015344
0.0024641096 0.0006177081 0.0026192183 0.0024124703 0.00077054714 -0.007053554 0.00037115926 0.0009875351
0.003923509 0.0018469152 0.0011334628 0.0003913336 -0.001067351 0.0005542107 -0.0016932463 -0.0005990098
-0.0029909797 0.0030926387 0.0027484815 0.002312753 -0.0045321113 -0.00162967 -0.0010126532 0.0026460057
-0.0002391821 -0.0024810827 0.0037847573 -0.0014097149 -0.0074435156 -0.0016856603 0.00055513676 -0.0038606583
-0.002038646 0.0026107316 -0.0013452889 -0.00026532664 0.000101622325 -0.013245165 -6.6569075e-05 0.0077122785
-0.0018492558 0.0046388116 -0.000841027 -0.0003406693 0.0015958679 0.0048443973 0.0017420977 0.00053455617
-0.00034221154 0.0020867544 0.0013918979 0.0007164969 0.0018534686 0.00019330771 -0.0023435748 -0.0051411605
-0.00898977 0.00018091995 0.0009341111 0.0027765923 0.008029825 0.00042703992 0.0005474178 0.0025958037
0.0010736063 0.005093962 -0.0025991027 0.0019209612 -0.012350232 -0.0037056021 -0.008527308 0.0034598454
6.4599146e-05 -0.0063901455 -0.0028719602 0.0028517852 -0.00027325333 0.008928322 -0.001124962 0.00027904622
-0.0006415221 0.0017371002 0.0032422538 -0.0057408423 -0.0022856118 0.0010841022 -0.0013695782 -0.002129287
-0.0010267877 -0.0020849458 0.00016277701 0.0028174038 0.0011279272 0.00042855958 0.0012285163 -0.0079486165
-0.0011187781 0.0015176726 -0.0018562383 0.0021399672 0.0002571046 -0.00063604664 0.0012167312 -0.00015971744
0.0027655398 0.010821985 -0.0034026513 -0.0016220304 -0.0024300131 -0.0013721545 -0.0050507504 0.0007451209
-0.002773341 0.001020805 0.0058535323 -0.00016992223 0.0025734734 0.0010763261 0.0005962211 0.002195765
0.0006221658 0.00059705286 -0.0011353337 -0.006374983 0.0018966147 0.003239403 0.0027402353 -0.002074607
-0.0022295718 -0.00013854986 -0.0006698875 -0.0005996463 0.00034788685 0.0005119359 -0.0030807818 -0.0012544255
-0.0010240155 -0.0055071726 -0.0005786017 0.0024039287 0.0043082503 0.001010464 -0.00016825662 -0.0011178971
0.003243487 -0.004099504 -0.005109542 -0.0014730064 0.003606312 -0.0005835662 -0.003952349 -0.00076648855
-0.0026360734 -0.00023458367 -0.00381301 -0.0028997797 -0.0030930084 0.000588688 -0.00013910043 -0.0024790359
-4.035466e-08 0.00038595055 -0.0062182853 -0.0010725043 -0.00028823758 0.00057720457 -1.4277285e-05 -0.0012996275
-0.0035548133 -0.00395948 0.00068851624 -0.0022142523 -0.0009732109 -0.0024001843 0.0034099864 -0.0004430248
0.005178853 -0.0016433262 -0.00046583448 -0.003780503 0.004633592 -0.0060818936 -0.0053306445 -0.0004388606
-0.0019927104 -0.0010345979 -0.0028433553 -0.0017664382 -0.0024966584 -0.0016028689 -0.0030185992 -0.0040566507
0.0022610934 -0.0032861398 0.001508936 0.0008138202 0.0066602197 -0.0031284946 -0.008099056 0.0021729677
0.00016678056 -0.0048405984 -0.001745883 -0.0028809404 -0.004657067 0.0006876451 0.0013798976 0.0042171357
0.005970723 -0.00038943675 0.007283694 -0.006299163 -0.0010331126 0.0015297815 -0.0077199396 -0.002272305
0.0020522336 -0.00017196058 0.0026901327 -0.00022063518 0.005915173 -0.0027423957 0.0027570776 0.005610174
