outputs/blackCircle_model.pt (torch, 36027 bytes, 3 tensors)

brain.0.weight f4 [128, 48, 1, 1]
00000000: f973 c6bd 80eb 063c 785e 943d 29c6 f4bd
00000010: 84f2 4f3d c707 c73d 9ce3 053e a688 b9bd
00000020: 60be ccbd 96ea ccbb 2d12 8d3b 3c11 03be
00000030: b5bf 73bc 88d7 a9bd 05a6 d93d 9a22 fcbd
00000040: ef6a e4bd 6ceb b6bd 6c88 b9bc eb4c 98bd
00000050: 90f0 62bc a3ec df3d 9349 80bb 958b 05bd
00000060: 59dd d9bd e1cf c53d 87f3 1d3d b94c dd3c
00000070: dee2 003e 097a e4bd 11aa 9bbd f23c ebbd
00000080: 7702 05be 7a14 bfbc 85fb 173e 08ea efbc
00000090: ba8d a23d fc91 7e3d df37 2cbd 830d 3a3c
000000a0: fc9f e2bd 632c a2bd eeaf 03bd 71bf d13d
000000b0: d442 abbd 2713 e2bc c8de 023e 9a0c fcbd
000000c0: 7f26 d4bb ac5c a7bd ba5c af3c 537d b63d
000000d0: 9567 0a3e 1601 e73d 5e0d 8cbd 605a debd
000000e0: 5b3a 6d3d b134 823d e873 97bd f65f 873c
000000f0: 5dca eabd 0bca e73c 6714 db3d 4881 573d
00000100: e2d4 61bd 1e14 9e3d b3aa 903d 141c 6a3d
00000110: 7092 943d 7c70 c5bd be92 f13d af3e f43d
00000120: a336 f73d 5cf6 f2bd f569 d13b e4c5 0ebe
00000130: 644b e5bb a12d e6bc 1241 2abd e5ad c0bd
00000140: ae94 97bd 9a36 b4bb 62eb 99bd 0a23 0a3e
00000150: f814 1a3d 741e 1fbd 7572 8bbd 2415 a2bd
00000160: c29c a5bc b470 aebd c3cf 0b3e 88e7 1b3e
00000170: 95a7 0abe f852 cdbd 8cd5 cc3d a0fd ebbd
00000180: dacc c83d 38e6 9bbd 3205 93bd d7f9 99bd
00000190: 6c1a f7bd 8cec adbd 0da8 733d 957a 32bc
000001a0: d200 33bc 268c 63bd da2c 61bd fad7 263d
000001b0: dcd6 313d 8fbd cf3d 5a1d dcbd 99f3 563d
000001c0: 52a1 19be f6b1 6b3d cc81 bfbd 9861 02be
000001d0: f81f 433d eaec 04be ef4a b7bd 70ab d3bd
000001e0: 6edb 0a3d bc48 813c b834 893c fbcf f8bd
000001f0: fdf4 c2bc 39be 1fbd 512a b53d 32db b33d
00000200: 38db 26bd ddcc 173e 0d72 0fbe bf9d 933d
00000210: 0be5 e1bd a63e bb3d cddb 4ebd c0d8 af3b
00000220: 330f 9abd f30d 023d 6d8e 03be 401d 0c3d
00000230: bb7b 2abc 0f0c e0bb d22f e03d 4b4f 053e
00000240: 4654 b7bd 6d9a 9abc 55ed d6bb a128 0ebe
00000250: bf06 c93d 0a8b c5bb 45dd ba3d 74f6 0abd
00000260: 7bd2 3d3d f70e 283d d5d4 943d c448 57bd
00000270: 6b0d 0b3e a3fd 1ebd daea 89bd 4dfb 9f3d
00000280: 90c0 78bd 3a84 033e 49bc a33d c18e 4b3d
00000290: 4feb 2dbd 2e9c d8bc dfa2 f4ba a8ad 633d
000002a0: 383f 09bd a98e 2a3d d942 6b3d 3e44 aebc
000002b0: 9b26 c6bc 4565 85bc 73e7 88bd df5c 3f3d
000002c0: e875 e83d 08ae 1b3d 0b32 e0bd f91f 963d
000002d0: 4fa9 0f3d ba48 17bd 6592 e23d 81dd 06be
000002e0: ec0c f2bc 53a3 a13d 30c3 31bd 2009 0f3e
000002f0: 50e2 b5bd 93f3 f9bd 0230 273c 663d 91bc
00000300: c3e9 95bd eb7b 7dbd b928 cd3d 469d f4bc
00000310: c2f0 f23b c36b 283d ce78 af3d 15a1 cbbc
00000320: e19c 01be ebd7 d5bd e34d cdbd 9f33 b13d
00000330: 1377 cbbd e950 7b3d 5384 313d 4b66 e23d
00000340: 2744 20bd 6c53 113e 7620 aebd a120 16be
00000350: d053 83bd 53a2 89bd c542 5b3d 4a2c b53c
00000360: 97f1 2b3c 1ed9 193d d725 9d3c d74a 043e
00000370: 8237 babd a71d 6abd 5617 8a3c 0866 78bd
00000380: 1a79 debd 2b06 c3bd 542e f43c 6f94 55bd
00000390: f906 e93c 1065 cb3d 64f4 46bd 5007 8cbd
000003a0: 647d 8d3d 305d 72bd 4a07 2abd dda8 64bd
000003b0: 669b 37bd 11b8 1cbc 7bbb c03d 01ab fdbd
000003c0: bcbd a33d e623 d0bc 2f36 ac3d aff5 60bc
000003d0: 6406 463d abf3 ad3d 1581 dabd ff40 16bc
000003e0: c82b 10bd 3c90 e2bd c759 ec3d 117c 023b
000003f0: b262 a6bb c648 a83d 6b1a 2dbd 4460 0fbd
-0.09690089 0.0082348585 0.07244581 -0.119518586 0.05076839 0.0971828 0.13075107 -0.09059267
-0.09997249 -0.0062535508 0.0043051452 -0.12799543 -0.0148772495 -0.082930624 0.10627369 -0.12311287
-0.111532085 -0.08931622 -0.022648059 -0.07436546 -0.0138513 0.10933807 -0.0039150207 -0.03260382
-0.10637922 0.096587904 0.038562324 0.027014123 0.12586543 -0.11156089 -0.07600797 -0.11486234
-0.12989222 -0.023325194 0.14842041 -0.0292864 0.079371884 0.06215094 -0.04204547 0.0113557605
-0.11065671 -0.07918622 -0.0321502 0.10241593 -0.08362356 -0.027597023 0.12780297 -0.12307091
-0.0064743157 -0.08171973 0.02140652 0.089106224 0.13516076 0.11279504 -0.06838487 -0.108570814
0.05791698 0.06357706 -0.07395154 0.01652525 -0.11464379 0.028294584 0.10697251 0.052613527
-0.05513466 0.07718681 0.07063808 0.057155684 0.07254493 -0.09640595 0.11795567 0.119260184
0.12070968 -0.118633956 0.006390805 -0.13942677 -0.0069975127 -0.02809793 -0.041565962 -0.09408168
-0.07401405 -0.005499673 -0.07515599 0.13489929 0.037617654 -0.0388474 -0.0680894 -0.079141885
-0.02021635 -0.0851759 0.13653474 0.15225041 -0.1354049 -0.10025591 0.10001668 -0.115229845
0.09804697 -0.0761227 -0.07178725 -0.07518356 -0.120655864 -0.08492383 0.059486438 -0.010893484
-0.010925489 -0.055553578 -0.054974414 0.040733315 0.043417796 0.10143577 -0.10747786 0.052478407
-0.15002945 0.057542764 -0.09350929 -0.12732542 0.04763791 -0.12981 -0.08949839 -0.103354335
0.03390067 0.015781753 0.016748771 -0.12149044 -0.02379846 -0.03899977 0.08845962 0.087820426
-0.040736407 0.14824243 -0.1400835 0.07207822 -0.110300146 0.091428086 -0.050502587 0.005366415
-0.0752243 0.031751584 -0.128473 0.034207582 -0.010405476 -0.006837375 0.10946621 0.13018529
-0.08951621 -0.018872464 -0.006559054 -0.13882686 0.0981574 -0.0060285376 0.09124235 -0.033926442
0.046343308 0.041029897 0.07267157 -0.05255963 0.13579337 -0.038816106 -0.067342475 0.07811604
-0.060730517 0.12843409 0.07994897 0.049696688 -0.042460736 -0.02644166 -0.0018664262 0.055585533
-0.033507556 0.041639958 0.057436798 -0.021272775 -0.02418833 -0.01628364 -0.066847704 0.04671943
0.11350614 0.038007766 -0.10947045 0.07330317 0.035073575 -0.03693459 0.11063079 -0.13170435
-0.029547177 0.0789248 -0.043399036 0.13968325 -0.08881056 -0.12204661 0.010204317 -0.017729472
-0.07319977 -0.061885756 0.10017533 -0.02986015 0.0074139545 0.041118395 0.085679635 -0.024857083
-0.12657501 -0.10441574 -0.10024621 0.08652424 -0.09934821 0.06135646 0.043339085 0.11054667
-0.039127495 0.14191979 -0.08502285 -0.14660884 -0.0641247 -0.06720414 0.053530473 0.022115845
0.010494611 0.037560575 0.019183083 0.12919174 -0.090926185 -0.057157185 0.01685683 -0.06064418
-0.10862942 -0.09522661 0.029807247 -0.05214351 0.028445708 0.099313855 -0.048572913 -0.06837332
0.06908682 -0.0591709 -0.041510858 -0.055825103 -0.044825934 -0.009565369 0.09410759 -0.12386132
0.07995173 -0.025407743 0.08408772 -0.0137304505 0.04834594 0.084937416 -0.10669152 -0.00917077
-0.035198003 -0.11062667 0.11540561 0.0019910375 -0.0050776834 0.082170054 -0.042261522 -0.035003915

brain.0.bias f4 [128]
00000000: 8f21 a1bd b7dc 03bd fa98 18be 1b72 3b3c
00000010: d52a c13b 4a97 8abc 6c5a 4ebd ed92 283d
00000020: 4c05 fd3d 4db2 03be 49bc 2fbd 3723 f2bc
00000030: fa7b acbd 9f1b 163d 7032 b13d 8db4 c2bd
00000040: 2aab a83d 9ee9 0a3d da49 0abe f479 e9bc
00000050: c541 17be 2737 a63d 1f63 b2bd 6eaa 8a3d
00000060: 4621 1dbd 4788 adbd 12e7 15be 3da7 fbbd
00000070: fe2d 993d 4caa a6bd d8d4 223d 2d39 1bbd
00000080: eee2 82bd 74ba 47bd bfca 7dbd efe8 32bd
00000090: bd5a a2bd ff19 f73d 4ab7 9c3c be7e 84bc
000000a0: 77d4 393d 4dd8 f8bc d312 b43d 1843 823d
000000b0: 826a 12bd 2f77 193d a941 963d 8fea a9bd
000000c0: 7393 d9bd fc60 03bd 2d05 973d 9330 58bd
000000d0: 0a90 00be 391b d3bd 768c b3bd 69ae b1bd
000000e0: 06ff 45bd 56a0 cdbd 3b58 a33d 7e44 02be
000000f0: 6500 c0bd 98b8 b4bd 9c04 d93c 6aff 80bd
00000100: 698b 063e 18a0 d43d 142e b9bd 7628 09bc
00000110: 7446 3cbd a1d4 ef3d 6d58 cc3c 526e d2bd
00000120: cb65 b83d 6dcb e6bd f87e 67bd e8cf e23d
00000130: 642c c53d dd70 10bd d65d eabd 8d3b ff3d
00000140: 530f f1bb bd5b 94bd 2304 b0bd 63dd fd3b
00000150: f8e8 c5bd f5af d7bd 5b0c 09be 6acf 883d
00000160: 2919 aebd dee6 ed3d f02f 873d bdd8 903d
00000170: 0d33 14bd bc8a 0abe 68b8 7cbc 01ea 813d
00000180: 29bb cbbd 144b bbbd 56b6 8dbd 338d c4bd
00000190: 8a7f 50bd 5488 95bd bb55 ca3d 6a04 a93c
000001a0: 8c5f 643c fe5a 003e 1066 02be f86d ca3d
000001b0: 30e7 0ebe 0ded ac3d 2631 4cbc ea46 b1bd
000001c0: ad48 11be 2016 edbd e7aa 933d 8daa edbb
000001d0: 5567 913d 4ade 0c3d dc65 8d3d 260d f03b
000001e0: b8fc b6bd 458c 933d 6d2d 9f3d 9c51 c03d
000001f0: ef62 093e 1764 0abe 94c7 453c 5426 3ebd
-0.07867729 -0.032192912 -0.14902106 0.011440779 0.0058949986 -0.016917843 -0.0503792 0.041155744
0.12354526 -0.12860985 -0.042904172 -0.029557807 -0.08422084 0.036647435 0.08652198 -0.095070936
0.08235772 0.0339142 -0.13504735 -0.028500535 -0.14771183 0.08115988 -0.08710312 0.06770788
-0.03836181 -0.084732585 -0.14638928 -0.122877575 0.074794754 -0.0813795 0.039753765 -0.037896324
-0.0639094 -0.0487618 -0.061960932 -0.043679174 -0.07927463 0.12065505 0.019130368 -0.016173717
0.045368638 -0.030376578 0.08792653 0.06360453 -0.035746105 0.037467178 0.073367424 -0.082966916
-0.10623827 -0.032074913 0.07374034 -0.0527807 -0.12554947 -0.10307927 -0.08767025 -0.08675844
-0.048338912 -0.10040347 0.07975813 -0.1272144 -0.09375075 -0.08824271 0.026491456 -0.06298716
0.13139118 0.10382098 -0.09041992 -0.008371463 -0.045965627 0.117104776 0.024944508 -0.10274948
0.090037905 -0.11269269 -0.05651757 0.11074811 0.096276075 -0.035263885 -0.11443679 0.1246253
-0.007356563 -0.0724406 -0.08594539 0.0077473386 -0.09663576 -0.10531608 -0.1338362 0.06680186
-0.08500893 0.116163 0.0660094 0.070725895 -0.0361815 -0.13529485 -0.015424825 0.06343461
-0.09947807 -0.091451794 -0.069195434 -0.09597244 -0.05090288 -0.07301393 0.09879633 0.020631988
0.013938796 0.12534711 -0.12734246 0.09884256 -0.13955379 0.08443651 -0.01246289 -0.08656104
-0.1418788 -0.11576486 0.072103314 -0.0072529973 0.07099787 0.03439168 0.06904194 0.007325786
-0.08934921 0.07204489 0.07772336 0.09390566 0.13416646 -0.13514744 0.012071509 -0.04642327

brain.2.weight f4 [16, 128, 1, 1]
00000000: 7b55 79ba 9264 af3a fc8b 00bb 13e9 2d3a
00000010: bc18 06bb 6dab 0cbb 28f2 eab9 d065 a73a
00000020: d918 3abb 6149 3a3b b469 83ba b32f 7337
00000030: c8b0 80ba 4c75 4cb9 a1a7 de3a fc98 01b9
00000040: 38d9 ddba 5cbf 9739 715f 84b8 27cf c4ba
00000050: ad33 ffba ef14 7a3a e5ef bf39 3a9f dc3a
00000060: 4638 e83a a79c 31bb 456c 5fb9 4418 1dbb
00000070: 4f98 ba3a 5214 e5ba 70bf a43a 4dee 3b3b
00000080: b809 20bb 8468 0539 ab33 21bb 622c 23bb
00000090: 2d09 19ba 7b45 15bb 276e 37bb 25a7 67ba
000000a0: 4144 c0ba 8c9d b8ba 8694 c6b9 45b3 eaba
000000b0: aa54 3c3b 457b 73b9 aa3d da3a c26e f5ba
000000c0: cf0f 7b3b 8206 a3ba 5719 8839 3b46 47b9
000000d0: 7916 85ba f28d 0d3b 8b7d acba ee0a e4b9
000000e0: 9e88 f537 4a4b 2339 4c31 c839 02a6 c8b9
000000f0: 3e62 06bb 7aae 30ba 3641 01bb 8269 5eba
00000100: 118d b038 6df1 233a eca1 233b 3f5c ff39
00000110: 48ca 8eb9 4268 a1b8 38b7 ff39 e8d1 553b
00000120: 2b33 0e3b 475d 33bb 6cc8 05ba f250 a1ba
00000130: 77e4 893a 8b8d 833a fd42 3b3b d154 3db9
00000140: 0ff8 413b af27 ef3a 99e7 6fba 98e2 1abb
00000150: ff45 fdba 9a0d 4bbb 8fe2 02ba 362e 153b
00000160: e335 acba 6b5e 0f3b d096 01ba c9d9 c439
00000170: 3cfe 0a3b 79ad 3cbb a2d2 abb9 0de1 d13a
00000180: f723 62ba 5026 f23a 5a9f d93a 42c8 7039
00000190: 7d8f f0ba 9364 4fbb 9ab7 cbba 72e2 b3ba
000001a0: 38a6 5bba c4d5 72ba 32e8 47b9 2b4d 5939
000001b0: 2bd4 40bb f711 b33a 512f d73a d5e2 edb8
000001c0: 31e1 ab3a 8d84 093a 2179 05bb 9484 b0ba
000001d0: d76a 4cb9 6de5 22bb edd5 d7ba ac31 27bb
000001e0: 8e1d 51ba 27d3 403a 5008 123b 8bb2 33ba
000001f0: 949b 6cba de7d b4b9 5de1 153b c29e 39bb
00000200: a6cb b93b bdf8 373a a62c 0cb9 0812 f439
00000210: a02d e23b 6a84 c2ba 9e29 d43b 4019 2e3b
00000220: 7bcb e1b9 ceb6 253b dfc1 1c3b e6c5 f73a
00000230: 27d1 a13a 682e 3c39 eef2 e43b 19bc 2d3a
00000240: 0dc8 dbb9 3fac a03b 0277 733b 360b 84bb
00000250: a6e4 833a d105 8a3a 7d88 bb3b c6ab 3b3b
00000260: 747b 2b3c 42c6 69bb 0f75 2b3b 89a7 573b
00000270: 8c13 dc3b f343 f23b 9fc4 013b 3b04 383b
00000280: 88d5 f4bb 082e b538 3234 f4ba 19b7 ebba
00000290: a548 963a 30e0 f6ba 8113 a3bb b374 cd3a
000002a0: 4e34 cf3b 9179 353a 55da 0e3a a149 2139
000002b0: 2ef1 3e3b 4742 953a 6dc1 293b d18d 523a
000002c0: ca3b e03b 5b7e ff3b a8e7 7939 54c6 da3b
000002d0: 3927 13ba f502 113b 9420 d639 4468 5e3a
000002e0: 3a29 56ba 22d9 29b9 a51d 663a 9401 ca3a
000002f0: 8298 b43b 0a20 733b 68c8 d6b9 db73 da3a
00000300: 342d 063b 0642 e73a da34 963b f3e2 df3b
00000310: c68c af39 54c1 aa3a 6572 e03a 53c7 c13b
00000320: c3b5 d83a c905 aa3b 2962 b33b e4d9 a83a
00000330: 76db e8b8 b0d4 0c3a 8cb5 483b 5269 af3a
00000340: e3c4 343b bdb8 f13a d5a8 3b3a 2125 1b3b
00000350: b269 0839 a40c 02bb 1d96 38ba 6cde f93a
00000360: 462f 873a aa79 ed3b 7992 5238 9598 c33a
00000370: 0d1e d33b 2511 c1ba c02b 78b9 40c5 bb3a
00000380: d990 2cbb 1105 ee3a dd2d 2c3b 35f4 133b
00000390: 55b9 c63b 2a67 12bb 5315 383b 6cb7 a039
000003a0: 3d8c f338 f7a4 f93b 84ae da3b 2019 063b
000003b0: 8e50 fc39 ce36 e43b 44d1 323b 5c90 fb3a
000003c0: 7d57 b93b 5c5f 353b 24fc 9dba 2d4a fcb9
000003d0: bdb8 253a 2336 4db9 2719 f93a 86b2 3ebb
000003e0: df12 c3b9 0145 d43b 2a97 513b 129e 1c3b
000003f0: 7fb8 8039 f701 cd3a c54f 903b 2294 bf3a
-0.0009511334 0.0013381413 -0.0019614687 0.0006634157 -0.002046152 -0.0021464482 -0.00044812378 0.0012771431
-0.0028396158 0.0028425085 -0.0010026009 1.44950345e-05 -0.000981831 -0.00019498653 0.0016987213 -0.0001235939
-0.0016925698 0.00028943538 -6.312028e-05 -0.001501535 -0.0019470357 0.00095398625 0.00036609094 0.0016832121
0.0017716966 -0.0027101429 -0.00021307271 -0.0023970762 0.0014236065 -0.0017477369 0.001256926 0.0028675974
-0.0024419855 0.00012722804 -0.0024597447 -0.002489828 -0.0005837854 -0.002277701 -0.002798924 -0.0008836857
-0.0014668779 -0.0014085039 -0.00037876162 -0.001790621 0.0028736987 -0.00023220207 0.0016650457 -0.0018725025
0.0038308983 -0.0012437853 0.0002595882 -0.00019004282 -0.0010153792 0.0021599499 -0.0013159973 -0.00043495692
2.9269893e-05 0.00015572939 0.00038183702 -0.00038270658 -0.0020505334 -0.0006739866 -0.0019722707 -0.000848435
8.41861e-05 0.0006253932 0.002496834 0.0004870612 -0.00027235062 -7.696498e-05 0.000487739 0.0032626335
0.002169798 -0.002736883 -0.00051034125 -0.0012307449 0.0010520358 0.001003669 0.0028573864 -0.00018056041
0.0029597317 0.001824608 -0.0009151637 -0.0023633596 -0.0019323229 -0.003098345 -0.00049928663 0.002276314
-0.0013138618 0.0021876346 -0.0004943432 0.00037546296 0.0021208664 -0.0028789921 -0.00032772595 0.0016012505
-0.0008626575 0.0018474553 0.0016603277 0.00022962785 -0.001835331 -0.003164564 -0.0015542388 -0.0013724102
-0.00083789555 -0.0009263421 -0.00019064618 0.0002072348 -0.0029423337 0.001366197 0.00164173 -0.000113432914
0.0013113377 0.0005245887 -0.0020366388 -0.0013467246 -0.00019494757 -0.0024855987 -0.0016466953 -0.0025511784
-0.0007977121 0.0007355683 0.0022282787 -0.0006854913 -0.00090258685 -0.00034426054 0.0022869923 -0.0028323387
0.0056700287 0.0007017961 -0.00013368073 0.0004655274 0.0069024116 -0.0014840488 0.0064746877 0.0026565343
-0.0004306695 0.0025285962 0.0023919267 0.0018903583 0.0012345657 0.00017946365 0.0069869673 0.0006627455
-0.00041919985 0.004903346 0.0037149792 -0.0040296568 0.0010062649 0.0010530298 0.005723058 0.002863632
0.010466445 -0.003567115 0.0026162302 0.0032906255 0.0067161974 0.007393354 0.0019801033 0.0028078693
-0.007471744 8.6393266e-05 -0.0018631278 -0.0017983645 0.0011465742 -0.0018835124 -0.0049766903 0.0015675038
0.006323374 0.0006922717 0.0005449404 0.00015381585 0.0029135454 0.001138755 0.0025902644 0.00080319965
0.006843065 0.007797045 0.00023832789 0.0066764746 -0.00056134496 0.0022127007 0.00040841533 0.0008484165
-0.00081695954 -0.00016197984 0.0008778221 0.0015411847 0.0055113444 0.0037097954 -0.00040966575 0.0016666608
0.002047372 0.0017643578 0.004583937 0.0068324744 0.00033483485 0.0013027587 0.0017123936 0.005913654
0.0016533661 0.005188678 0.005474348 0.0012882319 -0.000111035 0.0005372269 0.0030625788 0.0013382828
0.0027583174 0.0018441897 0.0007158642 0.0023673254 0.00013009345 -0.001984396 -0.00070414116 0.0019063479
0.0010313771 0.0072471695 5.0204315e-05 0.0014922792 0.0064427913 -0.0014729841 -0.00023667421 0.0014325753
-0.0026331453 0.0018159469 0.0026272454 0.0022575979 0.006064574 -0.0022339323 0.0028088882 0.00030654238
0.00011613264 0.0076185423 0.006673636 0.0020461753 0.00048125203 0.006964541 0.0027285377 0.0019192803
0.0056561814 0.0027675247 -0.0012053293 -0.0004812045 0.00063217786 -0.00019570491 0.0019004688 -0.0029098107
-0.00037207358 0.0064779525 0.003198097 0.0023897928 0.00024551523 0.0015640844 0.0044040405 0.001461629
