outputs/line_model.pt (torch, 36092 bytes, 3 tensors)

brain.0.weight f4 [128, 48, 1, 1]
000000 88 16 1b 3e 43 38 93 bd 5c b4 e0 3d cc eb d6 bd
       0.15145314 -0.071884654 0.10971901 -0.104941934
000010 81 3d f1 bc dc 30 01 3e ae 42 44 3e e5 2b 54 bd
       -0.029448273 0.12616295 0.19166061 -0.051799674
000020 17 83 e2 bd 13 cf 5e be fe ff 34 bd 8d 17 91 3c
       -0.1106016 -0.2175868 -0.044189446 0.017711425
000030 d4 a9 b1 bd de 15 8f 3d b9 2d 8c 3c 0c 9c 97 3b
       -0.0867497 0.06986593 0.017111646 0.0046267565
000040 57 8a ca bc 40 cf d1 3d 96 35 ac bd 54 bd 42 bc
       -0.024724169 0.10244608 -0.08408658 -0.01188596
000050 59 a9 a6 bd e6 7c 48 3e 94 22 00 3e b2 80 38 3c
       -0.08137769 0.19578895 0.1251319 0.011261152
000060 d7 bd bd 3d e8 ce 08 bc 90 21 92 3c 0d c3 9c bd
       0.09264725 -0.008350112 0.01783827 -0.076543905
000070 65 bc 08 3d 64 33 40 bd 6a 10 3d 3e 5d 6e 85 bd
       0.033382792 -0.04692401 0.18463293 -0.06515191
000080 23 35 fd bd 3c ff 94 bd c7 7e e1 bb e7 4b 3d bd
       -0.12363651 -0.072752446 -0.006881568 -0.046214964
000090 a0 98 fa 3c 28 26 c4 bd 71 ee 9a 3c 5b 3f 0b be
       0.030590355 -0.0957759 0.018912526 -0.13598387
0000a0 58 1f b3 3d ba da fb 3d 11 d6 53 be 45 09 cf 3d
       0.08746213 0.12297578 -0.20687129 0.1010919
0000b0 32 9b 2b 3e f1 5f 1a 3e b5 b0 b0 bc 4c 63 73 bd
       0.16758421 0.15075661 -0.021568635 -0.05942087
0000c0 f5 d8 90 be f7 75 c3 3c a1 1d 5f bd 34 c7 85 3e
       -0.28290525 0.023859961 -0.054471616 0.26128542
0000d0 0b 78 0b be 51 5d 8a 3d 1a 03 82 3e 03 9e e1 3d
       -0.13620012 0.0675608 0.2539299 0.110164665
0000e0 d7 0b af bc 37 71 9b bb b3 d4 b3 3d 02 59 81 bd
       -0.02136795 -0.004743721 0.087808035 -0.06315805
0000f0 28 11 04 bd eb d5 16 bb 1e 78 1a be a6 e4 e6 3d
       -0.032242924 -0.0023015689 -0.15084884 0.1127408
000100 7b f0 c4 3d b1 b0 90 3b d0 4a c6 3d 0a 04 e2 3d
       0.096161805 0.0044155945 0.09682238 0.11035927
000110 7a e0 d5 3d f4 06 19 3e 27 6f d0 3d 0e 15 94 bd
       0.10443206 0.14944059 0.101774506 -0.07230578
000120 33 c0 c3 3d 19 d4 45 3c ee 65 b6 3d 55 80 04 3e
       0.095581435 0.012074494 0.0890616 0.1293958
000130 25 81 0d 3d 8b 30 06 3d 8e 66 c7 3e 2f 4f af 3c
       0.03454699 0.032761138 0.3894543 0.021400062
000140 b2 a9 87 bc eb 2a 8a bd bb a3 8c bc 6f 77 31 3e
       -0.01656041 -0.06746467 -0.017167917 0.17330717
000150 a1 27 1a be ec 18 6a bd 01 f5 18 3e da 93 96 3e
       -0.1505418 -0.057152674 0.14937212 0.29409677
000160 90 5d d8 bc 8b ff e3 bd d8 c9 7e bc 0b 49 03 be
       -0.026411802 -0.11132725 -0.015551053 -0.12820832
000170 01 01 13 be 14 99 48 3d 84 e2 ca 3d af 8a 1c be
       -0.14355852 0.04897411 0.09906486 -0.15287279
000180 b3 60 79 3e 41 bb c4 bc 91 f3 5e 3d b5 93 27 3f
       0.24353294 -0.02401507 0.0544315 0.6545976
000190 31 69 58 3e 47 57 bf bd 59 04 0e be 8d 94 fa bc
       0.21133877 -0.09342819 -0.13868846 -0.030588413
0001a0 7d de 12 3e d4 2f ba 3d e8 6e 66 3b d6 ac 8a bd
       0.14342685 0.09091154 0.003516132 -0.06771247
0001b0 6d 86 92 3e 83 66 b1 3d 25 43 06 be e0 26 30 3e
       0.28618184 0.08662131 -0.13111551 0.1720233
0001c0 94 a6 7c bc 99 d8 3c 3d f1 cb a2 3d 41 26 98 bc
       -0.015420575 0.046105 0.07949055 -0.018572928
0001d0 cc 56 01 be 31 cd 23 be 6e 3e c0 bd ea 89 e0 3c
       -0.12630767 -0.15996243 -0.093869075 0.027409513
0001e0 7e 61 ce 3d 36 99 88 bd c4 9f 66 3d d4 75 2e be
       0.10077189 -0.06669848 0.056304708 -0.17037135
0001f0 c7 d0 89 bc 94 8e a5 3c 90 df 4b bd 3a 72 d3 3a
       -0.016823186 0.020209588 -0.049773753 0.0016132065
000200 20 8b 3c bd 3c a1 b9 bd 90 7f b8 3c fb ef a5 3d
       -0.046031117 -0.09063956 0.022521764 0.08102413
000210 67 3e e7 3d ec d7 3e bd a7 87 a8 bd b2 93 92 bc
       0.11291199 -0.046592638 -0.08228999 -0.017892692
000220 14 25 87 bc ba d1 61 3d 20 94 c5 3d 14 a4 ea bc
       -0.016497172 0.05513165 0.09647393 -0.028642692
000230 6f 83 9c 3d eb cf 8d bd 47 d6 49 3d 0f 3f 8f 3d
       0.076422565 -0.06924423 0.049276616 0.06994449
000240 a5 1b a7 bc f1 28 b9 3d 94 1d 83 bc fb a6 38 3c
       -0.020398924 0.09041012 -0.016005315 0.01127028
000250 8e 2c 73 bd 2f ff dd bd 97 68 c9 3d 73 cf b1 3d
       -0.059368663 -0.10839688 0.09834402 0.08682146
000260 41 0d 12 3e 30 20 ca 3d aa 20 d1 3d 09 7f d7 bd
       0.14262868 0.098694205 0.10211308 -0.10522277
000270 c5 69 c7 3d 0f e0 df 3d a0 ca d9 bd b2 dc 77 3e
       0.09736971 0.10931408 -0.10634351 0.24205282
000280 81 00 be 3d 3d a4 7f bb 26 99 8c 3c 66 5c 5b bd
       0.0927744 -0.0039007806 0.01716287 -0.053554915
000290 4e 95 d9 3d 84 f7 92 bd a2 83 04 be 99 44 96 3d
       0.10624181 -0.07176116 -0.12940839 0.07337303
0002a0 f0 d0 06 bd cd 4c c3 3b 89 ec 77 bd 3e f1 de be
       -0.032914102 0.005960083 -0.060528312 -0.43543428
0002b0 48 3a 01 bd f6 e7 73 3b 58 64 10 3e 71 d9 1b bd
       -0.031549722 0.0037217117 0.14100778 -0.038049165
0002c0 2c 8a 3d 3d f7 f6 87 be a3 65 c1 bd fa bf 84 3d
       0.04627435 -0.26555607 -0.09443214 0.06481929
0002d0 91 83 80 bd 60 18 fb 3c d4 ac d2 bd 6d d2 1a 3e
       -0.06275094 0.030651271 -0.102868706 0.15119334
0002e0 15 62 11 bd 03 6d e5 bd 1d 59 08 3e bd 3e b6 bd
       -0.03549393 -0.11202433 0.13315244 -0.08898685
0002f0 9e 91 55 3d 77 4b 2e 3e b9 a1 90 3d 77 79 2c 3d
       0.052140824 0.17020975 0.07062096 0.042108025
000300 cb 43 0c 3e 8d 1c fe 3d ca 2f a6 bc 5f a7 a6 bc
       0.13697736 0.124077894 -0.02028646 -0.02034348
000310 e7 b2 57 3d 39 52 d9 bd 2d aa b8 bd 24 4a 82 3d
       0.05266085 -0.10611386 -0.090168335 0.063617975
000320 f4 80 ba bd a6 ea 8e be 3e d3 0c bd 76 d1 ec bd
       -0.09106627 -0.27913398 -0.034381144 -0.11563389
000330 fc c5 c9 bb e0 dd a2 3d bf 69 40 bd 2b f2 b4 3d
       -0.006157635 0.079524755 -0.046975847 0.088352524
000340 4b f7 c5 3c e0 a1 cb 3c 18 41 91 bd 17 7e e0 3d
       0.02416577 0.024857461 -0.07092494 0.1096155
000350 59 f3 1a bd ce b0 27 3e 8b 9d a4 bd 86 db 7c 3d
       -0.03782973 0.1637604 -0.080378614 0.06173279
000360 03 14 ba 3c 9e 4c 67 3d 81 86 80 3d 4a 2f af bc
       0.02271462 0.056469552 0.062756546 -0.021384854
000370 08 3a 0d bd 78 70 a9 bd fe 45 e3 bd f9 35 1f bd
       -0.03447917 -0.08273405 -0.11097334 -0.03886983
000380 4e 14 83 bd 1c 6c 96 be 61 ce 53 3d 1f ff ea 3d
       -0.06400357 -0.29379356 0.05171049 0.11474442
000390 0e a5 75 3e 1a a1 b9 bd 1e a9 32 3d 7d e1 89 3c
       0.23988745 -0.09063931 0.043618314 0.016831154
0003a0 87 8f db bb 68 67 92 bd 96 c9 28 be bb 68 e1 bd
       -0.0067004594 -0.071486294 -0.16483149 -0.11006304
0003b0 db 7c 67 3d d0 ef c3 3c 44 29 9a bd 68 4c 3f 3d
       0.056515556 0.023918062 -0.07527402 0.046703726
0003c0 a2 b8 46 be da 5e 95 3d 5a 4e 69 3e 0d 23 54 3e
       -0.1940637 0.07293482 0.22783795 0.20716496
0003d0 80 5d 17 3d 12 54 72 3c 0c 67 38 be cd ee 4b bd
       0.036954403 0.014790552 -0.1800806 -0.049788285
0003e0 9c 38 7f 3e 3b 1b 88 bd 58 d7 ae 3d 63 a1 62 bd
       0.24923939 -0.06645819 0.08537167 -0.05532969
0003f0 15 28 d3 bd 25 e3 94 bd 02 4e e4 bc 85 94 3e be
       -0.103103794 -0.07269887 -0.027869228 -0.18611343

brain.0.bias f4 [128]
000000 b0 b3 41 3c 9e 92 31 3c b1 f3 99 bd 70 b6 7f bd
       0.011822626 0.010838179 -0.075171836 -0.062429845
000010 01 9e 01 be f8 b2 b1 bd af 51 de bd a9 9f 4b bd
       -0.1265793 -0.08676714 -0.10855424 -0.04971281
000020 6b d2 04 bc 15 48 b6 3c d5 08 04 be 77 0a 94 bd
       -0.008106808 0.022251168 -0.12893994 -0.072285585
000030 7e 69 8f bd 07 31 7e be c0 44 8a 3d d3 a9 f8 bb
       -0.07002543 -0.2482339 0.06751394 -0.007588604
000040 98 09 2c be f1 fe cc bc fb e2 b1 bd 0f 14 dd 3c
       -0.16800535 -0.02502391 -0.08685871 0.026987104
000050 5d b7 bb 3c fd 1a 29 bc 2b f2 27 be 3d 82 45 3d
       0.022914583 -0.010321376 -0.16400973 0.048219908
000060 c4 86 07 3d db 6e fa bb 68 2e b9 3d 78 cd 95 3c
       0.033087507 -0.0076426095 0.090420544 0.018286452
000070 00 6b de bd 90 d1 6e be d2 35 c3 bd 2c 81 47 3d
       -0.108602524 -0.23322129 -0.0953175 0.048707172
000080 11 ca 80 be 96 c4 76 be da 28 98 3b 08 48 ca 3d
       -0.25154164 -0.24098429 0.0046435418 0.0987702
000090 63 62 2b be de d5 ab bd e3 95 7c bd 59 5f 12 3d
       -0.1673675 -0.08390401 -0.06166638 0.03573546
0000a0 40 87 45 be 2d c8 a0 bc 1a 47 d9 bd f2 9f 0f bd
       -0.19289875 -0.019626701 -0.10609265 -0.035064645
0000b0 31 9a 59 be 2c 35 39 bd b8 30 b7 bd 69 59 4b bd
       -0.21250226 -0.045216724 -0.08944839 -0.049645815
0000c0 09 50 8c 3d b9 25 42 be 67 3b cf bd c9 0d 37 be
       0.06851203 -0.18959703 -0.10118752 -0.17876352
0000d0 07 18 62 3c cd a0 ba bd 11 01 97 bd 2d d9 dd bc
       0.013799674 -0.091127016 -0.0737325 -0.027081097
0000e0 6c 34 5c 3d 61 16 8a 3d dd 22 cc bd c7 90 1c bd
       0.05376093 0.0674255 -0.09967587 -0.038224008
0000f0 ba 53 ae bd bd 90 1c be 57 dc a7 bd 8b 48 34 3c
       -0.08512063 -0.15289588 -0.08196323 0.011003624
000100 36 a7 af 3a 70 3b 54 3d 18 97 5b be f2 77 61 bc
       0.0013401273 0.051814497 -0.21444356 -0.013761507
000110 e9 4e fe bc 00 01 76 bd 14 2d c9 bc c5 29 cc 3c
       -0.031043487 -0.060059547 -0.024557628 0.024922261
000120 7a 5c 58 3d 15 d0 6d 3d bb df 96 3c 61 53 6c bd
       0.052822568 0.05805977 0.01841723 -0.057696704
000130 3f 18 05 bd 42 90 80 3c 15 e7 18 be 1a 81 c5 3c
       -0.032493826 0.015693787 -0.14931901 0.024109412
000140 52 2e 45 be f5 2e dc bd 70 98 be bd dd ad 9d 3c
       -0.19255951 -0.10751144 -0.09306419 0.019247944
000150 04 b0 e0 bd 68 80 80 3b c5 cb 11 be 83 73 7f bd
       -0.10971072 0.003921557 -0.14237888 -0.06236602
000160 ea 0e 54 bd d3 18 6f be b2 93 3f 3d 3a 77 6a be
       -0.051772036 -0.23349313 0.046771713 -0.22897044
000170 25 08 88 bd 18 8e af 3c 95 11 59 be 46 3e 84 bb
       -0.066421784 0.02143006 -0.21198113 -0.004035744
000180 d8 61 30 3d ea 6f 8c bd 74 63 41 bd a0 b9 d3 3b
       0.04306206 -0.068572834 -0.047213987 0.006461337
000190 e4 68 84 bc 95 29 d8 bd ae 82 70 3d 25 ab 0d be
       -0.016163297 -0.10554806 0.058718376 -0.13834818
0001a0 b3 d0 26 bd 1f 02 97 bd 54 d7 7d 3d 22 70 3f be
       -0.040726375 -0.073734514 0.06197293 -0.18695119
0001b0 51 cf dc bd c9 eb 0f be 00 76 16 be e4 ac 99 3b
       -0.1078173 -0.14054789 -0.14693451 0.0046897996
0001c0 f6 e0 dd bc 23 6c ed 3c d8 f2 65 be ed ee 7b be
       -0.027084809 0.028982228 -0.22455919 -0.24602862
0001d0 8d ce 4b bc 76 82 21 3c 7b 41 bc bd 7a 1e ab bc
       -0.012439382 0.0098577645 -0.09192177 -0.020888556
0001e0 02 52 8b bd a9 3b 7f 3c f7 9a 3a bd 60 ef 1d bd
       -0.06802751 0.015578189 -0.045557942 -0.038558364
0001f0 d9 e0 14 bd 13 fa 22 bd 6c 54 dc 3c 26 6f f9 3a
       -0.036347244 -0.03978927 0.026895724 0.0019030317

brain.2.weight f4 [16, 128, 1, 1]
000000 57 f0 e8 3a e5 0b 0c 39 f7 66 47 bc 27 ba ee bb
       0.0017771822 0.00013355871 -0.012170545 -0.0072853747
000010 0b 1e 83 bc f8 59 9e 3b 77 15 07 bd bc ab 72 39
       -0.016005537 0.0048325025 -0.032979455 0.00023142894
000020 2d bc 63 3c 94 41 aa 39 96 33 9a 3c 60 65 46 bb
       0.013899845 0.00032473786 0.018823426 -0.0030272827
000030 78 17 ef bb 7d 0c 0a 3c 33 34 21 bc c2 73 47 bc
       -0.007296499 0.008425829 -0.009839105 -0.012173595
000040 52 b0 80 bc a4 96 d1 bb 2f 14 03 bc d3 d3 6d bb
       -0.015709076 -0.0063961316 -0.008000418 -0.0036289587
000050 b5 d9 83 bb 4b e8 e1 3b 6c 90 d2 bb ef f0 d0 bb
       -0.0040237554 0.0068941466 -0.006425908 -0.006376378
000060 06 69 b2 3c 38 fc 9d bc d7 c7 56 bb 5d dc 0b bc
       0.021778595 -0.019285306 -0.0032772922 -0.008536425
000070 1c 48 fd bb db de 11 3b 6d 55 d2 3b 3c a0 51 bc
       -0.0077295434 0.0022258076 0.006418875 -0.0127945505
000080 1a 90 03 3c b2 cb 1a bc 48 0e 8a 3c 5a 9c 0e bc
       0.008029962 -0.009447979 0.016852513 -0.008704269
000090 c8 8f b4 3c 6b c4 a5 3b 85 18 17 3c 3c f8 d8 ba
       0.022041216 0.0050588152 0.0092221545 -0.0016553472
0000a0 60 28 bf bb 42 93 1b ba eb ab 66 bb 7c 8e d2 3c
       -0.0058336705 -0.0005934724 -0.0035197686 0.025702707
0000b0 e9 03 f7 3b ec 24 2a 3b 0b cd 47 3c 2b aa 91 3c
       0.007538308 0.0025961949 0.012194882 0.017781338
0000c0 7e e9 32 bc 2f 52 1c bc db db 52 bb 1b 07 4d bc
       -0.010919927 -0.0095410785 -0.00321745 -0.012513901
0000d0 c3 d8 1f bc 2f 02 48 bc e1 6e a3 3b 41 51 cb bb
       -0.00975627 -0.012207552 0.004987583 -0.0062047546
0000e0 9f a0 d8 ba ac a3 1f ba a2 a2 0c ba 47 9d d2 bb
       -0.0016527361 -0.00060897577 -0.00053648103 -0.0064274403
0000f0 cc f8 47 39 d6 67 96 bc 31 d4 b7 3b fc ef 39 38
       0.00019070803 -0.01836006 0.005610012 4.433094e-05
000100 a8 29 ae bb 70 a7 89 3c 7a f0 d3 3b 7e 32 33 ba
       -0.0053150244 0.016803473 0.006467876 -0.0006835832
000110 a1 3a 58 3c e6 3b d3 3b 24 1c 89 3c ea f2 9f bc
       0.013197572 0.0064463494 0.016737051 -0.01952501
000120 17 e6 e6 bb 92 81 a7 3b 96 57 ec 3b 5a 2b 7e 3c
       -0.007046472 0.0051118815 0.0072125895 0.0155132655
000130 e0 08 dc 3b fb 0d 21 3c b3 2c db 3c fb 16 00 bc
       0.006714925 0.009829993 0.026754713 -0.007817979
000140 bf 87 13 bb d5 a0 bf bb 62 f3 c1 3c f5 dd fb bb
       -0.002251133 -0.00584803 0.023675624 -0.0076863714
000150 02 55 60 3b 12 81 6b 3a aa da 88 bc 2b f8 ac bc
       0.0034230356 0.00089837715 -0.01670583 -0.02111443
000160 42 aa 4c 3c b7 26 48 3a ed e9 d6 bb 1f fd 18 37
       0.0124917645 0.00076351635 -0.006558648 9.11884e-06
000170 92 04 f0 ba 70 a2 e0 3c 36 27 e0 b9 67 77 ef bb
       -0.0018311909 0.027421206 -0.00042753824 -0.007307935
000180 67 d3 15 bc d4 bd 12 bc 70 ca a4 bb f8 44 5c bb
       -0.0091446405 -0.008956391 -0.0050290152 -0.0033610445
000190 51 e6 c0 bb cc 57 f7 bc ca ce 1d bc 13 13 fb 3b
       -0.005886831 -0.030193232 -0.009631822 0.007662186
0001a0 6b 9c 22 3b bb d2 94 3b de 83 25 3c fd 37 2b bc
       0.002481247 0.0045417226 0.01010224 -0.01045036
0001b0 f2 8d 84 3c d5 c9 41 3c 0c 74 0a bb 78 f2 1c 3b
       0.016180966 0.011827906 -0.0021126298 0.0023948234
0001c0 f0 4a b3 3a 76 c2 60 3a 34 fa 16 3c 9f 70 5c bc
       0.0013678949 0.0008573899 0.0092149265 -0.013454585
0001d0 c2 7d 90 3b aa cd 52 3c 3e 2b 7f 3c 0c 2a 38 3c
       0.0044095227 0.012866417 0.015574275 0.0112404935
0001e0 d7 af c9 ba 25 fa 08 b9 58 21 cb 3b a2 ef af 3b
       -0.0015387487 -0.00013063157 0.0061990432 0.0053691426
0001f0 8c fc 8b ba e3 65 77 3b 59 27 d5 bb 82 15 34 3c
       -0.0010680123 0.0037749938 -0.0065049347 0.010991456
000200 18 6f 1b 3b 86 69 fd bb df f9 fc bc 22 aa d8 3b
       0.002371734 -0.0077335266 -0.030880867 0.0066120783
000210 26 ac 5a bc f6 46 b7 bb f8 bc 92 bc 93 fb 0c 3b
       -0.013346707 -0.005593176 -0.017912373 0.0021512255
000220 34 d1 eb bb 7e c2 d9 bb 26 06 1e 3a ea cc 23 3c
       -0.00719657 -0.0066454997 0.0006028138 0.009997586
000230 68 de 95 bc 95 19 e6 ba a9 f1 1b 3b e7 55 0a bc
       -0.018294528 -0.0017555231 0.0023795164 -0.008443332
000240 2c 4f ae bb 6b c3 47 3b 06 18 60 bc fe c7 6e ba
       -0.0053194966 0.0030481468 -0.013677603 -0.00091087807
000250 ef 91 fd 3c b4 37 9d bb c8 d4 2f bc 44 a3 8e 3b
       0.030953376 -0.0047979 -0.010731883 0.004352959
000260 86 03 86 bc 28 cd c2 3b 50 95 e1 ba e9 4b c2 ba
       -0.016359102 0.0059448667 -0.0017210636 -0.0014823648
000270 bd 85 21 3b 0a e2 5d bb 15 a6 a3 bb 16 a2 6e 3c
       0.0024646365 -0.0033856654 -0.0049941638 0.0145650115
000280 01 9c 89 3c f3 95 93 3b a0 b2 a8 3c 9c ca 1a bb
       0.016798021 0.0045039593 0.020592988 -0.00236193
000290 7d 94 56 3c 68 69 a7 bb 94 cb e0 3b fe b9 87 3b
       0.013096926 -0.005109001 0.006860206 0.004142045
0002a0 2c af 65 3a be d0 5d bb 42 10 01 3c 62 dc 2d 3c
       0.00087617594 -0.0033846344 0.007877411 0.010611625
0002b0 e3 a5 a6 3c e4 10 39 bb ef 3c 95 bb 30 a4 2c 36
       0.020342773 -0.0028238827 -0.004554383 2.5725567e-06
0002c0 ef 6b 38 ba 81 2c a5 bc 67 52 f2 3b db 05 01 3b
       -0.00070351263 -0.020162823 0.007395077 0.0019687328
0002d0 31 41 80 bb 88 c1 c2 bb 99 77 3f 3b 9a fe 66 38
       -0.0039140214 -0.005943481 0.0029215573 5.507339e-05
0002e0 a5 54 22 bc db 98 b8 bb 48 14 6c bc 62 e1 17 3c
       -0.009907876 -0.005633456 -0.014409132 0.009270044
0002f0 8c 82 95 bc 89 fe bd bb bb e8 af 3c ea 40 f1 ba
       -0.018250726 -0.005798165 0.02147328 -0.0018406187
000300 81 13 f0 bb 34 a5 2f bb 3e 64 50 3c 3c 91 db bb
       -0.007326544 -0.002680135 0.012719212 -0.006700663
000310 ef 15 40 bb a5 b9 52 bc bb 24 ca bb fb 64 61 b9
       -0.0029309948 -0.012861644 -0.0061689294 -0.0002149529
000320 ca de 38 3c 65 af a9 b9 a3 93 86 bc 77 28 62 bb
       0.011283586 -0.0003236487 -0.01642782 -0.0034508982
000330 26 e5 05 3c 12 e8 b5 3b 87 3f 04 3d 53 ac d5 3c
       0.008172309 0.0055513466 0.032287147 0.026083147
000340 a0 e0 50 3b be a8 13 bc 09 9e 02 3d f2 64 17 3c
       0.0031872168 -0.009012399 0.031888995 0.009240376
000350 af c5 cc 3a e1 a3 4c 3c 01 06 59 bb db c0 ac bb
       0.0015622879 0.012490244 -0.003311515 -0.0052720136
000360 4c 40 0f bd a4 00 ac 3b 31 76 a4 bb 7f 11 3c bc
       -0.034973428 0.0052491 -0.0050189723 -0.011478781
000370 d6 8c 92 3b 7c 7f 1e 3c a5 d2 ee ba 06 ec 55 bb
       0.0044723554 0.009673949 -0.0018220736 -0.0032641902
000380 a3 70 00 bc b3 7d 5d bc 86 e3 8d 3c 8e d4 43 bb
       -0.007839355 -0.013518739 0.017320406 -0.002988133
000390 e8 b6 65 ba 75 4b c2 3c 7d 4f 0a bc 09 4f 70 bb
       -0.0008762912 0.023717621 -0.008441803 -0.0036668202
0003a0 cb b0 8f bc 5d 66 fb 3b 4a c2 71 bb 6a 44 6e 3c
       -0.017540356 0.0076721148 -0.0036889487 0.014542678
0003b0 8c c0 b0 3a 08 69 44 3c b1 48 29 bc 69 98 cf ba
       0.0013485118 0.011987932 -0.010332272 -0.0015838268
0003c0 3f c8 35 3c bf de b9 3c 63 85 25 3c 9a 31 0b bc
       0.011095106 0.022689221 0.010102603 -0.008495713
0003d0 56 3c 6d 3b 43 20 5e 3c d2 52 34 bc 9c 22 92 3c
       0.0036199293 0.0135574965 -0.011006074 0.017838769
0003e0 9b 23 0f 3c 59 b8 2a bb fd f5 63 bb 92 d9 c2 3b
       0.008736516 -0.0026049821 -0.0034784072 0.0059463466
0003f0 19 ee 9b 3b 7d d4 f9 3c aa 23 03 ba 3a eb 34 bc
       0.004758608 0.03049683 -0.0005002568 -0.0110424105
