outputs/ragnopiccolo_128x128_model.pt (torch, 50956 bytes, 3 tensors)

brain.0.weight f4 [128, 48, 1, 1]
000000 24 74 52 be a9 ac 6b 3d f7 36 9c 3d c2 00 ca 3c
       -0.20552117 0.05753771 0.07627671 0.024658564
000010 20 11 67 3d 42 f6 ab bd ef 37 9a be 24 6c 2b 3e
       0.056412816 -0.08396579 -0.301208 0.16740471
000020 59 01 5e 3d a7 08 88 be f0 21 3a bd 31 1c 16 bc
       0.054200504 -0.265691 -0.04544252 -0.009161995
000030 7f e7 fc bd 95 62 8d bd ee b4 c0 bd 9b 55 bb be
       -0.12348842 -0.06903569 -0.094095096 -0.3658875
000040 a4 45 00 3d 91 24 ee bd c9 4d 0a bd 35 a5 ed bd
       0.031316414 -0.11628068 -0.033765588 -0.11603776
000050 35 7f 8c bb 43 cf 79 3e 43 d2 bf 3d e2 fe 11 be
       -0.004287625 0.2439547 0.09366276 -0.14257386
000060 3e 27 88 3e 89 83 85 3b e8 31 fd bd ea 7d 27 3e
       0.2659244 0.004074518 -0.123630345 0.16356626
000070 f6 b8 ec 3c 0a 6a 14 3e 11 cd 44 3e 43 1f 31 3d
       0.02889679 0.14493576 0.19218852 0.043242704
000080 ee f1 31 3d 0e fa 62 3c 81 55 bf 3d 39 1c df 3c
       0.043443613 0.013853563 0.093424805 0.027235137
000090 fb a6 0c 3c 97 98 33 3e 2e a0 01 be de 9e fd 3c
       0.008584733 0.17538677 -0.1265876 0.030959543
0000a0 a3 bd b8 3c 89 75 ef 3d ec 7c 96 be af c5 a0 3d
       0.022551363 0.1169234 -0.29392183 0.07850205
0000b0 58 2b ec bd 77 5e 1f 3e 26 5e 47 be 77 13 9d 3d
       -0.11531705 0.15563379 -0.19469509 0.07669728
0000c0 f9 a8 82 bc 34 3e 49 3d d8 55 b1 3d 39 8b c6 bd
       -0.015949713 0.049131587 0.086589515 -0.09694523
0000d0 3a 46 d1 3c 9d 53 81 bd 66 88 dd bd 5b 6b 96 3d
       0.025546182 -0.06314776 -0.108170316 0.07344695
0000e0 bd 67 36 3d 6b c8 3e bd 08 1d 5d bd e6 50 8e bd
       0.044532526 -0.046577852 -0.053982764 -0.06949024
0000f0 42 52 99 be da 5b 53 bd f7 72 d8 3d 6c 0e 37 be
       -0.2994557 -0.05160127 0.10568803 -0.17876595
000100 98 f1 b3 3d 8b 02 8d 3d 48 3d 3e 3e bf 46 cf 3c
       0.08786315 0.06885251 0.18578064 0.025302289
000110 75 87 9c bd c2 ea 37 bd ca 33 92 bd 9c ae e3 3c
       -0.07643024 -0.044901617 -0.07138784 0.027793221
000120 e2 d5 5e be 88 d2 2d 3e a3 32 87 3c 30 5e 80 3e
       -0.21761277 0.16974843 0.016503638 0.2507186
000130 6e c4 57 3b f3 0b f0 bc 5e 54 46 3e bd 3a 71 bd
       0.0032923478 -0.029302573 0.19368121 -0.058893908
000140 e0 65 ef bb b9 1f f2 3c 6b b4 e1 3c d1 63 f0 3d
       -0.0073058456 0.029556142 0.02755185 0.117377885
000150 5b b5 3b bd 51 aa 12 be 03 25 96 bd 19 62 22 bd
       -0.04582725 -0.14322783 -0.07331278 -0.039644334
000160 3c df 42 bd 1c d5 90 bd ea e0 95 be e4 bb bf bc
       -0.047576174 -0.070718974 -0.29273158 -0.023405023
000170 9e 52 ab 3c f6 fd d6 bd 49 41 26 be e7 e7 d4 3d
       0.020913418 -0.10497658 -0.16235842 0.10395794
000180 04 4c 31 be a7 f6 75 bd 74 87 80 3d 74 2b 19 3e
       -0.17314154 -0.06004968 0.06275836 0.14957982
000190 48 98 22 3d 7c 97 da bd f0 27 a2 be 6b c1 33 bc
       0.039696008 -0.106734246 -0.31671095 -0.010971407
0001a0 ac 5b 40 bc a1 e3 86 3d ae c2 01 3c f2 28 0b bc
       -0.011740606 0.065863855 0.00791995 -0.008493649
0001b0 2a 78 1c be d3 f3 cc 3c 03 97 ad 3d aa 4b d7 be
       -0.15280214 0.025018608 0.08476069 -0.42049915
0001c0 c3 f4 64 3c 3b 62 b2 bd 20 c1 0c 3e 50 03 44 bd
       0.013974371 -0.08710142 0.13745546 -0.04785472
0001d0 75 d0 82 bd ae fa 1c 3e 9f 02 b2 3d a4 fa a6 bd
       -0.06387416 0.15330002 0.08691906 -0.08153275
0001e0 2c 1d a0 3c 67 40 f6 3c 23 fe 3d 3d 73 61 73 3d
       0.01954516 0.030060006 0.04638494 0.059419107
0001f0 6a e6 18 bd f4 0e 0c bd 12 b5 76 3e 34 4d 9a bd
       -0.037329115 -0.034193948 0.2409251 -0.075342566
000200 84 2a 9a 3d 45 4d d2 3d 6c f1 0e 3e 55 62 98 38
       0.075276405 0.10268644 0.13959283 7.2662406e-05
000210 37 3a 51 bd 1a 36 96 bd d3 3c 7d bb 6e 74 3d be
       -0.05108091 -0.07334538 -0.003864099 -0.18501446
000220 81 d3 8e 3d 7e 25 90 bc 2f 78 8c be 4a 3a 18 bd
       0.06973935 -0.017596003 -0.27435443 -0.037164964
000230 77 d6 cd 3d cd 7b d4 3b fe 4f cc bd 2b ab ab bd
       0.100506715 0.0064844848 -0.09976195 -0.08382257
000240 d0 b2 31 be 0c 62 3c bd 88 ca 54 3d 10 87 9e be
       -0.17353368 -0.045991942 0.05195096 -0.3096242
000250 5c b6 f4 bc b5 4b 35 bd 88 d2 9e bd 5e 38 0f 3e
       -0.029872112 -0.044261653 -0.077549994 0.13986346
000260 a6 2c 59 3d 52 ac ca 3d b8 86 c5 3a b6 80 c4 3c
       0.053021096 0.09896149 0.0015070057 0.023987155
000270 3d 53 b9 bd 1c 0e 01 3e 9e 77 8f 3d 14 9e da 3d
       -0.090490796 0.12603039 0.07005237 0.10674682
000280 35 20 91 3d ba 8d 09 3e c8 42 05 3e ac 68 bc bc
       0.07086221 0.1343297 0.13013756 -0.02299913
000290 f9 64 45 bd ef 2a ad 3d 8a 8e 7b bd 6b 6b e5 bc
       -0.048192 0.084554546 -0.061415233 -0.028005322
0002a0 78 8e 03 3c 63 c2 06 3d 68 77 13 3d ba 56 08 3e
       0.008029573 0.032900225 0.036002547 0.13314334
0002b0 8a b6 73 3d c5 82 f8 3d 7e ca f1 bd 58 f1 fe bb
       0.059500255 0.12134317 -0.118062004 -0.0077802353
0002c0 fd a0 07 be 07 ba df 3d 35 b4 68 bd 97 13 45 bd
       -0.13245006 0.10924154 -0.056812484 -0.048114385
0002d0 d2 69 35 3c 63 d4 0f be 2d 4c 95 bc 9b b8 00 bd
       0.011072593 -0.14045863 -0.0182248 -0.031426053
0002e0 dd 8a 33 3d 48 20 91 3d 8c 0c fe bd 0d 24 dd 3b
       0.043833602 0.07086235 -0.12404737 0.0067486824
0002f0 d8 96 08 bc 35 e6 b0 bd 34 9b 82 bd bb 1a 71 bd
       -0.008336745 -0.086376585 -0.06377259 -0.058863383
000300 a6 af 69 be 4b 38 55 3d 36 5d 55 bd 16 c7 76 be
       -0.22820911 0.05205564 -0.052090846 -0.24099383
000310 0a ac 80 bd ae d0 25 bc 9f 32 1c be 1f 25 27 3d
       -0.06282814 -0.010120554 -0.15253685 0.040806886
000320 69 72 d4 3d 17 f3 2e be 11 d4 36 3d 6b c5 ee 3d
       0.103733845 -0.17084919 0.044635836 0.11658748
000330 bd 1e 62 bc 8c 0c 1c bd 34 85 05 bd db 2d ca 3d
       -0.013801274 -0.038097903 -0.032597736 0.098720275
000340 79 7b 86 bd 12 84 1e bd 76 4d 18 3e ba 90 83 bc
       -0.06566519 -0.03870017 0.14873299 -0.016060222
000350 1c 1a 19 bd c0 fb f1 3d df e1 94 bc 05 38 3b bd
       -0.037378415 0.118155956 -0.01817411 -0.04570772
000360 1f 12 36 3d 8f 52 04 bc 97 6b 8b bd e9 3c 43 be
       0.044450875 -0.008076324 -0.068076305 -0.19066204
000370 67 09 f9 3d 72 86 34 bd 97 e3 e9 3d c7 cc 76 3d
       0.121599965 -0.04407353 0.114203624 0.060253885
000380 3b 6b 83 3d 05 73 8f 3d 1d 7e 09 3e 05 f9 99 3c
       0.06416937 0.0700436 0.13427015 0.0187955
000390 de 2c 57 3e f6 96 42 bc f2 8d 8e bd 21 56 84 3e
       0.21013209 -0.011876812 -0.06960668 0.2584696
0003a0 32 86 c9 3d b0 c0 bf 3d 96 c8 45 bd 97 3d 1a 3d
       0.09840049 0.09362924 -0.048286997 0.037656393
0003b0 5e 35 b4 bd 3c 53 23 3e 37 30 ae 3c 23 40 d3 3b
       -0.087992415 0.1594972 0.021263225 0.0064468547
0003c0 fb c4 b1 3d af a4 b6 bd a0 86 92 3d 0e 13 93 bd
       0.08680149 -0.0891813 0.07154584 -0.07181369
0003d0 d7 bc 52 3c c8 25 57 bd 1c cb 76 be e7 11 63 bd
       0.012862406 -0.052526265 -0.24100918 -0.055436995
0003e0 dc 18 3d 3d d9 0d bf bd ff a1 dd 3c f1 bf f6 3c
       0.046166286 -0.09328813 0.027054785 0.030120822
0003f0 52 5a 35 be da e3 6b 3c d2 6b b0 bd 3f b4 f5 bd
       -0.17710236 0.014397586 -0.08614315 -0.1199727

brain.0.bias f4 [128]
000000 d9 45 2d 3d 16 dd 32 3d 1e 1d a3 3d e3 be a3 bb
       0.04230294 0.043667875 0.07964538 -0.0049971207
000010 97 49 ae 3d 82 87 d1 3c f2 82 1a bc 0e 14 3d 3b
       0.0851013 0.02557731 -0.009430634 0.0028851065
000020 6c 94 62 3d a5 d3 14 3b f9 22 81 3c d0 8f 42 3d
       0.055317327 0.0022709158 0.015763747 0.04750043
000030 d4 f5 f3 bc 08 24 c8 bd 83 de 7b 3d c3 5c 30 be
       -0.029780306 -0.097724974 0.0614915 -0.17222886
000040 6c 53 2b 3d 53 99 07 bd b8 9b 7d 3c 04 4f 37 3d
       0.041827604 -0.033105206 0.015479021 0.04475309
000050 80 bf 89 3c 10 62 89 bd dc 9d ad bb fb ff af bd
       0.016814947 -0.06708157 -0.0052983593 -0.08593746
000060 44 62 81 bd b3 15 03 3b a8 f9 40 3c 99 ba 39 be
       -0.06317571 0.0020001947 0.011778273 -0.18137588
000070 a2 93 14 3d f9 ce 19 3d 30 ec 34 be 6c 46 99 be
       0.036273606 0.0375509 -0.17668223 -0.2993654
000080 c8 e5 68 3c 22 e7 e7 3b a5 34 03 be e6 44 c9 be
       0.01421494 0.0070771137 -0.12813051 -0.39310378
000090 b0 a9 31 bd 48 4f c6 3c c6 eb 91 3c d5 5d 34 3d
       -0.043374717 0.024207726 0.01781262 0.044034798
0000a0 88 e3 4b 3d c8 b7 e8 3b ab d3 90 bd f6 de 0d be
       0.049777538 0.0071019866 -0.070716225 -0.13854584
0000b0 e3 a8 92 3b 2b 4d be bd ca 9a 5d 3c 6b 11 96 3c
       0.0044756993 -0.09292062 0.013525674 0.018318852
0000c0 95 f6 24 be 52 df 2b bc 2b f9 45 bd d0 39 a2 bc
       -0.16109689 -0.010490255 -0.04833333 -0.019802958
0000d0 07 6c 1d be 37 f5 6d be c6 d8 4f 3c df 87 9e 3c
       -0.1537324 -0.23238073 0.01268596 0.019351898
0000e0 26 a2 58 bc 61 ad 15 3d a1 df da bd 41 27 81 be
       -0.013222253 0.0365423 -0.10687185 -0.2522526
0000f0 1c fe aa 3c 8c 0b 7b 3c ee e3 ea 3c a3 f4 d0 bd
       0.020873122 0.015322577 0.028673138 -0.10202911
000100 71 9d ba bc 5b 33 26 37 07 11 8c 3c a2 a7 2d 3d
       -0.022780152 9.906328e-06 0.017097963 0.042396195
000110 e1 6d b6 be d2 bf 22 be 05 e6 85 3d 3e 46 f1 bc
       -0.35630706 -0.15893486 0.06538013 -0.02945244
000120 2c fc 7d 3d c0 17 cb 3c 00 3d 75 be 06 0e 56 bb
       0.062008068 0.024791598 -0.23949051 -0.0032662167
000130 bb d1 50 3c 39 45 c3 bd 52 34 52 bd d0 6b 3c bd
       0.012745316 -0.095346875 -0.051319428 -0.046001256
000140 e5 1a 37 bd 33 33 4c 3c 90 a4 26 bd 49 dd 0c bd
       -0.044703383 0.012463379 -0.040684283 -0.03439072
000150 00 9a 52 3b 92 b7 91 3c 64 1d a7 bd f0 e7 65 3d
       0.0032135248 0.017787728 -0.08159903 0.056129396
000160 db c7 88 bd c2 ff e9 bd e0 0d cd bb a9 52 aa 3c
       -0.066787444 -0.11425735 -0.0062577575 0.020791369
000170 f9 12 0e 3d 60 ff 6e bc c8 1f bf 39 a6 22 1e bc
       0.034686062 -0.014587253 0.00036454038 -0.0096518155
000180 b5 f8 9d bd f0 9e 52 be 7c e8 a7 be b9 76 95 bd
       -0.07713453 -0.20568442 -0.3279456 -0.07298035
000190 57 3b d5 3c 90 c1 5b bd 8a 0c 35 be 3a 1b 5b 3b
       0.026029272 -0.053651392 -0.17680565 0.0033432976
0001a0 8a 29 a3 be 79 e2 97 bd bf 72 b8 bc 04 d9 86 bd
       -0.3186763 -0.07416243 -0.022515653 -0.06584361
0001b0 6d b7 a7 bd 17 49 b4 bd c6 cb e9 3b de 93 68 be
       -0.081892826 -0.08803003 0.0071348874 -0.22712657
0001c0 da 0a 2d be 80 10 5e be ac f1 9c 3a d5 7a b7 3c
       -0.16898671 -0.21685982 0.0011973879 0.022397438
0001d0 8e 29 ad bb 85 b0 e8 bd 00 7f 07 bd e9 33 64 be
       -0.0052844947 -0.113617934 -0.0330801 -0.22285427
0001e0 08 74 89 3d 9c 76 1f 3d b4 51 4d 3d e9 7b 80 bd
       0.06711584 0.038931474 0.050126746 -0.06273634
0001f0 35 54 d6 3c 22 69 5f be b1 21 c0 bc a3 31 8f bb
       0.0261632 -0.21817449 -0.023453565 -0.004369931

brain.2.weight f4 [16, 128, 1, 1]
000000 8e 08 b3 3d 1d f5 b5 3c 0c 1f a7 3d 50 ad d2 bb
       0.08741866 0.022211606 0.081602186 -0.006429352
000010 2c 4b af 3c 5e 73 b8 3d a9 0c 50 3c 8a f2 3e 3c
       0.02139815 0.090063795 0.012698331 0.0116545055
000020 f7 23 f6 bc 57 42 95 3d b5 cd 2d bd f2 ef cc ba
       -0.030046446 0.07288044 -0.042432506 -0.0015635474
000030 25 7d 81 3c 5b ea 9f bc f0 35 7e 3d 90 9e 5a bd
       0.015806744 -0.01952093 0.062063158 -0.053373873
000040 df 01 39 3e 40 d2 8e 3d 03 33 9a 3c aa 95 95 3a
       0.1806712 0.06973696 0.018823152 0.0011412401
000050 8c 81 b6 3c b1 74 4b bd 86 bf 7d 3c c8 35 14 3d
       0.02227857 -0.049671832 0.015487557 0.036184102
000060 d2 28 d9 3c c0 cb 11 bb c1 cd d4 bd 83 7c b4 bd
       0.026508722 -0.0022246689 -0.10390807 -0.08812811
000070 96 8c e5 3c 86 3d 27 3d a0 98 29 bd b3 68 d7 bd
       0.028021138 0.040830158 -0.04140532 -0.10518017
000080 9f 55 ef 3d d1 57 b8 bd eb 77 e1 3c 3c 2a 21 be
       0.11686253 -0.09001125 0.027523002 -0.15738767
000090 b6 88 2e bc fb 7a 56 3d 55 f8 a4 3d 55 69 9a bc
       -0.010652712 0.052363377 0.08055178 -0.018849054
0000a0 b8 a2 6f 3b f1 fd 8d 3d 05 5d 90 bc a6 20 9c bc
       0.0036565494 0.06933201 -0.01762248 -0.019058537
0000b0 30 5d bc ba b7 20 18 3b 6d ba 59 3d f0 22 a4 3d
       -0.0014371034 0.002321286 0.053156305 0.08014476
0000c0 f3 7f 2e 3b 3f e4 fa 3b 8d 14 6f 3d 40 0a 26 bc
       0.0026626557 0.0076566036 0.058369208 -0.01013428
0000d0 86 0e 8e 3c 99 de 62 bd 5a 7e 12 3c 71 af e3 bd
       0.01734091 -0.055388067 0.008941257 -0.11117447
0000e0 fb c4 ce 3c cb 82 56 3c 6e a6 2f bd 97 57 7d bc
       0.025240412 0.013092707 -0.04288333 -0.015462778
0000f0 1e 25 60 3d 8c c9 b5 bb 8b cd 19 3e 1a 86 8c bc
       0.054722898 -0.005547708 0.15019815 -0.017153788
000100 66 df b1 3d 99 61 f6 3d a9 5c 04 3d 10 6b 80 3e
       0.08685188 0.12030334 0.03231493 0.25081682
000110 64 25 32 be 8d e7 1f 3d 7d bc b0 3d 59 6d 09 bd
       -0.17397076 0.039039183 0.08629701 -0.033551548
000120 c8 7c fd bc 96 5d 15 3d 49 84 f4 bc 51 97 64 3d
       -0.03094329 0.036466204 -0.029848235 0.05580837
000130 91 35 f2 ba df 49 a4 bc 89 a8 0e 3d ee 56 3e bc
       -0.0018479099 -0.020054756 0.034828696 -0.011617405
000140 84 91 ce 3b 27 be 81 3d 2c 3a 44 3c 08 b7 8f bc
       0.006303968 0.06335097 0.01197676 -0.01754333
000150 c7 f5 b0 3c b0 e8 f0 3c 5a 36 f9 bc c1 84 2d 3c
       0.02160157 0.029407829 -0.030421425 0.010590733
000160 07 b7 e6 bc 03 10 0a 3b cf bd 02 3d ad 7e 5e 3c
       -0.028163446 0.0021066673 0.031919297 0.013580007
000170 e3 59 8b 3d b7 d9 02 3e da 62 8b 3c ed 9a 1d 3d
       0.06804254 0.12778364 0.01701491 0.038477827
000180 39 84 a2 bb 24 72 e6 bc 3d cb 1a be 87 db 94 bc
       -0.00495961 -0.028130598 -0.15116592 -0.018171085
000190 d8 04 48 3d 06 90 39 3c a2 17 ea bb 9d 4f 8c 3d
       0.048832744 0.011325842 -0.0071439305 0.068511225
0001a0 c6 ea 89 bd e1 20 84 3d 09 22 42 3c d7 42 ae 3d
       -0.067342326 0.06451584 0.011848935 0.085088424
0001b0 86 40 ef bc d6 93 63 bc 4e 5d cf 3a e6 e5 26 bd
       -0.029205572 -0.013890227 0.0015820654 -0.040746592
0001c0 f1 18 63 bb 42 b1 0b bd 0b 91 a9 3c 61 e1 8c bb
       -0.0034652317 -0.034104593 0.020699045 -0.004299328
0001d0 1c 24 55 3d 6a 25 c0 ba 7d ce e1 3c ed ff 3e bc
       0.05203639 -0.0014659588 0.027564282 -0.011657697
0001e0 a3 29 ad 3c 4c c8 2a bd 76 cc a9 3d d9 2c 5d bc
       0.021138018 -0.041694924 0.08290951 -0.013499462
0001f0 df 39 37 bd 08 1d 10 bd 92 bd fd 3b e2 af 26 3c
       -0.044732925 -0.035183936 0.007743546 0.01017377
000200 97 44 62 3d 6c 3b 57 3c f4 37 81 3b 66 57 eb 3c
       0.055241194 0.013136726 0.0039434377 0.028728198
000210 c6 96 33 3c 9e 8d 62 3d 2e e8 cf 3c 1d 26 99 3d
       0.01096124 0.055310838 0.025379267 0.07477973
000220 14 0e 89 bb af b2 bb 3c ac bd 10 3d 55 66 77 3c
       -0.0041825864 0.022912351 0.035337135 0.015100081
000230 a0 72 7e 3d d0 cc eb bc 68 6a 56 bc 17 a5 df bb
       0.062121034 -0.028784186 -0.013086893 -0.0068251
000240 55 02 a1 bc c3 e1 66 3c 27 45 cf 3c 6a 0b 09 bd
       -0.019654432 0.014091912 0.02530153 -0.03345815
000250 fd 3b 90 ba 80 de 01 3c fb 3b 52 3d a3 71 f2 bc
       -0.0011004206 0.007926583 0.051326733 -0.029595202
000260 1d 5d 66 3d 7a 39 83 bc 3a ff 6d 3d c0 cf 48 bb
       0.056241143 -0.016018618 0.05810473 -0.0030641407
000270 2c 80 e0 bc ea 24 8a 3b 01 81 8b bb 5f e1 96 3b
       -0.027404867 0.0042158263 -0.004257322 0.004604503
000280 24 46 d0 3a 98 9d 64 bd a0 cd b1 3a e0 43 b5 bd
       0.0015890044 -0.055814356 0.0013565309 -0.08850837
000290 23 a9 11 3d 8e 8c 00 3c 27 62 13 3d 2a 3b 30 3d
       0.035561692 0.007846011 0.035982277 0.043025173
0002a0 7f 4e 2c 3e 86 b9 2f 3d 1c 22 af 3c 69 8d 07 bd
       0.16826819 0.04290154 0.02137857 -0.033093844
0002b0 6d 63 92 bb d1 0c 9d 3d 8b d5 87 3c 6f 72 29 bd
       -0.004467419 0.0766846 0.016581317 -0.041368898
0002c0 1b e5 25 bc 3e 66 9c 3d 90 4c 04 bd 8e 8c 49 3d
       -0.010125424 0.07636689 -0.03229958 0.04920631
0002d0 17 d9 4c bc 8f fc 5e bd 76 70 a4 3d 1a 2c c8 bd
       -0.01250293 -0.054440077 0.08029263 -0.09774037
0002e0 4a 63 70 bc 13 ce df 3b 9f 7e ad 3c 65 f7 5e bd
       -0.01467211 0.006829986 0.021178542 -0.054435153
0002f0 ce 00 c5 3d 20 89 84 bc 43 7d 45 bc f6 db 08 3b
       0.09619294 -0.016178668 -0.0120537905 0.002088306
000300 1a 68 1f 3e b9 c2 2b 3e 11 9e ab bc f6 1d af 3a
       0.15567055 0.167735 -0.020949395 0.001336037
000310 36 d1 b6 bd 28 14 30 3d a2 1f ef 3c ae 07 54 bc
       -0.089266226 0.042987972 0.029189888 -0.012941284
000320 c4 39 55 bc 65 ae 60 3d c3 73 24 3d 1b 92 42 bd
       -0.013014261 0.054853816 0.04014946 -0.04750262
000330 38 18 8c 3a ec 9a ba bc 12 ff 0d bd b0 58 f1 3c
       0.001068837 -0.02277895 -0.034667082 0.029461235
000340 2f 75 6e bb c7 e1 36 3c 78 d1 2e bd 87 3a d4 3b
       -0.0036385765 0.011162228 -0.042680234 0.0064767036
000350 3d a0 2f bc 73 f3 8c 3c fb 67 35 bd da 67 27 3d
       -0.010719356 0.01720593 -0.044288617 0.040870525
000360 dd f4 c0 ba d1 e1 2c bd 5c bf 46 3c 07 18 ce 3a
       -0.0014721412 -0.042207543 0.012130585 0.0015723713
000370 ab f3 7e bd 3c 2b 11 3e 6b c0 43 3c 68 49 94 3c
       -0.0622441 0.14176649 0.0119477315 0.01810141
000380 b0 4f f4 3c 62 7c ac bb 2a 8d 3a bd aa 72 dd ba
       0.029823154 -0.005263851 -0.04554478 -0.0016895134
000390 dc 93 e1 bc 7b 1d 05 bd 35 17 d3 bb 9c 5e 4e 3d
       -0.027536325 -0.032498818 -0.0064419755 0.050383195
0003a0 1b e3 8e 3c 15 6a cc bc 33 dc a8 bc a6 cc 00 3e
       0.017442277 -0.024952928 -0.020612812 0.12578067
0003b0 38 d5 31 3b d0 91 d5 ba c8 ea eb bb 47 b3 6d 3d
       0.0027135145 -0.0016294066 -0.007199619 0.0580323
0003c0 44 42 68 3d bc e5 45 bd ac 91 84 3b f8 8a af 3d
       0.05670382 -0.048314795 0.0040456858 0.08571428
0003d0 4a e3 a8 ba 0f 1b 19 bd 02 e0 eb 3c fc f4 81 3b
       -0.001288512 -0.03737932 0.028793339 0.003965972
0003e0 3d 30 32 3c 2c d8 cf bc 9c 36 f6 bb 1e d9 c6 3c
       0.010875759 -0.025371633 -0.007513834 0.024273451
0003f0 7b 83 f9 bc 63 e3 f3 3c 7d 56 91 bc 3f 21 24 bc
       -0.030458203 0.029771512 -0.017741436 -0.010017692
