outputs/ragnopiccolo_128x128_model.pt (torch, 59084 bytes, 3 tensors)

brain.0.weight f4 [128, 48, 1, 1]
0	0xbe461272	-0.19342974
1	0x3ca6fe97	0.02038507
2	0xbd82dc96	-0.0638973
3	0xbe48b315	-0.19599564
4	0xbb36a3df	-0.002786867
5	0x3d22c52a	0.03973881
6	0x3c4d8a1d	0.012545136
7	0xbcf2f03a	-0.029655565
8	0x3d5bd3f7	0.053668942
9	0xbcb081af	-0.021546213
10	0x3c743233	0.014904547
11	0xbc52c6a7	-0.012864745
12	0x3da68c89	0.08132274
13	0x3da4a9b9	0.080401845
14	0x3d5b5260	0.053545356
15	0x3da031ad	0.07821975
16	0x3dae2a14	0.085041195
17	0xbd28d585	-0.041219253
18	0xbe520632	-0.20510176
19	0xbc40314b	-0.011730502
20	0x3e287152	0.16449478
21	0xbe2244f5	-0.15846618
22	0x3d5969d4	0.05307944
23	0x3b61a504	0.0034430632
24	0xbe1369e8	-0.14395869
25	0xbe559be3	-0.20860247
26	0x3c4c21ed	0.01245926
27	0x3e83c2b7	0.25734493
28	0xbd1a5a3a	-0.037683703
29	0xbe3c66d2	-0.18398598
30	0xbd49e45e	-0.049290054
31	0xbb3f7074	-0.0029211314
32	0xbcf1f43f	-0.02953541
33	0xbe3763a1	-0.17909099
34	0xbc8e50a2	-0.017372433
35	0xbc9864e9	-0.018602805
36	0x3e41c65a	0.18923321
37	0x3de489f8	0.11159128
38	0xbc9bef4b	-0.019035002
39	0x3ec246c8	0.37944627
40	0xbdbbeb01	-0.09175683
41	0x3ddaf274	0.106907755
42	0xbd2a4acc	-0.041575238
43	0x3cb5b37e	0.022180315
44	0xbdbdf413	-0.09275069
45	0x3e248aa1	0.16068508
46	0x3de78e74	0.11306468
47	0x3e203c5b	0.15648024
48	0xbe78f543	-0.2431231
49	0xbd0e1df0	-0.03469652
50	0xbdb0c9e2	-0.08632256
51	0xbe66b084	-0.22528273
52	0xbc974030	-0.018463224
53	0x3dbdbd33	0.092646025
54	0xbe421ee8	-0.18957102
55	0x3db4fe6e	0.08837591
56	0xbc815c6e	-0.015791144
57	0xbe37245d	-0.17884965
58	0x3dc684f1	0.09693325
59	0x3bd3118b	0.0064413003
60	0x3e9dbc50	0.30807734
61	0x3d30e585	0.043187637
62	0x3d6609bd	0.05616163
63	0xbe1503d7	-0.14552246
64	0x3da2619c	0.07928774
65	0xbd97946b	-0.07401355
66	0x3c16ee9c	0.009212162
67	0x3d7b9e54	0.06143029
68	0x3d632e99	0.05546436
69	0x3dadf050	0.084931016
70	0xbe2c4e38	-0.16826713
71	0xbe0ae4fb	-0.13563912
72	0xbd68fc25	-0.05688109
73	0xbcccafad	-0.024986112
74	0xbcab38c7	-0.020901097
75	0x3cc05bc6	0.023481261
76	0xbd40c59f	-0.047063466
77	0xbd5128ef	-0.051064428
78	0x3e3b1db3	0.18273048
79	0xbd3163cf	-0.043308076
80	0x3d6bbfcf	0.05755597
81	0x3dde6140	0.10858393
82	0xbe35f311	-0.17768504
83	0x3d22eb3c	0.03977512
84	0x3da94c5b	0.08266517
85	0xbe1ab8ca	-0.15109554
86	0x3d70f0d3	0.058823418
87	0xbcdeb41b	-0.02718549
88	0x3e03f222	0.12885335
89	0xbdcd0654	-0.100109726
90	0xbe343a5f	-0.17600392
91	0xbd36a3b0	-0.0445897
92	0xbce3f32f	-0.02782592
93	0x3e6618fe	0.22470471
94	0xbcee6d1c	-0.029104762
95	0xbcf6e47f	-0.030138252
96	0xbced45ec	-0.028964005
97	0xbcfdcac8	-0.030980483
98	0xbd69e73b	-0.057105284
99	0xbe0cbe29	-0.13744415
100	0x3cbfe352	0.023423824
101	0x3e1660df	0.14685391
102	0xbd8a89da	-0.06764574
103	0x3e359cb2	0.17735556
104	0x3e16e8ed	0.14737292
105	0x3e30e5f1	0.17275216
106	0x3e07b382	0.1325207
107	0xbdccbff8	-0.09997553
108	0x3e33c4eb	0.17555587
109	0x3c39f62b	0.011350195
110	0xbdf04d73	-0.11733522
111	0xbd520756	-0.051276527
112	0x3c8fd42d	0.017557228
113	0x3dd79eea	0.10528357
114	0xbdfe9e95	-0.12432591
115	0xbd54e941	-0.05198026
116	0x3cb22386	0.021745455
117	0xbc02aa19	-0.007975125
118	0xbddd2356	-0.107977554
119	0xbc1e446a	-0.009659866
120	0xbe0d9b57	-0.13828789
121	0x3d5b87f2	0.053596444
122	0xbd04b712	-0.032401152
123	0x3d5c55c7	0.05379274
124	0x3d584c26	0.052806996
125	0x3df4ebfb	0.11959072
126	0x3eec4400	0.4614563
127	0xbd11cea5	-0.035597462
128	0xbe4a8549	-0.19777407
129	0xbeb74e65	-0.35801998
130	0xbdaa032f	-0.083013885
131	0x3d1b2c4f	0.037884053
132	0x3dce2b79	0.100668855
133	0x3c88ea59	0.016713308
134	0x3b89b15f	0.0042020525
135	0x3e24f248	0.16108048
136	0x3d5a2499	0.05325756
137	0x3d7050e7	0.058670904
138	0xbcf3f5b9	-0.029780256
139	0xbd63e582	-0.055638798
140	0xbc669afd	-0.014075038
141	0x3db93fc6	0.09045367
142	0x3da88064	0.082276136
143	0xbc05412a	-0.008133212
144	0xbe090d45	-0.13383968
145	0xbc4b9fb9	-0.012428218
146	0x3d6d41bc	0.057924017
147	0xbe1121cb	-0.14173047
148	0xbe2fc53b	-0.17165081
149	0xbdc38915	-0.09547631
150	0x3e21be8d	0.15795346
151	0xbd284572	-0.041081853
152	0x3d062f28	0.032759815
153	0x3cc272d2	0.023736391
154	0xbb416243	-0.0029508031
155	0xbd84e093	-0.06488147
156	0x3ea158fb	0.315132
157	0x3d0b00b4	0.033936217
158	0xbd805706	-0.062665984
159	0x3cc8a056	0.024490517
160	0x3df9b6ee	0.12193094
161	0xbbead375	-0.007166321
162	0xbd0c8fa0	-0.03431666
163	0xbd89e37e	-0.06732844
164	0xbc94615b	-0.018112829
165	0xbdc98ac9	-0.09840924
166	0xbc61bc09	-0.013777741
167	0xbd8addd9	-0.06780595
168	0x3dbebb6f	0.09313094
169	0xbdc7f100	-0.09762764
170	0xbd386180	-0.04501486
171	0x3db71668	0.089398205
172	0xbdc19a95	-0.09453312
173	0x3d92ba52	0.07164444
174	0xbd25f82e	-0.040519886
175	0xbcdec509	-0.027193563
176	0x3e12dbd8	0.14341676
177	0x3aee3e5f	0.0018176547
178	0xbc839a8e	-0.016064908
179	0x3d4e90a5	0.050430913
180	0x3e4fca03	0.20291905
181	0x3e3b8887	0.183138
182	0x3ddb80ef	0.107179515
183	0x3e264441	0.16236974
184	0xbd8f7540	-0.070047855
185	0xbe27f255	-0.16401036
186	0xbe9985de	-0.29984945
187	0xbdedbab9	-0.1160788
188	0xbb3ea18e	-0.0029087993
189	0x3e238750	0.15969586
190	0x3c7a5825	0.015279804
191	0xbc8bc7e9	-0.017063098
192	0xbda4d262	-0.0804794
193	0xbbc5b003	-0.006032945
194	0x3d4ca923	0.04996599
195	0xbb52ab9a	-0.003214574
196	0x3d1c4a41	0.03815675
197	0x3d9ad977	0.075610094
198	0xbe547bc2	-0.20750335
199	0x3d3a7f8f	0.045531806
200	0xbdb48293	-0.088139676
201	0xbe33f07f	-0.1757221
202	0x3c88b75b	0.016688993
203	0x3b5c173a	0.003358318
204	0x3e32a99e	0.17447516
205	0x3dadd48b	0.08487805
206	0xbe10e778	-0.14150798
207	0xbe982b9f	-0.2972078
208	0x3e4111bf	0.18854426
209	0x3e142800	0.14468384
210	0xbdf88a7c	-0.12135789
211	0x3bfd97b5	0.007739032
212	0xbccb12c8	-0.024789229
213	0x3e175b59	0.1478094
214	0xbc8d3e03	-0.017241484
215	0xbe429c87	-0.19005023
216	0x3e0988e7	0.1343113
217	0x3c2ec859	0.010667884
218	0x3d5fa65f	0.054602023
219	0x3e7573fa	0.23970023
220	0x3db90ee0	0.0903604
221	0x3dbaa64e	0.09113751
222	0x3e8c354f	0.2738442
223	0xbd80ffae	-0.06298767
224	0x3e15801b	0.1459965
225	0x3cec4654	0.028842129
226	0x3dc15d50	0.09441626
227	0x3bc05c35	0.005870367
228	0x3e91c83f	0.28473088
229	0xbcc43598	-0.023951337
230	0x3d395344	0.045245424
231	0x3df2a03b	0.11846968
232	0xbd6f3fba	-0.058410384
233	0xbd10d4bc	-0.03535913
234	0xbe5e68c9	-0.2171966
235	0x3dd1b480	0.10239506
236	0xbd5966e6	-0.053076647
237	0x3e4e72ae	0.20160934
238	0xbcf5dd4a	-0.030012745
239	0xbc926723	-0.017871445
240	0x3d4c0309	0.049807582
241	0xbd219d5a	-0.039456703
242	0x3d0c77a9	0.034293804
243	0x3d017b47	0.031611707
244	0xbd5d33d6	-0.054004513
245	0xbd8752ae	-0.06607567
246	0xbdb72202	-0.08942033
247	0x3dbe0527	0.092783265
248	0xbb8cfb13	-0.0043023913
249	0xbe7ceabc	-0.24698919
250	0xbd48d3f6	-0.049030267
251	0xbc8875df	-0.016657768
252	0x3e016e6f	0.12639783
253	0x3d31f379	0.043445084
254	0xbd294452	-0.04132492
255	0xbeb85119	-0.35999373

brain.0.bias f4 [128]
0	0x3cc5e46e	0.024156775
1	0xbda3d0f7	-0.07998841
2	0xbd7b1c42	-0.061306246
3	0xbb507311	-0.0031806866
4	0x3cb46b1e	0.022023734
5	0x3d066f52	0.032821007
6	0xbd2589f1	-0.040414754
7	0x3c86f380	0.016473532
8	0x3d1abc23	0.037777077
9	0xbea2f3d7	-0.3182666
10	0xbd5b7da2	-0.05358661
11	0x3d38ec7a	0.045147397
12	0x3d884b9b	0.066550456
13	0xbdcb1409	-0.09915931
14	0xbbe4fa3e	-0.006987839
15	0x3c2abbd8	0.010420762
16	0x3ac9b0d2	0.001538778
17	0xbcbc5ce5	-0.022993514
18	0x3d675103	0.056473743
19	0xbe630231	-0.22168805
20	0xbe01b1eb	-0.12665527
21	0xbdd98529	-0.106211014
22	0xbe0a03b3	-0.13477974
23	0xbb274db4	-0.0025528492
24	0xbe83c8dd	-0.25739184
25	0xbeb442db	-0.35207257
26	0x3b32fcb4	0.0027311267
27	0xbd0f8d3c	-0.0350468
28	0xbe132b53	-0.14371996
29	0xbe17d150	-0.1482594
30	0x3c29e332	0.010369109
31	0xbd30ad74	-0.043134168
32	0xbea8ff78	-0.33007407
33	0xbebea857	-0.37237808
34	0x3c65309c	0.01398864
35	0x3cb75a4d	0.022381926
36	0xbcf91d07	-0.03040935
37	0x3d1f9eaa	0.038969673
38	0xbb16a1ba	-0.002298458
39	0x3d1d8e57	0.038465824
40	0xbe02b950	-0.12766004
41	0x3cdeaf31	0.027183147
42	0x3ce4400a	0.027862567
43	0xbd1d6d1d	-0.038434137
44	0xbeb513de	-0.3536672
45	0xbbe924b2	-0.00711497
46	0x3d3c1f43	0.04592825
47	0xbd02ca84	-0.031931415
48	0x3ca13f5e	0.019683536
49	0xbe17a2d3	-0.14808206
50	0xbc196779	-0.009363049
51	0x3c864162	0.016388599
52	0xbbf5bcf5	-0.007499332
53	0xbda2e721	-0.079542406
54	0xbdbbfd7c	-0.09179208
55	0xbb981384	-0.0046409983
56	0x3d9ec872	0.07753076
57	0xbe75631b	-0.23963587
58	0x3c2a0f1d	0.01037958
59	0x3c831b86	0.016004335
60	0x3c4fd02c	0.012683909
61	0x38a91ed0	8.064287e-05
62	0xbbef77fa	-0.0073080035
63	0xbde9a448	-0.11408287
64	0xbb9224fe	-0.004459976
65	0xbdd0a076	-0.101868555
66	0xbcd9e00d	-0.026596094
67	0x3c819e89	0.015822666
68	0xbde4002c	-0.11132845
69	0xbdf70feb	-0.12063583
70	0x3bd73745	0.006567868
71	0xbb9ec285	-0.004844966
72	0xbd08077b	-0.03321026
73	0xbc3667b0	-0.011133119
74	0xbdef9845	-0.11698965
75	0x3c14b885	0.009077196
76	0xbded5ea7	-0.11590319
77	0xbbb447ad	-0.0055017085
78	0xbe6aa728	-0.22915328
79	0x3c3887a7	0.011262811
80	0x3c2235b4	0.009900499
81	0x3be6a806	0.007039073
82	0x3d419727	0.04726329
83	0x3cbb0091	0.022827419
84	0xbb15abc1	-0.002283797
85	0xbe03c526	-0.12868175
86	0x3a9875b0	0.0011631753
87	0xbe77e960	-0.24210119
88	0xbe16d14e	-0.14728281
89	0x3b1453da	0.0022632987
90	0xbe16c9f8	-0.14725482
91	0x3c9d6031	0.019210907
92	0x3ca32c41	0.019918563
93	0x3b8b5f58	0.004253309
94	0xbe952a62	-0.29133898
95	0x3cbfc8bc	0.023411147
96	0x3c2327ad	0.00995819
97	0xbbfc8885	-0.007706704
98	0xbe29bd40	-0.165761
99	0xbe81aef3	-0.25328788
100	0x3b41e86c	0.0029587997
101	0x3d73f411	0.05955893
102	0xbd3bd462	-0.04585684
103	0x3c111641	0.008855403
104	0xbdfd6e8d	-0.123746015
105	0x39c0ac28	0.0003674936
106	0x3c994327	0.018708779
107	0xbe0f3f78	-0.13989055
108	0x3d468878	0.04846999
109	0xbdf8f49a	-0.12156029
110	0xbe76ad0c	-0.2408945
111	0xbd838b3f	-0.064230435
112	0xbd883c66	-0.06652145
113	0x3ca50d27	0.020147873
114	0xbeb33bd5	-0.35006586
115	0x3c1e0c54	0.009646494
116	0x3ac5738e	0.0015064345
117	0xbe41f33d	-0.18940444
118	0xbd19f59a	-0.03758774
119	0xbcf0a060	-0.029373348
120	0xbd437426	-0.04771819
121	0x3ca9ca85	0.020726452
122	0x3c1f0765	0.009706353
123	0x39aed595	0.00033346997
124	0xbe148335	-0.14503177
125	0xbe84ae6e	-0.2591433
126	0x3c9427ec	0.018085442
127	0x3c8205a6	0.015871834

brain.2.weight f4 [16, 128, 1, 1]
0	0xbce90c4f	-0.028448252
1	0x3cbc738a	0.023004312
2	0xbd6502e6	-0.055910967
3	0x3d05b0fa	0.03263948
4	0x3d75018b	0.059815925
5	0x3ce6d4ae	0.028177585
6	0x3d8f1e0d	0.069881536
7	0xbd9a8a12	-0.07545866
8	0x3d831c52	0.06401886
9	0xbdc6e221	-0.097110994
10	0x3cdb5ee7	0.026778651
11	0x3ad04178	0.0015888652
12	0x3db23097	0.08700674
13	0x3d453fe6	0.04815664
14	0x3d1b0782	0.037848957
15	0xbc8159ae	-0.015789833
16	0xbbc11c5f	-0.0058932747
17	0x3e43a9b8	0.19107711
18	0x3ceafb6a	0.028684337
19	0x3c2f57fe	0.010702131
20	0x3c5c4e38	0.013446383
21	0xbc25f85b	-0.010130013
22	0x3d5be78f	0.05368763
23	0x3db4512c	0.08804545
24	0xbd06c63f	-0.032903906
25	0xbda3546d	-0.07975087
26	0x3e0bade3	0.13640551
27	0x3d2a9148	0.041642457
28	0xbc37a916	-0.011209747
29	0x3de44e3b	0.11147734
30	0xbc19281c	-0.009347942
31	0xbcbbf936	-0.022945981
32	0xbcea58a7	-0.028606726
33	0xbe14558c	-0.14485759
34	0x3da5997b	0.08085915
35	0x3e334b13	0.17509107
36	0x3d33ea9b	0.04392491
37	0xbd537e43	-0.051634084
38	0x3dc7327b	0.09726425
39	0xbb4b7dc3	-0.0031050302
40	0xbc609e0b	-0.013709555
41	0x3ce42cb3	0.027853345
42	0x3d8bb7dd	0.068221785
43	0x3d3ec51a	0.04657469
44	0xbe93377f	-0.28753278
45	0x3ca0a03a	0.019607652
46	0x3da65519	0.081217
47	0xbd192c76	-0.037395917
48	0x3d0b8b19	0.0340682
49	0x3d6a3221	0.057176713
50	0x3cd8ef3c	0.026481263
51	0xbdc6a383	-0.09699156
52	0x3dac2d56	0.08407085
53	0xbd1af7de	-0.03783404
54	0x3d1d6f8e	0.038436465
55	0x3c540d4b	0.012942622
56	0x3d820841	0.063492306
57	0xbdd0dab8	-0.10197967
58	0x3d5bffcc	0.053710744
59	0xbd85817d	-0.065188386
60	0x3d4f84af	0.050663646
61	0xbd197d8b	-0.037473243
62	0xba39adab	-0.00070830685
63	0xbca881e6	-0.020569753
64	0x3b93a80b	0.0045061163
65	0xbc03bce6	-0.008040642
66	0xbd0eb96e	-0.03484481
67	0x3e0b883b	0.13626187
68	0xbd65cc8a	-0.056103267
69	0x3bce4978	0.0062953793
70	0x3d001f0a	0.0312796
71	0x3d07d2c5	0.03315999
72	0xbdea17a5	-0.11430291
73	0xbc3c75f9	-0.011502736
74	0x3d5d3eff	0.054015156
75	0xbb01fc0d	-0.0019834072
76	0xbd779439	-0.06044409
77	0x3dba627d	0.091008164
78	0xbd38c1c8	-0.04510668
79	0x3de0c0ae	0.10974251
80	0x3dc0b268	0.09409028
81	0x3dfa6918	0.12227076
82	0xbbd31e64	-0.006442832
83	0x3e34049a	0.1757988
84	0x3c833498	0.01601629
85	0xbc2290f9	-0.0099222595
86	0x3e07b194	0.13251334
87	0xbd85926a	-0.06522067
88	0xbc1f7a83	-0.009733799
89	0x3db52847	0.08845573
90	0x3af7b237	0.0018897717
91	0x3dbb88bc	0.091569394
92	0x3cdda379	0.027055489
93	0x3de768df	0.112992994
94	0xbd8e2764	-0.06941107
95	0x3c8af833	0.016964054
96	0x3c4cde22	0.012504132
97	0x3c0f8305	0.008759265
98	0xbce58f5c	-0.02802246
99	0xbd3e07df	-0.046394225
100	0x3d7fd764	0.062461272
101	0x3d4ffd58	0.050778717
102	0xbc7c2250	-0.01538904
103	0xbc195a44	-0.0093599
104	0xbc085043	-0.008319917
105	0xbcbe467b	-0.023226967
106	0x3cb8a79d	0.022540862
107	0xbd55ec1e	-0.052227132
108	0xbdeb535e	-0.114905104
109	0xbd2004bc	-0.039067015
110	0xbd8f4b0c	-0.06996736
111	0x3d973ad7	0.0738427
112	0x3d8bf1a1	0.068331964
113	0x3c2895b3	0.010289597
114	0xbe02fbd4	-0.12791377
115	0x3d2d15ba	0.04225705
116	0x3dbe3202	0.09286882
117	0xbc9a3054	-0.018821873
118	0x3d0899e0	0.03334987
119	0xbcf53ff8	-0.02993773
120	0xbd29e4e9	-0.04147807
121	0x3e53b032	0.20672682
122	0x3b5f6bba	0.003409131
123	0x3bcdb5ea	0.0062777894
124	0xbcc6e0f4	-0.024277188
125	0xbd54b58b	-0.051930945
126	0x3dad6a76	0.084675714
127	0x3d75969e	0.059958093
128	0x3e11b0b4	0.14227563
129	0x3b4446cf	0.0029949432
130	0x3caf9c16	0.021436732
131	0x3d63c5be	0.055608504
132	0x3d429ef5	0.047514874
133	0x3c0c2746	0.008554285
134	0x3d83ac63	0.064293645
135	0x3d3e0fde	0.04640185
136	0xbd475cba	-0.048672415
137	0xbd0973dd	-0.03355776
138	0xbda29e5e	-0.079403624
139	0x3d288678	0.041143864
140	0xbd09062a	-0.033453144
141	0x3d60bd3e	0.054867975
142	0xbd159b3a	-0.03652499
143	0xbd2e0374	-0.042483762
144	0x3d86181f	0.065475695
145	0x3dbb8399	0.0915596
146	0xbd218cdf	-0.039440986
147	0xbd37a1d1	-0.044832055
148	0x3c342159	0.010994279
149	0xbdcb4c9f	-0.09926724
150	0x3d07ca12	0.033151694
151	0xbd74d65e	-0.05977475
152	0xbb4468a3	-0.0029969595
153	0xbd13e7d0	-0.036109746
154	0xbcccf304	-0.025018223
155	0xbc8f53c0	-0.01749599
156	0x3c876eac	0.016532265
157	0x3e561afa	0.20908728
158	0xbcd06f78	-0.025443777
159	0xbcc6f1d5	-0.024285236
160	0xbc95726b	-0.018243035
161	0xbc0e22e3	-0.00867531
162	0xbc926ff4	-0.017875649
163	0x3d4c3c66	0.049862288
164	0xbd94f029	-0.072723694
165	0xbcfff2c7	-0.031243695
166	0x3d8b74ac	0.06809363
167	0x3c29a1b5	0.010353495
168	0x3d853237	0.06503718
169	0x3d217870	0.0394215
170	0xbbd2ed53	-0.0064369827
171	0xbcdee369	-0.027208047
172	0xbda16109	-0.07879836
173	0x398122d5	0.0002463075
174	0x3b8c1d41	0.0042759483
175	0xbd165d6d	-0.03671019
176	0x3c855527	0.016275955
177	0x3d39af15	0.045332987
178	0x3d73c459	0.059513424
179	0xbdcc797e	-0.0998411
180	0x3c6ee117	0.014580033
181	0xbd7e400f	-0.06207281
182	0xbc33168c	-0.010930669
183	0xba766287	-0.0009398837
184	0x3d08949c	0.03334485
185	0x3d42f408	0.047596008
186	0x3d38aad5	0.045084793
187	0xbc67adb6	-0.014140537
188	0xbd16c027	-0.036804345
189	0x3ddda796	0.1082298
190	0x3d53c296	0.051699243
191	0x3da5d7fb	0.08097836
192	0xbd1e403d	-0.03863548
193	0xbd0516a7	-0.032492306
194	0xbc19b4de	-0.009381501
195	0xbd551a82	-0.052027233
196	0xbc851ae2	-0.01624817
197	0x3c89b7e0	0.016811311
198	0x3e01e63d	0.12685485
199	0x3d83e1cd	0.064395525
200	0xbd6f2528	-0.058385044
201	0x3db9815a	0.09057875
202	0x3c49e9ac	0.012323778
203	0x3d8c946b	0.06864246
204	0x3d1ea1b4	0.03872843
205	0xbb9e2c1f	-0.004827037
206	0xbd62da8d	-0.055384208
207	0x3dc8ee53	0.09811082
208	0x3e035c41	0.12828161
209	0xbdb89ed5	-0.0901467
210	0x3d6d5477	0.05794188
211	0x3d681458	0.056660026
212	0x3c993537	0.018702133
213	0xbd26f595	-0.04076155
214	0x3e70ee83	0.23528485
215	0xbe0b7277	-0.13617884
216	0x3d10454a	0.03522233
217	0x3c8c50b4	0.017128326
218	0x3ce52b5b	0.027974775
219	0x3d6e257f	0.058141228
220	0x3bb75cba	0.0055957707
221	0x3dcfecaf	0.10152566
222	0x3d9a363d	0.075298764
223	0x3d5344b0	0.051579177
224	0x3bcdb53f	0.0062777097
225	0x3b1fccd8	0.002438357
226	0xbd500925	-0.05078997
227	0x3c467151	0.012111978
228	0xbb96f60a	-0.004606967
229	0xbc227b0d	-0.009917033
230	0x3d946789	0.0724631
231	0x3c97d753	0.018535292
232	0x3c9fc277	0.019501908
233	0xbc42c300	-0.011887312
234	0x3d0bc155	0.034119923
235	0xbc677645	-0.014127319
236	0xbd9497de	-0.07255529
237	0x3c82ad4e	0.015951779
238	0xbcac5e79	-0.021041142
239	0x3dbd85d7	0.092540435
240	0x3d2d92b5	0.04237624
241	0x3b983142	0.004644544
242	0x3d0b4522	0.034001477
243	0xbc837ea8	-0.016051605
244	0xbd464492	-0.048405237
245	0xbd2af283	-0.041735183
246	0x3dbd9358	0.09256619
247	0xbb0b6b87	-0.0021273808
248	0xbc005fc8	-0.007835336
249	0xbbbaa205	-0.0056955838
250	0x3c8a5f24	0.01689107
251	0x3ccfb84d	0.025356436
252	0xbd2ec5e6	-0.0426692
253	0xbdda87f5	-0.10670463
254	0xbd4aa53d	-0.04947399
255	0xbbea1976	-0.0071441485
