outputs/ragnopiccolo_40x40_model.pt (torch, 45562 bytes, 3 tensors)

brain.0.weight f4 [128, 48, 1, 1]
0	0xbdd6c863	-0.104874395
1	0x3d82f869	0.06395037
2	0xbd633fc0	-0.05548072
3	0x3d4cfe4a	0.050047196
4	0xbdc6468c	-0.096814245
5	0x3c8d8598	0.017275617
6	0xbdfc83eb	-0.12329849
7	0x3c03d9d2	0.008047538
8	0x3cc07200	0.02349186
9	0xbdcd85bc	-0.100352734
10	0x3dade28a	0.084904745
11	0xbd955778	-0.07292074
12	0x3d17907a	0.037003018
13	0xbdd030c1	-0.10165549
14	0x3d7cfcf7	0.061764684
15	0x3d9c6ce9	0.076379605
16	0x3d457186	0.048203968
17	0x3db416aa	0.08793385
18	0xbe7a5da7	-0.24449788
19	0x3d868ef8	0.06570238
20	0xbb3fa0ec	-0.0029240204
21	0x3e6839eb	0.22678344
22	0x3ce68845	0.02814115
23	0x3da487ac	0.0803369
24	0xbd6d120b	-0.057878535
25	0xbc67a45e	-0.014138309
26	0x3ddb546c	0.107094616
27	0xbe44f282	-0.19233134
28	0xbcc85392	-0.024453912
29	0xbc2ba1bc	-0.010475572
30	0xbe0ca7a6	-0.13735828
31	0xbdf02be3	-0.11727121
32	0x3d9ea605	0.077465095
33	0x3e11a742	0.1422396
34	0x3db51c74	0.08843318
35	0xbe0fbe9c	-0.14037555
36	0x3e0a401e	0.13501021
37	0xbdd069e5	-0.10176448
38	0xbd4bab7d	-0.04972409
39	0xbc9c5369	-0.019082742
40	0x3d082fe0	0.033248782
41	0x3e0808d5	0.13284619
42	0xbe9bf3e4	-0.3045951
43	0xbb0443a2	-0.0020181914
44	0x3c5ed2e1	0.013600082
45	0xbc4f8197	-0.012665174
46	0x3b8d386d	0.004309705
47	0xbdca7da3	-0.098872446
48	0xbd18450b	-0.03717522
49	0xbd30fa35	-0.043207366
50	0x3d0a6621	0.033788804
51	0xbde4f592	-0.11179651
52	0x3dc0bede	0.09411405
53	0xbd05f79b	-0.032706838
54	0xbe319809	-0.17343153
55	0x3d6771e7	0.05650511
56	0xbd5e2a5c	-0.054239616
57	0xbe48a770	-0.19595122
58	0xbde6552c	-0.11246714
59	0xbdf7ff8a	-0.12109287
60	0xbdb7ac7e	-0.08968447
61	0x3d3d8097	0.04626521
62	0xbbfd43bc	-0.007729022
63	0xbed11fd4	-0.40844595
64	0x3d619ca0	0.05508101
65	0xbc6d4d8a	-0.014483819
66	0x3e8166ea	0.2527383
67	0x3caf8349	0.021424906
68	0x3dbd7663	0.09251096
69	0x3ee234d7	0.4418094
70	0xbe478dd2	-0.19487694
71	0x3d744907	0.059639957
72	0xbe132cac	-0.1437251
73	0x3abbb2e0	0.0014320277
74	0x3d331740	0.043723345
75	0xbec33cfe	-0.3813247
76	0x3e142acd	0.14469452
77	0x3c762b58	0.015024982
78	0xbd8d80e7	-0.06909352
79	0x3d921aad	0.07133994
80	0xbe02ebab	-0.12785213
81	0xbdbfbaf0	-0.093618274
82	0xbbd7936a	-0.0065788524
83	0xbcb65aef	-0.022260157
84	0x3e1075c5	0.14107426
85	0x3db14d9e	0.086573824
86	0x3d6e5fdf	0.0581969
87	0xbd986944	-0.07441953
88	0xbca8ec96	-0.020620625
89	0x3d8a0785	0.067397155
90	0xbe7b2cbb	-0.24528782
91	0x3d9b1de0	0.075740576
92	0x3e3c1f1d	0.18371244
93	0x3e7866cb	0.24257962
94	0xbd8084d2	-0.062753335
95	0x3d2a026d	0.04150622
96	0xbe9797e0	-0.2960806
97	0x3b95481e	0.004555716
98	0xbabe4e4f	-0.0014519187
99	0xbe50790c	-0.20358676
100	0x3d0994f4	0.03358932
101	0xbd457870	-0.04821056
102	0xbe890ef4	-0.2676922
103	0x3d22f7e2	0.03978718
104	0x3db68ad4	0.08913198
105	0x3cd3311b	0.025780251
106	0x3ddf9779	0.10917563
107	0xbdb5dbd3	-0.08879819
108	0x3dfd91c5	0.12381319
109	0x3d3af649	0.045645032
110	0xbdc7a4e8	-0.0974825
111	0xbd7fcedc	-0.062453136
112	0xbd7f1cc8	-0.062283307
113	0x3cc51b6d	0.02406093
114	0x3e68f321	0.22748996
115	0xbd379022	-0.04481519
116	0xbc9c1030	-0.019050688
117	0xbe1e37b7	-0.15450941
118	0x3e06674f	0.13125347
119	0xbd852f81	-0.06503201
120	0x3daef3e8	0.08542615
121	0x3d6c8424	0.057743207
122	0xbd6687fc	-0.05628203
123	0x3e20d006	0.15704355
124	0xbdbc44d6	-0.09192817
125	0x3ca3eaca	0.020009417
126	0xbdf33093	-0.11874499
127	0xbe17f762	-0.14840463
128	0x3d9a5acc	0.075368494
129	0x3da3ffbf	0.08007764
130	0x3ca79f4d	0.020461703
131	0x3d5cc632	0.05389995
132	0xbe1e43a9	-0.15455498
133	0xbd009f6f	-0.031402048
134	0x3dc5c107	0.09655958
135	0x3e48fc69	0.19627537
136	0xbd0d36eb	-0.034476202
137	0xbd9dba48	-0.07701546
138	0x3d198c75	0.037487466
139	0xbce44949	-0.027866976
140	0x3dda0772	0.10645951
141	0x3d9ded12	0.07711233
142	0xbda0a957	-0.07844799
143	0xbc45e8ad	-0.0120794
144	0xbe1714bd	-0.14754005
145	0x3d2d28d1	0.042275254
146	0x3d3680a2	0.044556268
147	0xbde50e42	-0.1118436
148	0xbd9ae390	-0.07562935
149	0xbda75018	-0.081695735
150	0xbc2fb692	-0.0107246805
151	0xbdbf52dd	-0.09341977
152	0x3d5e7c87	0.054317977
153	0xbe4f50c9	-0.20245661
154	0xbca3ad30	-0.019980043
155	0xbd7d9a81	-0.061914925
156	0x3d9e356b	0.077250324
157	0x3a36ac0b	0.00069683854
158	0x3e020e3d	0.12700744
159	0x3dcbb1df	0.099460356
160	0x3bbd7f14	0.005782971
161	0xbd13e556	-0.036107384
162	0xbcf90846	-0.030399453
163	0xbd5f47f7	-0.05451199
164	0xbd4122ab	-0.047152203
165	0xbdc753c9	-0.097327776
166	0xbdd462e5	-0.10370425
167	0xbbbc85b9	-0.0057532457
168	0xbe789abf	-0.24277781
169	0x3d8fdec0	0.07024908
170	0x3d36977f	0.04457807
171	0x3e5542ce	0.20826265
172	0x3c90daa0	0.017682374
173	0xbd4a1118	-0.049332708
174	0x3d1ebb7b	0.038753014
175	0xbde6ed3d	-0.11275718
176	0xbd2d8e23	-0.04237188
177	0x3ccf0cb6	0.025274616
178	0xbdf7814b	-0.120852076
179	0xbce2afbc	-0.027671687
180	0x3e883176	0.26600236
181	0x3da65687	0.081219725
182	0xbd00bee4	-0.031432047
183	0xbcc00bfd	-0.023443216
184	0x3dd4d95d	0.10393021
185	0x3e39dcf4	0.18150693
186	0xbc16c489	-0.009202131
187	0xbd4423a0	-0.047885537
188	0x3df7e723	0.12104633
189	0x3de236d8	0.11045617
190	0xbdebff60	-0.11523318
191	0x3a69ac72	0.0008913941
192	0xbdbf491f	-0.093401186
193	0x3d192cfa	0.03739641
194	0xbe04bfdc	-0.12963814
195	0xbdb05d88	-0.0861159
196	0xbcaf38df	-0.021389423
197	0xba45cdc5	-0.00075456157
198	0xbe71ae95	-0.23601754
199	0x3c9f57e6	0.019451093
200	0x3dbe67c9	0.09297139
201	0xbbfb414e	-0.007667697
202	0x3cfedfd9	0.031112598
203	0x3dcaac8a	0.098961905
204	0x3e284d94	0.16435844
205	0xbd9e7169	-0.07736475
206	0xbdcf43b8	-0.10120338
207	0x3db90099	0.09033317
208	0xbe32dfb7	-0.17468153
209	0x3c821b1e	0.015882071
210	0x3c850a9e	0.016240414
211	0x3c716a8b	0.0147348745
212	0x3b2911f6	0.002579806
213	0x3e032980	0.128088
214	0xbe341a58	-0.17588174
215	0xbd7f59c5	-0.06234147
216	0xbdc2e7f9	-0.095169015
217	0xbca23825	-0.019802162
218	0xbe33606a	-0.17517248
219	0xbdd96771	-0.10615433
220	0x3e1a892a	0.15091386
221	0x3d407de5	0.046995062
222	0xbe72e3b2	-0.23719671
223	0xbdef325b	-0.116795264
224	0x3c2affb7	0.010436944
225	0x3dc94338	0.09827274
226	0xbd4829d1	-0.048868004
227	0xbd884a0f	-0.066547506
228	0x3e1d627a	0.15369597
229	0xbe319a65	-0.17344053
230	0x3d4ef979	0.050530884
231	0xbd9436ce	-0.07237016
232	0xbd1afe1f	-0.037840005
233	0x3da7e444	0.08197835
234	0xbdf2228a	-0.11822994
235	0xbe0c1149	-0.13678469
236	0x3db7034d	0.089361764
237	0x3da7aa5e	0.08186792
238	0xbd83b9a2	-0.06431891
239	0xbda71a17	-0.08159273
240	0xbe7e3186	-0.24823579
241	0xbac9f4c3	-0.0015408028
242	0x3d338a28	0.043832928
243	0x3d691fec	0.05691521
244	0x3d62c248	0.055361062
245	0xbdf223d6	-0.118232414
246	0x3d398503	0.045292865
247	0x3db0bff3	0.086303614
248	0xbd0ef6a9	-0.034903202
249	0xbe0a2a7a	-0.13492766
250	0xbd57b2b3	-0.052660655
251	0x3d46fea0	0.048582673
252	0x3e28b1c1	0.16474058
253	0xbca99d7f	-0.020704983
254	0xbce4344c	-0.027856968
255	0xbd336bf9	-0.043804143

brain.0.bias f4 [128]
0	0x3a60d283	0.00085762906
1	0xbc98f3fb	-0.018671026
2	0x3d307c6b	0.043087404
3	0xbdb504f8	-0.08838838
4	0xbe0c9f0b	-0.13732545
5	0xbbefff28	-0.007324118
6	0xbc698012	-0.014251726
7	0xbe303573	-0.1720789
8	0xbd8e5743	-0.069502376
9	0x3d381a3e	0.0449469
10	0xbd4e78e4	-0.05040826
11	0xbcfaddef	-0.030623404
12	0xbdab6478	-0.08368772
13	0x3d100f5b	0.035170894
14	0xbdfeb5e8	-0.124370396
15	0xbd50fd1b	-0.05102263
16	0xbdb65e8e	-0.089047536
17	0x3957aef2	0.0002056917
18	0xbb36f5f1	-0.0027917589
19	0xbe4130a2	-0.18866208
20	0xbd505700	-0.05086422
21	0xbb2fd2ad	-0.0026828453
22	0x3cadd199	0.021218108
23	0xbcc9e4f3	-0.024645304
24	0xbcedbf1a	-0.029021788
25	0xbdf6cdb5	-0.12050954
26	0xbe09abcf	-0.13444446
27	0xbe8bdc39	-0.27316454
28	0x3b0569ad	0.0020357177
29	0xbd88d238	-0.06680721
30	0xbe19933f	-0.14997576
31	0xbe81a78b	-0.25323138
32	0x3d076d1d	0.033063043
33	0xbe70c5b9	-0.23512925
34	0xbd3f1d08	-0.046658546
35	0x3d24c07d	0.040222634
36	0xbc21938e	-0.00986184
37	0x3c912615	0.017718354
38	0x3ba76785	0.005108776
39	0xbcb0a993	-0.021565234
40	0xbdf2841d	-0.11841605
41	0xbd366fc1	-0.04454017
42	0x3c5bdb96	0.013419053
43	0xbe7f2066	-0.24914703
44	0xbcdbe683	-0.026843315
45	0x3c49397a	0.01228177
46	0xbd3b1833	-0.045677375
47	0xbdaf5c0a	-0.08562477
48	0xbe37c64a	-0.17946735
49	0xbc09d08d	-0.008411539
50	0xbda9e9d7	-0.082965545
51	0xbd19c4a2	-0.03754104
52	0x3c534f9c	0.012897398
53	0x3c9a4c62	0.01883525
54	0xbe44ee07	-0.19231425
55	0xbe02e04a	-0.12780872
56	0xbd0f6586	-0.03500893
57	0xbdfb227c	-0.12262437
58	0xbc92a29b	-0.017899802
59	0xbe77be8a	-0.24193779
60	0xbe33b678	-0.17550075
61	0xbd800b61	-0.0625217
62	0x3bfb8ede	0.007676943
63	0xbea664e7	-0.32498857
64	0xbdb80f5a	-0.08987303
65	0xbcf3789a	-0.029720593
66	0xbc911dcb	-0.017714402
67	0xbdd2a1bd	-0.102847554
68	0x3cc71578	0.02430223
69	0xbc9751cf	-0.018471627
70	0xbe39513e	-0.18097398
71	0x3b668113	0.003517215
72	0xbd5a0a7e	-0.053232662
73	0x3d37c7f5	0.04486843
74	0x3b957e70	0.0045621917
75	0xbe0215eb	-0.12703674
76	0xbd5bf390	-0.053699076
77	0xbd986d73	-0.07442751
78	0xbe4350f3	-0.19073848
79	0x39cefef7	0.00039481345
80	0xbc7ebe8c	-0.01554836
81	0x3c9a9a53	0.018872416
82	0xbbaf66b5	-0.00535282
83	0xbdce5629	-0.100750275
84	0xbe7166d0	-0.23574376
85	0xbcc87346	-0.02446903
86	0x3a1da85f	0.0006014164
87	0xbab81447	-0.0014044129
88	0x3c02e0b4	0.007988144
89	0x3b81cbb7	0.0039610523
90	0xbe60482f	-0.21902536
91	0xbe1f3f24	-0.1555143
92	0xbd202315	-0.039095957
93	0x3c55b6d3	0.013044077
94	0xbe1829e8	-0.14859736
95	0xbe00fa1b	-0.12595408
96	0xbdb73115	-0.089449085
97	0xbc9f41cd	-0.019440556
98	0xbbdd15c3	-0.006746979
99	0xbd0b2956	-0.033974968
100	0xbe215db4	-0.15758401
101	0xbe0a8baa	-0.1352984
102	0xbe505627	-0.20345365
103	0xbe986c8e	-0.2977032
104	0xbdc28a83	-0.09499075
105	0xbd9cfe52	-0.07665695
106	0xbd2b9669	-0.04189149
107	0xbd2beef5	-0.041975934
108	0xbe723918	-0.23654592
109	0xbc367cc2	-0.011138143
110	0x3c820d78	0.015875563
111	0xbdad4641	-0.084606655
112	0xbe23b7d8	-0.159881
113	0xbc7109ab	-0.014711778
114	0xbd26cae8	-0.04072085
115	0xbdf9e644	-0.12202123
116	0xbde60db4	-0.112330824
117	0xbe4fcffc	-0.20294183
118	0xbe7dca96	-0.24784312
119	0xbe2bfbab	-0.16795222
120	0xbe4363ee	-0.19081089
121	0xbdd77363	-0.10520055
122	0xbc043acd	-0.00807066
123	0xbe1cd2dc	-0.15314811
124	0xbd0c82ee	-0.03430455
125	0xbe86e986	-0.2635004
126	0x3b632b48	0.0034663249
127	0xbc9b4f46	-0.018958699

brain.2.weight f4 [16, 128, 1, 1]
0	0x3cff760b	0.031184217
1	0x3d8b1617	0.06791323
2	0x3d6300d1	0.0554207
3	0x3d412d8f	0.04716259
4	0x3cac26aa	0.02101453
5	0x3d2cb6ec	0.042166635
6	0x3d030fc2	0.03199745
7	0xbcc47e61	-0.023986043
8	0xbc465373	-0.012104857
9	0x3d725e39	0.05917189
10	0x3c783f34	0.015151788
11	0x3ce4a2e0	0.027909696
12	0xbbee0d2f	-0.007264755
13	0x3cb247d9	0.021762775
14	0x3a28b43a	0.0006435547
15	0x3d52bcdb	0.051449638
16	0xbc956060	-0.018234432
17	0xbb905c37	-0.004405524
18	0xbc92b8e7	-0.017910434
19	0xbc0af001	-0.008480073
20	0x3c422e23	0.01185182
21	0x3d1f2c11	0.038860384
22	0xbc8cd31a	-0.017190505
23	0x3d54c39b	0.051944356
24	0x3d2b614c	0.041840836
25	0xbaa73c03	-0.0012758974
26	0xbd4d2cdd	-0.050091613
27	0x3addda18	0.0016925959
28	0x3c81d2b6	0.015847545
29	0xbcfad3fa	-0.030618656
30	0x3c559a0d	0.013037217
31	0xbb610f8a	-0.0034341537
32	0x3b7d291a	0.0038629235
33	0xbd7e830c	-0.062136695
34	0xbc0f3dfc	-0.008742806
35	0xbd9ba281	-0.075993545
36	0x3d8d647b	0.06903931
37	0x3d8926f9	0.066968866
38	0x3c8ae81e	0.016956385
39	0xbae51d4b	-0.0017480043
40	0x3d875fd7	0.06610077
41	0xbab06db2	-0.0013460426
42	0x3bd3a5eb	0.006458988
43	0xbcd6dca9	-0.026228266
44	0x3d8380c4	0.064210445
45	0x3d42e967	0.04758587
46	0xbcf09103	-0.029366022
47	0x3c7468c4	0.014917556
48	0xbd9180e9	-0.07104666
49	0x3d1437a1	0.036185864
50	0x3cfb62f6	0.030686837
51	0x3cf13b6e	0.029447284
52	0x3b9a4461	0.0047078584
53	0x38cf1ac4	9.875515e-05
54	0x3e132317	0.14368854
55	0x3d67e64e	0.05661612
56	0xbbece411	-0.007229336
57	0xbc1c502f	-0.009540602
58	0x3b144e34	0.002262962
59	0xbd333086	-0.043747447
60	0x3e17b139	0.14813699
61	0x3b8facbe	0.004384606
62	0x3c0093b7	0.007847718
63	0xbe03b247	-0.12860976
64	0xbcaa8000	-0.020812988
65	0x3b8bcf85	0.0042666816
66	0x3de6003a	0.11230512
67	0xbb9ec8aa	-0.0048456984
68	0x3d71ed61	0.059064273
69	0x3cb4c0a4	0.022064514
70	0xbd1cb193	-0.038255285
71	0xbcda1f5b	-0.02662628
72	0x3c03a5d3	0.008035141
73	0xbd582bd1	-0.05277616
74	0x3c036a9d	0.008021024
75	0xbd2b4bb0	-0.041820228
76	0x3cdfdb58	0.027326271
77	0x3cd0b959	0.025479006
78	0x3d4f528f	0.050615843
79	0x3cbfa273	0.023392892
80	0x3d23231c	0.039828405
81	0xbbac5dd8	-0.0052602105
82	0xbd09884b	-0.033577245
83	0xb99ceeb5	-0.0002993249
84	0x3becf9d2	0.0072319293
85	0x3c6a22f6	0.014290562
86	0x3d27382c	0.040825054
87	0x3ccdf8fb	0.025143137
88	0xbce25d58	-0.0276324
89	0x3d6a6863	0.057228457
90	0xbb9fd439	-0.004877594
91	0xbdb8ef44	-0.09030011
92	0xbbce95fa	-0.0063044997
93	0x3d1f923d	0.038957823
94	0x3dcf5d5e	0.1012523
95	0xbcb1a0ec	-0.021683179
96	0x3d07497c	0.033029065
97	0xbc3a8bdd	-0.011385885
98	0x3c8c24ad	0.017107332
99	0xbb82e59d	-0.003994657
100	0x3c5e5323	0.013569626
101	0x3b05fa3b	0.0020443338
102	0xbca6d690	-0.020365983
103	0xbd9691f2	-0.073520556
104	0x3d929426	0.07157163
105	0x3e054596	0.13014826
106	0x3ca09cc1	0.019605996
107	0x3c7fc27a	0.015610332
108	0xbb8ac79e	-0.004235222
109	0x3dbc58a5	0.09196595
110	0xbc337a91	-0.010954515
111	0x3db4c17a	0.08825965
112	0xbca78ef1	-0.020453902
113	0x3cb67734	0.022273637
114	0xbcafe16c	-0.021469794
115	0xbd261ee1	-0.040556792
116	0xbd093b3f	-0.033503767
117	0xbc835871	-0.016033383
118	0xbd73facf	-0.05956536
119	0xbd86bcb4	-0.06578961
120	0xbd13bfca	-0.036071576
121	0x3ce8fba2	0.0284403
122	0x3bd6c092	0.006553718
123	0xbd6ce4d4	-0.057835415
124	0x3dc645de	0.09681295
125	0x3c74fc04	0.014952663
126	0x3cd560e0	0.02604717
127	0x3da40dff	0.08010482
128	0x3a86034c	0.0010224371
129	0x3da2bbc0	0.07945967
130	0x3cddfae4	0.027097173
131	0x3d42163d	0.04738449
132	0xbb634834	-0.0034680488
133	0xbcc8d40b	-0.024515172
134	0xbc69ebe4	-0.014277432
135	0xbcddac3c	-0.027059667
136	0xbc1f0122	-0.00970486
137	0x3c5be0dd	0.013420311
138	0xbcd961dc	-0.02653592
139	0x3d86d8a5	0.065842904
140	0xbce99a6c	-0.028516017
141	0x3bcbe0ad	0.006221852
142	0xbbb83c48	-0.0056224205
143	0x3b710e0f	0.0036782061
144	0xbc62264a	-0.013803074
145	0x3bf9d642	0.0076244185
146	0xbb668fbd	-0.003518089
147	0xbc2f4317	-0.010697148
148	0x3bcd2b26	0.006261247
149	0x3d4be321	0.049777154
150	0x3cd2e062	0.02574176
151	0xbc91b64b	-0.01778712
152	0x3db154a8	0.08658725
153	0x3d08d80d	0.033409167
154	0xbd624585	-0.05524208
155	0x3a9da2d0	0.0012026671
156	0x3cbd7b44	0.023130067
157	0xbd0f35b7	-0.034963336
158	0x3cc61f5c	0.024184875
159	0x3ca9f500	0.020746708
160	0xbc0ff2ae	-0.008785887
161	0xbce99d3b	-0.028517356
162	0x3ce3dfa3	0.0278166
163	0xbd4c35fb	-0.049856167
164	0x3dc21125	0.09475926
165	0xba2e1bf8	-0.0006641741
166	0x3cb0cf65	0.021583268
167	0x3c113f91	0.008865253
168	0xbc3edf61	-0.011649937
169	0xbd4aa710	-0.04947573
170	0x3ce6f8b8	0.02819477
171	0x3c00d9c4	0.007864419
172	0x3d9f5cda	0.07781382
173	0x3d3a387a	0.045464016
174	0xbcff60e4	-0.03117413
175	0x3c9040ce	0.017609026
176	0x3dac3208	0.0840798
177	0x3c3315ab	0.010930459
178	0x3cb2f695	0.021846095
179	0x3d3e1a22	0.04641164
180	0xbc49837d	-0.012299416
181	0x3c76b545	0.015057866
182	0x3e1f2a5d	0.15543504
183	0x3b6458c4	0.0034842947
184	0x3ca7767e	0.020442244
185	0x3c63456a	0.01387153
186	0xbcffb456	-0.03121392
187	0xbd0a2492	-0.033726282
188	0x3d567914	0.052361563
189	0xbce22566	-0.027605724
190	0x3bbb7f46	0.0057219593
191	0xbd6ab307	-0.05729964
192	0x3b9a824e	0.0047152406
193	0x3c15484a	0.009111473
194	0x3e02f4c7	0.12788688
195	0x3b764d7b	0.0037582803
196	0x3c786aaf	0.015162154
197	0xbcaf0b5c	-0.021367721
198	0xbcf3d81c	-0.029766135
199	0xbc4747b7	-0.012163094
200	0x3d5a54ec	0.053303644
201	0xbc8822cd	-0.016618157
202	0x3ce6c6fb	0.028171053
203	0x3d03db08	0.032191306
204	0x3d233a20	0.039850354
205	0xbd345b59	-0.04403243
206	0xbb6bbf6b	-0.0035972248
207	0xb9c070a1	-0.0003670501
208	0x3c05832c	0.00814895
209	0xbbbca59a	-0.005757046
210	0x3c21b032	0.009868668
211	0x3ce09335	0.027413944
212	0xbcc74a50	-0.024327427
213	0x3d3279aa	0.04357306
214	0x3d27209c	0.040802583
215	0x3ab59bd8	0.0013855649
216	0xbb9c79c4	-0.004775258
217	0x3d3c9373	0.046039056
218	0x3c542b3b	0.01294976
219	0xbd350cd4	-0.044201687
220	0xbcd7276a	-0.026263911
221	0x3c1f35a6	0.009717381
222	0xbd195dc4	-0.037442937
223	0xbbfc7472	-0.007704311
224	0x3dd9e423	0.10639217
225	0x3c4a8f0b	0.012363206
226	0xbc053d7a	-0.008132333
227	0xbd38666d	-0.045019556
228	0x3c24c567	0.01005683
229	0xbc245f6d	-0.010032517
230	0xbabae3f7	-0.0014258613
231	0x3cfe300f	0.031028775
232	0xbccda94b	-0.02510514
233	0xbd9bba45	-0.076038875
234	0x384d4dcb	4.894826e-05
235	0xbd1a13aa	-0.03761641
236	0xbc0010dd	-0.0078165205
237	0x3d7142a8	0.05890146
238	0x3c29d252	0.010365086
239	0x3cfa18bd	0.030529374
240	0xbcbb1ab4	-0.022839881
241	0xbc936b13	-0.017995393
242	0xbcd28438	-0.025697812
243	0x3c32de15	0.010917206
244	0xbc38bcdc	-0.011275496
245	0x3d114c78	0.035473317
246	0xbdd2b7d8	-0.10288972
247	0xbcee2000	-0.029067993
248	0xbd02c93b	-0.03193019
249	0x3d6eea4d	0.058328915
250	0xbcc11f93	-0.023574626
251	0x3d096630	0.03354472
252	0xbd06241b	-0.032749277
253	0x3c3c9966	0.011511182
254	0xbbafb87d	-0.005362569
255	0xbcaf8f04	-0.0214305
