outputs/ragnopiccolo_progressive_2_model.pt (torch, 59138 bytes, 3 tensors)

brain.0.weight f4 [128, 48, 1, 1]
0	0xbe06f50a	-0.13179412
1	0x3ccf6a5b	0.025319269
2	0xbc4d5691	-0.012532846
3	0x390dd6e2	0.00013526858
4	0xbdb70ad9	-0.08937616
5	0x3d3a271d	0.045447458
6	0xbe49a807	-0.19693004
7	0x3d29a37d	0.04141568
8	0x3d2bfa51	0.041986767
9	0xbd92f22a	-0.071750954
10	0x3d885311	0.06656469
11	0xbd439553	-0.04774983
12	0x3d891dd2	0.06695141
13	0xbdb646e9	-0.08900244
14	0x3d85654e	0.06513463
15	0x3d8ec5e9	0.06971342
16	0x3d4ef70a	0.050528564
17	0x3d527258	0.051378578
18	0xbe826f2c	-0.25475442
19	0x3cf09df7	0.029372199
20	0x3ad212ad	0.0016027294
21	0x3e6133f3	0.21992473
22	0x3d3a75b0	0.04552239
23	0x3e0460bb	0.12927525
24	0x3d984b17	0.07436197
25	0x3d9cef38	0.07662815
26	0x3df83f16	0.12121408
27	0xbdf7150b	-0.120645605
28	0xbd0fc71c	-0.035101995
29	0x3cd4f7ed	0.025997126
30	0xbe211bea	-0.15733305
31	0xbdabbf61	-0.08386112
32	0x3dd7110b	0.105012976
33	0x3e061b58	0.13096368
34	0x3daadd23	0.0834296
35	0xbe22a02f	-0.15881418
36	0x3e929af7	0.28633854
37	0xbdf9f17c	-0.122042626
38	0xbd1141bd	-0.035463084
39	0x3a179454	0.00057822955
40	0xbc96968c	-0.018382333
41	0x3e6e6df3	0.2328413
42	0xbe9a7c57	-0.3017299
43	0x3b84cc4b	0.004052674
44	0xbbd36aea	-0.006451954
45	0xbdfa9509	-0.122354575
46	0x3d6ffc95	0.05859049
47	0xbdbbaac4	-0.0916343
48	0xbd5cd7e2	-0.05391682
49	0xbc66aa8a	-0.014078746
50	0x3d06da21	0.032922868
51	0xbe0a151f	-0.1348462
52	0x3dfd14ba	0.12357469
53	0xbd7a038d	-0.061038543
54	0xbe8c468e	-0.2739758
55	0x3d822d5b	0.06356307
56	0x3d9307d9	0.07179231
57	0xbe4fe0ea	-0.20300642
58	0xbd85112b	-0.06497415
59	0xbe214907	-0.15750514
60	0xbd635acc	-0.055506513
61	0x3cfcbe65	0.030852506
62	0xbda2989e	-0.07939266
63	0xbebdd109	-0.37073544
64	0x3d241df4	0.040067628
65	0xbc17699f	-0.009241491
66	0x3e964edf	0.2935705
67	0xbc8eb5a4	-0.017420597
68	0x3d6ec4ec	0.058293268
69	0x3ef0a05f	0.46997353
70	0xbe80e55d	-0.2517499
71	0x3d93e161	0.07220722
72	0xbe1addd7	-0.15123688
73	0xba995414	-0.0011698031
74	0x3de57386	0.11203675
75	0xbeb4dc2b	-0.35324225
76	0x3e1cc943	0.1531115
77	0x3d7164dd	0.05893408
78	0xbe3d09fd	-0.18460841
79	0x3dc69fd8	0.096984565
80	0xbddc2662	-0.107495084
81	0xbd331726	-0.043723248
82	0xbbf0a070	-0.0073433444
83	0x3c010e3a	0.007876927
84	0x3e6dd58c	0.23225993
85	0x3df46af5	0.11934463
86	0x3d94eda3	0.07271888
87	0xbd8f43c9	-0.06995351
88	0xbde23de2	-0.110469595
89	0x3d48bc46	0.049007677
90	0xbe9bab25	-0.3040401
91	0x3d58513a	0.05281184
92	0x3e19e58a	0.15028968
93	0x3e87a3ec	0.2649225
94	0xbcc2bbf1	-0.023771258
95	0x3d2c2bf5	0.04203411
96	0xbeb01d25	-0.34397236
97	0x3d3f90cc	0.04676895
98	0xbb204294	-0.0024453746
99	0xbe93242e	-0.2873854
100	0x3d03101a	0.031997778
101	0xbc794cd1	-0.015216068
102	0xbe8b5236	-0.2721116
103	0xbbb40416	-0.005493651
104	0x3d21deda	0.03951917
105	0x3dbae078	0.09124845
106	0x3dba18ac	0.09086737
107	0xbd9f4bb7	-0.07778113
108	0x3e5104eb	0.20412032
109	0x3ca90897	0.020633979
110	0xbdcae419	-0.099067874
111	0xbddbef3d	-0.107389905
112	0xbc9e8f8d	-0.01935556
113	0xbc301b8f	-0.010748758
114	0x3e4afb2f	0.19822381
115	0xbd9d8299	-0.07690925
116	0xbd261dc3	-0.040555727
117	0xbdd25427	-0.10269957
118	0x3d623b25	0.055232186
119	0xbcf189bc	-0.029484622
120	0x3dd8abf3	0.10579672
121	0x3d6aa6cb	0.057287972
122	0xbd0436e5	-0.032278914
123	0x3e38e0e8	0.18054545
124	0xbd938916	-0.072038814
125	0xbc2ab506	-0.010419136
126	0xbe22800e	-0.15869161
127	0xbe1eb194	-0.15497428
128	0x3d827970	0.063708186
129	0x3d247c85	0.040157814
130	0x3b7fa863	0.0039010278
131	0x3b8dec29	0.004331131
132	0xbe6fb66a	-0.23409429
133	0x3af402f6	0.0018616605
134	0x3e0f8ce2	0.14018586
135	0x3e29aaaa	0.1656901
136	0xbb8be823	-0.004269616
137	0xbd1259eb	-0.035730284
138	0x3dbdb21c	0.09262487
139	0xbc073a16	-0.008253595
140	0x3d323afb	0.04351328
141	0x3ddc8cfc	0.10769078
142	0xbdc18624	-0.094494134
143	0xbcbc149e	-0.02295905
144	0xbe2864b9	-0.16444673
145	0x3c377e49	0.011199542
146	0x3d460a4c	0.048349664
147	0xbe2288e7	-0.15872537
148	0xbdff8bc1	-0.12477828
149	0xbd4c7bab	-0.049922626
150	0xbd8a29c8	-0.067462504
151	0xbd0422e1	-0.032259826
152	0x3e02f244	0.1278773
153	0xbe851346	-0.25991267
154	0xbd76a713	-0.06021793
155	0xbd1aabc8	-0.03776148
156	0x3d8d128c	0.06888303
157	0x3af397fc	0.0018584724
158	0x3da86c15	0.0822374
159	0x3d4fa1b6	0.05069133
160	0x3d409475	0.04701658
161	0xbd47a178	-0.048737973
162	0x3dbefb16	0.093252346
163	0xbd4186c9	-0.04724768
164	0xbd0773ee	-0.033069544
165	0xbc9852f4	-0.018594243
166	0xbe0ba7c5	-0.13638218
167	0x3b9e1625	0.004824417
168	0xbea8455d	-0.3286542
169	0xbd263ed4	-0.04058726
170	0x3d75811c	0.05993758
171	0x3e9c1ef8	0.30492377
172	0x3d707f05	0.058714885
173	0xbe25b06d	-0.16180582
174	0xbc2cb0a4	-0.010540161
175	0xbddf6a89	-0.10908992
176	0xbd26e726	-0.040747784
177	0x3d44d2be	0.048052542
178	0xbde1d330	-0.11026609
179	0xbc92a9d5	-0.017903248
180	0x3ec5a8ce	0.3860535
181	0x3dbb128d	0.09134398
182	0xbd293e03	-0.041318905
183	0x3b68f132	0.0035544154
184	0x3d451ae6	0.048121355
185	0x3e429f1f	0.19006012
186	0xbd57a708	-0.052649528
187	0xbd32ddca	-0.043668546
188	0x3dd32eac	0.10311636
189	0x3df441f3	0.11926641
190	0xbe1d0937	-0.15335546
191	0x3d52c02e	0.051452808
192	0xbda7aeeb	-0.0818766
193	0x3d20deb5	0.03927489
194	0xbe09d0b3	-0.13458519
195	0xbe6bdfed	-0.2303464
196	0xbc3931aa	-0.011303345
197	0x3dce4523	0.100717805
198	0xbe8eef72	-0.27917057
199	0x3ba4c18a	0.0050279545
200	0x3d5ad240	0.053423166
201	0xbd28abc3	-0.04117943
202	0x3d81d4de	0.06339429
203	0x3dabee3d	0.0839505
204	0x3df12ee8	0.11776525
205	0xbe070c72	-0.13188341
206	0xbd836286	-0.06415276
207	0x3e2d7cd0	0.16942143
208	0xbe584d95	-0.21123345
209	0x3c4ce8ed	0.012506706
210	0xbce5ca70	-0.028050631
211	0xbcc2d031	-0.023780914
212	0x3d74c1ab	0.05975501
213	0x3e08df89	0.13366522
214	0xbe186fe4	-0.14886433
215	0xbcc9f5b9	-0.024653303
216	0xbe1846ca	-0.14870754
217	0xbd91517d	-0.07095621
218	0xbe0e71c9	-0.13910593
219	0xbe6cc863	-0.23123316
220	0x3e25cc0a	0.16191116
221	0x3d56f857	0.05248293
222	0xbe7cfe74	-0.24706441
223	0xbe1e046e	-0.15431377
224	0xbca2d794	-0.019878186
225	0xbc309520	-0.010777742
226	0x3bffc96e	0.0078059947
227	0xbc663a34	-0.014051963
228	0x3e175f8c	0.14782542
229	0xbe4a89a8	-0.19779074
230	0x3c901cd4	0.017591871
231	0xbe97e7fe	-0.29669183
232	0xbdcd8024	-0.100342065
233	0x3d29e775	0.0414805
234	0xbd7a7cf0	-0.061154306
235	0xbdebfaf0	-0.11522472
236	0x3dbdb6c9	0.09263379
237	0x3de1f935	0.110338606
238	0xbc67ded7	-0.01415225
239	0x3d9d8eab	0.076932274
240	0xbe964250	-0.29347467
241	0xbd5a5803	-0.05330659
242	0x3ca49e54	0.020095028
243	0x3d9d3739	0.076765485
244	0x3d88ba26	0.0667613
245	0xbd97fd72	-0.07421388
246	0x3dccf5a6	0.10007791
247	0x3d723ca9	0.05913988
248	0xbd4431e4	-0.047899142
249	0xbe5889bd	-0.21146293
250	0xbd5c0da1	-0.053723935
251	0x3db54d5f	0.08852648
252	0x3e4c7062	0.19964746
253	0xbb4e34ed	-0.0031464652
254	0xbd6f614f	-0.05844241
255	0x3db3b1bf	0.08774137

brain.0.bias f4 [128]
0	0xba598bf6	-0.0008298749
1	0x3a8cbc77	0.0010737319
2	0x3c21c179	0.009872788
3	0xbdcabcad	-0.09899268
4	0xbde7da72	-0.11320962
5	0x3a25c53d	0.0006323641
6	0xbc532178	-0.012886398
7	0xbe362c14	-0.17790252
8	0xbcc60283	-0.02417112
9	0x3d497f3b	0.049193602
10	0xbc9b6f3a	-0.018973935
11	0xbd1545a9	-0.036443386
12	0xbd272f83	-0.040816795
13	0x3d326d4b	0.04356126
14	0xbd05f72e	-0.032706432
15	0x3b5664f4	0.0032713981
16	0xbdc84b33	-0.09779968
17	0x3d611b76	0.05495783
18	0x3c0f5c70	0.008750066
19	0xbe53008b	-0.20605676
20	0x3bc27d57	0.005935352
21	0x3c96922e	0.01838025
22	0x3d43f72c	0.047843143
23	0x3cc0fee7	0.023559047
24	0xbcf8dffd	-0.030380243
25	0xbdf0aee9	-0.117521115
26	0xbe2866c0	-0.16445446
27	0xbe94f2f8	-0.2909162
28	0x3b725d72	0.0036981967
29	0xbd44ca40	-0.048044443
30	0xbdd139e7	-0.10216122
31	0xbe8fc268	-0.28078008
32	0x3d547a52	0.051874466
33	0xbe73377b	-0.23751633
34	0xbbee0f99	-0.007265043
35	0x3d405712	0.046958037
36	0xba533de5	-0.0008058234
37	0x3c8ea908	0.017414585
38	0x3c5f64c4	0.013634864
39	0xbbdef401	-0.00680399
40	0xbd25ddeb	-0.04049484
41	0x3c4ba132	0.012428569
42	0x3cde70d6	0.027153414
43	0xbeb9d9d5	-0.36299005
44	0x3d089ae4	0.03335084
45	0x3d618fc1	0.055068735
46	0xbd4c8848	-0.049934655
47	0xbc41a354	-0.011818726
48	0xbe6b94e9	-0.23006023
49	0xbbf51bdd	-0.007480128
50	0xbddefcd5	-0.10888068
51	0xbd038323	-0.032107484
52	0x3b6c37ad	0.0036043928
53	0x3b9272a7	0.004469234
54	0xbdceb3d5	-0.10092894
55	0xbdde83b6	-0.108649656
56	0x3c44acaf	0.012004062
57	0xbdaa9624	-0.08329418
58	0xbce728a5	-0.028217623
59	0xbe624dff	-0.22100066
60	0xbe3434ca	-0.17598262
61	0xbd25739e	-0.040393464
62	0xbae58348	-0.0017510438
63	0xbeeba5b6	-0.46024865
64	0xbda088f7	-0.07838624
65	0x3cc7a664	0.024371333
66	0x3b5bf729	0.0033564067
67	0xbd23f344	-0.040026918
68	0x3c9a70b5	0.018852571
69	0x3c53b009	0.012920388
70	0xbe7d5017	-0.24737583
71	0x3cc17ad3	0.023618137
72	0x3bd491e3	0.0064871176
73	0x3cf1e0f9	0.02952622
74	0xba685984	-0.00088634365
75	0xbd9664d0	-0.07343447
76	0xbbfa4bb9	-0.0076384214
77	0xbc296490	-0.010338917
78	0xbe45446a	-0.19264379
79	0x3bceb5a1	0.006308273
80	0xbb2b4dd6	-0.0026138923
81	0x3ac36c8c	0.0014909669
82	0x3b99d76a	0.004694869
83	0xbe54af42	-0.2076998
84	0xbe905ae7	-0.28194353
85	0x3b78a988	0.0037942845
86	0x3d311c28	0.043239743
87	0x3c204fcc	0.00978465
88	0x3d840cbe	0.06447743
89	0x3d0e802a	0.034790196
90	0xbe8e5018	-0.27795482
91	0xbe30158d	-0.17195721
92	0x3b6b7873	0.0035929948
93	0x3d3535ae	0.044240646
94	0xbd6d7bc4	-0.05797936
95	0xbda2a7bd	-0.0794215
96	0xbd6ef77b	-0.058341485
97	0x3cfb6661	0.030688467
98	0x3d019df1	0.031644765
99	0xbcf0f348	-0.02941288
100	0xbe2bd78e	-0.16781446
101	0xbe0f9965	-0.14023359
102	0xbe600d7e	-0.21880147
103	0xbed93ba2	-0.4242831
104	0xbd8b2933	-0.067949675
105	0xbb8e44bc	-0.00434169
106	0xbcd5e960	-0.026112258
107	0x3a319e42	0.00067755964
108	0xbe76aed9	-0.24090137
109	0x3c129477	0.00894653
110	0x3d4cbe85	0.04998638
111	0xbd40dd9e	-0.04708635
112	0xbe0bb99b	-0.13645022
113	0xbb73b292	-0.0037185294
114	0xbd890443	-0.06690266
115	0xbdf006b5	-0.11720029
116	0xbdccde6e	-0.100033626
117	0xbe4b7566	-0.19869003
118	0xbea48e9a	-0.32140046
119	0xbe0953ed	-0.13410921
120	0xbe538bf7	-0.20658861
121	0xbde0a45b	-0.10968848
122	0xbc6f7a72	-0.014616596
123	0xbe713ab0	-0.23557544
124	0x3cd5eda8	0.0261143
125	0xbe71848e	-0.23585722
126	0xba9f7178	-0.0012164554
127	0x3cb0e044	0.021591313

brain.2.weight f4 [16, 128, 1, 1]
0	0xbbc6c9e0	-0.006066546
1	0x3db05172	0.086092845
2	0x3da467bf	0.080276005
3	0x3d813104	0.06308177
4	0xbb708a3f	-0.0036703495
5	0x3d8db19f	0.06918644
6	0x3d4d95ec	0.050191805
7	0xbdf772fa	-0.12082477
8	0xbcf3adcd	-0.02974596
9	0x3dec13d4	0.115272194
10	0x3c107277	0.008816353
11	0x3d06afcf	0.032882508
12	0xbaf0019d	-0.0018311028
13	0x3d71f6aa	0.059073128
14	0xba561144	-0.0008166025
15	0x3db264e7	0.08710652
16	0xbda4b7d4	-0.08042875
17	0x3cbe3331	0.02321777
18	0xbd3948a7	-0.045235302
19	0xbd08d90a	-0.03341011
20	0x3ca2dad9	0.019879745
21	0x3d14af25	0.036299843
22	0xbcb595cc	-0.022166155
23	0x3d5882c4	0.052859083
24	0x3d9634b8	0.07334274
25	0xbc5258da	-0.012838567
26	0xbdb49512	-0.088174954
27	0xbd1d3ac0	-0.038386106
28	0x3cfe14e1	0.031015815
29	0xbd859b56	-0.065237686
30	0xbb8160c8	-0.003948305
31	0xbd365a9a	-0.044519998
32	0x3cdeee1d	0.02721315
33	0xbdcac882	-0.09901525
34	0xbc7ebf1b	-0.015548493
35	0xbdcc0d72	-0.09963502
36	0x3db446b3	0.08802547
37	0x3d8ffa19	0.07030124
38	0x3d636515	0.05551632
39	0xbd0f31c4	-0.03495957
40	0x3d861504	0.06546977
41	0xbd857728	-0.06516868
42	0x3d5b4926	0.053536557
43	0xbdb056a5	-0.08610276
44	0x3d952da0	0.07284093
45	0x3dbb586b	0.09147724
46	0xbd34c167	-0.044129755
47	0xb98fddda	-0.00027440378
48	0xbe1ac3e9	-0.15113796
49	0x3ddc6c95	0.10762898
50	0x3da43664	0.08018187
51	0xbb48fcd1	-0.0030668268
52	0x3c7f44bb	0.015580351
53	0x3c16921b	0.009190108
54	0x3dd822f2	0.1055354
55	0x3e0a406a	0.13501135
56	0x3d0e2ab6	0.0347087
57	0xbd4c5ad7	-0.04989132
58	0xbbddd6c7	-0.006769988
59	0xbd4bb128	-0.049729496
60	0x3e43e54f	0.19130443
61	0xbcc9118e	-0.024544504
62	0x3d07e065	0.033172984
63	0xbe726bce	-0.23673937
64	0xbbecc7ac	-0.007225951
65	0xbc31232c	-0.010811608
66	0x3e2ab5cd	0.16670914
67	0x39ff1587	0.0004865343
68	0x3e14350a	0.14473358
69	0x3cecc213	0.028901136
70	0xbd976a11	-0.073932774
71	0x3ba434a7	0.0050111595
72	0x3d82d04c	0.06387386
73	0xbd9972eb	-0.07492622
74	0x3c641f15	0.013923426
75	0x3d881d28	0.06646186
76	0x3c963aa0	0.018338501
77	0xbc615aa8	-0.013754524
78	0x3dcda501	0.100412376
79	0xbca8f41d	-0.020624215
80	0xbd2281af	-0.039674457
81	0x3d031544	0.032002702
82	0xbd3e1344	-0.046405092
83	0xbd517437	-0.05113622
84	0xbc4c8a7a	-0.012484187
85	0x3cb2c4b3	0.02182231
86	0x3c5728a9	0.013132253
87	0x3d9c8fb4	0.07644597
88	0xbd481fb3	-0.048858356
89	0x3d332dfa	0.04374502
90	0x3a8cda00	0.0010746121
91	0xbdf2a7ab	-0.118483864
92	0xbcc60282	-0.024171118
93	0x3d47e436	0.048801623
94	0x3dd53121	0.10409761
95	0xbc6d21df	-0.0144734075
96	0x3e15b792	0.14620808
97	0xbbd4c28d	-0.006492919
98	0x3c8b6377	0.017015202
99	0x3d56a9d0	0.05240804
100	0x3b0a679b	0.0021118883
101	0xbd2f9243	-0.042864095
102	0xbcd83ee1	-0.02639717
103	0xbe1664c4	-0.14686877
104	0x3e2a192e	0.16611168
105	0x3e2aefda	0.16693059
106	0x3c80777e	0.015681978
107	0x3d9136b7	0.07090514
108	0xbcfd294b	-0.03090348
109	0x3e06aa17	0.13150822
110	0x3ca0216a	0.019547183
111	0x3da360c2	0.079774395
112	0xbc8ef319	-0.017449902
113	0xbc5183c9	-0.012787768
114	0x3aac26f7	0.0013134171
115	0xbdcc0691	-0.0996219
116	0xbd9e5b94	-0.07732311
117	0xbd9bc0fb	-0.076051675
118	0xbd13f4c7	-0.03612211
119	0xbd9c45c7	-0.076304965
120	0xbd345d69	-0.044034395
121	0x3daff25a	0.08591147
122	0x3bdc6df7	0.006726976
123	0xbdc98285	-0.09839348
124	0x3e185522	0.14876226
125	0x3b71fc06	0.00369239
126	0x3d419a9c	0.047266588
127	0x3e828c8d	0.25497857
128	0x3cc25272	0.023720954
129	0x3e0e34da	0.13887349
130	0x3d3ea267	0.046541598
131	0x3dabf22d	0.08395801
132	0xbaa88778	-0.0012857756
133	0xbccd29cd	-0.025044346
134	0xbca48e7f	-0.020087479
135	0xbd35e6d4	-0.044409588
136	0xbc25e34d	-0.0101249935
137	0xbc192766	-0.009347772
138	0xbc97315f	-0.01845616
139	0x3d9d8bf1	0.07692707
140	0xbce22f33	-0.027610397
141	0xbb5daa5a	-0.0033823461
142	0x3cd8963e	0.026438829
143	0x3b3cc787	0.002880545
144	0xbd425c22	-0.047451146
145	0xbd049831	-0.032371704
146	0xbc81a531	-0.01582584
147	0x3c9e4326	0.019319128
148	0x3cb1d577	0.021708233
149	0x3d1bfe7d	0.038084496
150	0x3c8a7c4b	0.01690497
151	0x3c21427f	0.009842514
152	0x3da1e190	0.07904351
153	0x3d6310fc	0.05543612
154	0xbd9cb828	-0.076523125
155	0x3c8d1e1e	0.017226275
156	0x3d404dbd	0.046949137
157	0xbd010e80	-0.03150797
158	0x3cf63989	0.030056732
159	0x3d86e3f6	0.06586449
160	0xbc2aa702	-0.010415794
161	0xbd1810a0	-0.03712523
162	0x3c52f81e	0.012876539
163	0xbda0c98a	-0.078509405
164	0x3e17801e	0.14794967
165	0xbc289564	-0.010289524
166	0x3c8da2b4	0.017289497
167	0x3d717442	0.058948763
168	0x3d89a0db	0.06720134
169	0xbd6de0b0	-0.058075607
170	0x3cf6d120	0.030129015
171	0xbcb7e4f6	-0.022448044
172	0x3e023e90	0.12719178
173	0x3d9cd57d	0.07657907
174	0xbc6a6605	-0.01430655
175	0x3d71eb1b	0.059062105
176	0x3dd0e2ba	0.10199495
177	0x3d2e8cc7	0.042614724
178	0x3db59656	0.08866565
179	0x3cd5b9ad	0.026089514
180	0x3c79a7a7	0.015237725
181	0xbb16d388	-0.0023014266
182	0x3e3b8986	0.1831418
183	0x3cafca0e	0.021458652
184	0x3d27a301	0.040926937
185	0x3d10a057	0.035309162
186	0xbc4a1187	-0.01233328
187	0xbd30c866	-0.043159865
188	0x3e4af278	0.19819057
189	0xbd580152	-0.052735634
190	0x3c8f11f3	0.017464614
191	0xbd1b7cae	-0.0379607
192	0x3bb4aa23	0.005513446
193	0xbd42d8f8	-0.0475702
194	0x3e54bfa0	0.20776224
195	0xbcbf3859	-0.023342298
196	0x3cb4559d	0.02201348
197	0xbbffd019	-0.0078067896
198	0xbbee4693	-0.0072715967
199	0x3cb7ec3e	0.022451516
200	0xbc3baa88	-0.011454232
201	0xbd249680	-0.04018259
202	0x3dd32787	0.103102736
203	0x3c0ab81a	0.008466745
204	0x3d8b2eda	0.067960456
205	0xbcba165c	-0.02271574
206	0xbb9fb4f6	-0.004873867
207	0xbc8ae360	-0.016954124
208	0xbd3d674f	-0.0462411
209	0x3a94206f	0.001130117
210	0xbb8dbff4	-0.004325861
211	0x3d535fb9	0.05160496
212	0xbda1d57f	-0.07902049
213	0x3b487322	0.0030586203
214	0x3d0ce3d7	0.034396973
215	0xbcf7e918	-0.030262515
216	0xbc1ee64e	-0.009698464
217	0xb9947601	-0.0002831668
218	0x3d32d491	0.04365975
219	0xbd2cd2de	-0.042193286
220	0xbdb1f5a8	-0.08689433
221	0x3b3acd30	0.002850365
222	0xbd5aa484	-0.05337955
223	0xbd23be46	-0.03997638
224	0x3e4933f1	0.1964872
225	0x3d184471	0.037174646
226	0x3ca89385	0.020578155
227	0x3d455697	0.04817828
228	0x3c2d3558	0.0105718
229	0xbc114ab6	-0.00886791
230	0x3bc053de	0.0058693727
231	0x3d179032	0.03700275
232	0xbd2e962a	-0.042623676
233	0xbdd61788	-0.10453707
234	0xbad484a4	-0.0016213846
235	0xbc9052b6	-0.017617565
236	0x3c88ee37	0.016715152
237	0x3cc5b844	0.024135716
238	0x3b199765	0.0023436185
239	0x3b973a62	0.004615114
240	0xbcb96880	-0.022632837
241	0xbcb38ae8	-0.021916822
242	0xbbda043a	-0.006653336
243	0x3ce5c493	0.028047835
244	0xbddd2871	-0.10798729
245	0x3d8e2839	0.069412656
246	0xbe305d3b	-0.17223065
247	0x3c96f769	0.018428521
248	0xbcea72a7	-0.028619124
249	0x3c3b3f99	0.011428737
250	0xbce86eed	-0.028373206
251	0xbc923360	-0.017846763
252	0xbd605322	-0.05476678
253	0x3cdf6a92	0.027272496
254	0xbcd3b395	-0.025842467
255	0xbdb81589	-0.089884825
