outputs/ragnopieno_progressive_model.pt (torch, 47390 bytes, 3 tensors)

brain.0.weight f4 [128, 48, 1, 1]
0	0x3ba5cb24	0.0050596166
1	0x3d071af4	0.03298469
2	0xbd82e514	-0.063913494
3	0xbcb06917	-0.021534486
4	0xbd8cf2a0	-0.068822145
5	0xbd7328c0	-0.059365034
6	0xbd02fb3f	-0.03197789
7	0x3e02204e	0.12707636
8	0xbdcebca5	-0.10094575
9	0xbdbea6c9	-0.093091555
10	0x3d92c745	0.07166914
11	0x3de4db1c	0.11174604
12	0x3d67570d	0.056479502
13	0xbd93dc80	-0.072197914
14	0x3b7a6bd6	0.0038211248
15	0x3e8a8458	0.27054095
16	0x3d082e7e	0.033247463
17	0xbcc7eba2	-0.02440435
18	0xbd45fb29	-0.048335228
19	0x3cb59348	0.022164956
20	0x3cb9f821	0.022701325
21	0xbe1b4147	-0.1516162
22	0xbc3dd602	-0.011586668
23	0x3c0ae0c9	0.0084764445
24	0xbda6be9a	-0.08141823
25	0x3d8c3ce2	0.0684755
26	0x3de76257	0.11298054
27	0xbea9fa9a	-0.33199006
28	0xbdcd9f30	-0.10040128
29	0xbe063954	-0.13107806
30	0x3cff0378	0.031129584
31	0xbcd7c038	-0.026336774
32	0x3c571a13	0.013128775
33	0xbe866179	-0.2624624
34	0xbe1125a0	-0.14174509
35	0xbcab830c	-0.020936511
36	0x3e7ecd4f	0.24883007
37	0x3d2f421b	0.042787652
38	0xbd93985b	-0.07206794
39	0x3dc1919b	0.094516
40	0xbd0a1315	-0.033709604
41	0xbd4b1f35	-0.04959031
42	0xbddba9ab	-0.10725721
43	0xbd307882	-0.043083675
44	0x3cd88cb4	0.02643428
45	0x3c759b09	0.014990577
46	0xbddb9c54	-0.107231766
47	0xbd90cdce	-0.07070504
48	0xbe3392f4	-0.17536527
49	0xbd8f0572	-0.069834605
50	0x3b779bba	0.003778203
51	0x3d9fc562	0.0780132
52	0xbe14f906	-0.1454812
53	0x3d2dd419	0.0424386
54	0xbbc162b0	-0.005901657
55	0x3d6b1fb1	0.05740327
56	0x3dc09043	0.09402516
57	0xbd582b7d	-0.05277585
58	0xbcf3f1af	-0.02977833
59	0x3ca5a5b6	0.020220619
60	0xbe4342f1	-0.19068505
61	0x3dafd9a6	0.08586435
62	0xbd9899b3	-0.07451191
63	0xbe35fafc	-0.17771524
64	0xbcbd9277	-0.023141129
65	0xbb97f9ec	-0.0046379473
66	0xbe0a9579	-0.13533582
67	0xbdb1c87d	-0.08680818
68	0xbc851015	-0.01624302
69	0xbebb1bd3	-0.36544666
70	0x3cb47fa7	0.022033526
71	0x3ddab002	0.10678102
72	0xbde93b38	-0.11388248
73	0xbdc94b9d	-0.09828875
74	0x3c56ae59	0.013103091
75	0xbd80bef3	-0.06286421
76	0xbd709a3a	-0.058740832
77	0xbdc3128f	-0.09525024
78	0x3dd6f2ec	0.104955524
79	0x3dfde183	0.123965286
80	0x3d8405a3	0.064463876
81	0x3cbd7799	0.023128318
82	0xbd4536b8	-0.048147887
83	0xbdcfbab8	-0.10143036
84	0xbbc05e41	-0.005870611
85	0x3cb683f4	0.022279717
86	0xbddeb709	-0.10874755
87	0x3eb116c7	0.3458769
88	0xbde6065b	-0.11231681
89	0xbcf0741d	-0.029352242
90	0x3eb16915	0.34650484
91	0x3da80156	0.0820338
92	0xbdcbb7dc	-0.09947178
93	0x3e6d9624	0.23201805
94	0x3cd5f8a2	0.026119534
95	0x3cbd1abb	0.023084035
96	0xbd3cca28	-0.04609123
97	0xbd4e4034	-0.050354198
98	0xbe017cb2	-0.12645224
99	0xbd60d048	-0.054886132
100	0x3cdcbfff	0.02694702
101	0x3c9a686d	0.018848622
102	0xbe3062a1	-0.17225124
103	0x3cda46a2	0.026645008
104	0x3dbbbb70	0.0916661
105	0xbd8dcca4	-0.06923798
106	0xbd951cdd	-0.07280896
107	0x3dc246a4	0.0948613
108	0x3e8ab785	0.2709314
109	0xbd92d2e3	-0.0716913
110	0x3deb3325	0.114843644
111	0x3cb6702a	0.02227028
112	0x3d67f4b3	0.056629848
113	0x3e1a75b9	0.1508397
114	0x3d99de88	0.075131476
115	0xbdfadc57	-0.12249058
116	0x3d7ab424	0.06120695
117	0xbe8056a3	-0.250661
118	0x3d35096a	0.04419843
119	0x3df2d193	0.11856379
120	0xbe1f0d90	-0.15532517
121	0x3c38d9cc	0.011282396
122	0x3b99329a	0.0046752216
123	0xbe209a51	-0.15683867
124	0x3d8fda2a	0.07024033
125	0x3dc67216	0.09689729
126	0x3cdb052f	0.02673587
127	0xbdc3feb7	-0.095700674
128	0xbdbc3522	-0.09189822
129	0xbdec4064	-0.11535719
130	0xbb8a3240	-0.004217416
131	0x3daa38a7	0.08311587
132	0x3df0dad6	0.1176049
133	0xbe04328f	-0.12909912
134	0x3d1e13b9	0.038593028
135	0x3e1a0907	0.15042506
136	0xbc22e0af	-0.009941264
137	0x3da1bfa3	0.0789788
138	0x3e06eca4	0.13176209
139	0xbe3bf382	-0.1835461
140	0x3dcc604d	0.099793054
141	0xbcca3fdc	-0.024688654
142	0xbd0df182	-0.034654148
143	0xbdb792f4	-0.08963576
144	0xbe1f67d9	-0.15566958
145	0x3d879906	0.06620984
146	0xbd990d5b	-0.074732505
147	0x3bf59274	0.007494265
148	0xbda84c9b	-0.08217736
149	0x3da8b9eb	0.08238586
150	0xbe28f30f	-0.1649897
151	0x3d89f34b	0.067358576
152	0xbcb5ae75	-0.022177914
153	0xbe5f84ec	-0.2182805
154	0x3ced9ec5	0.029006371
155	0x3e0b7369	0.13618244
156	0xbd9ca62a	-0.07648881
157	0xbd7c8db8	-0.06165859
158	0x3df082d5	0.11743704
159	0x3da5385a	0.08067389
160	0x3db1dcd9	0.086847015
161	0x3cfa8136	0.03057919
162	0x3e2e1cae	0.17003128
163	0xbdb24339	-0.08704228
164	0x3d55be56	0.05218347
165	0xbd257e86	-0.040403865
166	0x3daf9a13	0.08574309
167	0x3d8b004d	0.06787167
168	0xbe937500	-0.288002
169	0x3cc00856	0.023441475
170	0x3d8edaed	0.069753505
171	0xbc98090c	-0.018559001
172	0xbd9c5eed	-0.07635293
173	0x3d937026	0.07199125
174	0xbc8fad2b	-0.017538628
175	0x3c11c6af	0.0088974675
176	0x3d7dfcbe	0.06200861
177	0x3d70457b	0.05866001
178	0xbd842bcb	-0.06453665
179	0xbe31d655	-0.17366917
180	0xbcd82858	-0.026386425
181	0x3c1e3dff	0.009658336
182	0x3e052d4d	0.13005562
183	0xbdcaabec	-0.09896073
184	0xbcb34ac9	-0.021886246
185	0x3c539ed1	0.012916283
186	0x3d45432e	0.04815977
187	0xbce488c2	-0.027897242
188	0xbd3626f6	-0.04447075
189	0x3e7b883e	0.24563691
190	0xbe271593	-0.16316824
191	0x3d1fa515	0.038975794
192	0x3e405e45	0.18785961
193	0xbcb42a93	-0.021992957
194	0xbd637a1d	-0.05553638
195	0x3db2a1d6	0.08722274
196	0xbd06b3f0	-0.032886446
197	0xbd0fe1e1	-0.035127524
198	0x3e6ac325	0.22926004
199	0x3d8fed44	0.07027677
200	0xbd01a598	-0.031652063
201	0x3e0bbb5d	0.13645692
202	0x3d651099	0.055924032
203	0x3d2e9693	0.042624068
204	0xbd20e21a	-0.039278127
205	0x3d010e66	0.031507872
206	0x3cf1b2ad	0.029504145
207	0xbda7d745	-0.08195356
208	0x3d0a78af	0.0338065
209	0xbd3b9b79	-0.045802567
210	0xbe317f36	-0.17333683
211	0x3cb7ce2d	0.02243718
212	0x3d030d3c	0.031995043
213	0x3db983b3	0.09058323
214	0xbd3e5a4a	-0.046472825
215	0xbac4cce2	-0.0015014673
216	0xbd7f5298	-0.062334627
217	0xb9294438	-0.0001614251
218	0xbd2a8ab7	-0.041636195
219	0x3e0c51be	0.13703057
220	0x3d5aeff8	0.05345151
221	0x3c05aa21	0.008158238
222	0xbcd8997d	-0.026440376
223	0x3d0f15a0	0.034932733
224	0xbc38e5ba	-0.01128524
225	0xbda76b7a	-0.081747964
226	0xbd92b435	-0.07163278
227	0xbd8d36e8	-0.06895238
228	0x3da117b5	0.0786585
229	0xbd57c30e	-0.052676253
230	0xbbbec124	-0.005821364
231	0xbcb540f1	-0.022125693
232	0xbc1a7e0e	-0.009429468
233	0xbd4ed8dd	-0.050499786
234	0xbc0e28f1	-0.008676753
235	0x3cd87de6	0.02642722
236	0x3cbef0a2	0.023308102
237	0xbd83154f	-0.06400549
238	0xbc6ec8e9	-0.014574268
239	0xbd7861ea	-0.060640253
240	0xbdf83130	-0.12118757
241	0xbd6d9b15	-0.058009226
242	0xbdde4b29	-0.108541794
243	0xbda2073f	-0.07911538
244	0xbd981c5f	-0.07427286
245	0x3cffb4f9	0.031214224
246	0xbf04f880	-0.5194168
247	0xbd628900	-0.055306435
248	0x3cb49a0d	0.022046113
249	0xbe2e2b63	-0.17008738
250	0x3ded7280	0.11594105
251	0x3d7f9b5d	0.062404025
252	0xbcf0f3dd	-0.029413158
253	0x3db4dd44	0.088312656
254	0x3e1a84ba	0.15089694
255	0x3eb2c298	0.34914088

brain.0.bias f4 [128]
0	0x3d0a97be	0.03383612
1	0xbd5a196e	-0.053246908
2	0xbc91edda	-0.017813612
3	0x3a07fd3c	0.0005187576
4	0xbec0e805	-0.37677017
5	0x3d9e45c2	0.07728149
6	0xbde7aaf6	-0.11311905
7	0xbb57ee47	-0.003294842
8	0xbe6da13a	-0.23206034
9	0xbe5716b8	-0.2100476
10	0x3d1ab888	0.03777364
11	0x3d58eab1	0.052958194
12	0x3d66c5a0	0.056340814
13	0xbcd7bcae	-0.026335087
14	0x3d5e66d6	0.05429729
15	0xbe6a6e95	-0.22893746
16	0xbd37d044	-0.044876352
17	0x3d128cdb	0.03577886
18	0xbd625528	-0.055256993
19	0xbe0b7d48	-0.1362201
20	0x3c445fa8	0.011985697
21	0xbd309863	-0.043114077
22	0x3c9d1fe7	0.019180251
23	0xbd4a37f2	-0.04936976
24	0xbdb85658	-0.09000844
25	0x3d5fc3aa	0.05462996
26	0xbc9b8f03	-0.018989092
27	0x3dcee843	0.10102894
28	0xbe6f9c8e	-0.23399565
29	0x3ce3c899	0.027805613
30	0xbdb1574f	-0.08659231
31	0xbe0fe197	-0.140509
32	0xbe509419	-0.20368995
33	0x3d7d7b37	0.061885085
34	0x3d327196	0.043565355
35	0x3dac3106	0.08407788
36	0xbeb6ba23	-0.35688886
37	0xbe9bb6af	-0.30412814
38	0xbed61021	-0.4180918
39	0x3cd8f7a7	0.026485277
40	0xbd0ef621	-0.034902696
41	0x3dbd6c7d	0.09249208
42	0x3c622f81	0.013805271
43	0xbd4e4567	-0.050359156
44	0x3ceea4d3	0.029131329
45	0xbe9efaf4	-0.31050837
46	0xbc77a4b6	-0.015114954
47	0xbe377dee	-0.17919132
48	0x3d9a4a80	0.07533741
49	0x3e000bdd	0.12504525
50	0x3daa2f08	0.08309752
51	0xbdaa400b	-0.083129965
52	0x3d809aa0	0.062794924
53	0x3c220868	0.0098896995
54	0xbea42a01	-0.32063296
55	0x3d05c6d6	0.032660328
56	0x3dce0ddc	0.10061237
57	0xbd92609a	-0.071473315
58	0x3dd3ee19	0.10348148
59	0x3d453e05	0.04815485
60	0xbe0a4c7f	-0.13505743
61	0xbc3cd247	-0.011524743
62	0x3c56ab9a	0.013102436
63	0x3ce5c487	0.028047813
64	0xbe0d1e2f	-0.13781045
65	0xbe26d405	-0.16291817
66	0x3d261a1c	0.040552244
67	0xbdf679f9	-0.12034983
68	0x3d983b32	0.074331656
69	0xba0800e2	-0.000518812
70	0x3dfeefda	0.12448092
71	0x3c529c59	0.012854659
72	0x3a1d6fdf	0.0006005745
73	0xbe6aded3	-0.22936563
74	0x3cd02c4a	0.025411744
75	0x3d520fb4	0.051284507
76	0xbd0143db	-0.031558853
77	0xbd763ffd	-0.060119618
78	0x3c6f6735	0.014612009
79	0xbd0244ff	-0.03180408
80	0xbe43a90c	-0.19107455
81	0xbc0e33fc	-0.008679386
82	0xbd39a110	-0.045319617
83	0xbe8582eb	-0.26076445
84	0x3d2f37b2	0.042777725
85	0x3cbb4e6c	0.022864543
86	0x3c69a301	0.014260055
87	0xbe39c979	-0.18143262
88	0x3b596549	0.0033171943
89	0x3b07fc23	0.002074965
90	0x3d3ac3bb	0.04559682
91	0x3c3dd1c5	0.0115856575
92	0xbe4584bc	-0.19288915
93	0x3be7bae3	0.007071839
94	0x3ad1ed68	0.0016016187
95	0x3d3ce2eb	0.046114843
96	0x3cd02b1b	0.02541118
97	0xba6d75ce	-0.0009058387
98	0xbe7d0dda	-0.24712315
99	0x3e070c44	0.13188273
100	0xbcc62988	-0.024189726
101	0x3cc47b1f	0.02398449
102	0xbc9480a3	-0.018127745
103	0xbec3b31f	-0.38222596
104	0x3b9ec664	0.0048454273
105	0x3c3b3b35	0.01142769
106	0x3c335469	0.010945418
107	0xbdace76e	-0.08442579
108	0x3ce5f381	0.028070213
109	0x3d64de2e	0.05587595
110	0xbe43171e	-0.19051787
111	0xbc91f6ef	-0.017817942
112	0x3e0796eb	0.13241164
113	0xbde5ab56	-0.1121432
114	0x3d316e6c	0.043318197
115	0xbcf6469d	-0.030062968
116	0x3d400b2f	0.046885666
117	0xbd84209d	-0.06451533
118	0xbe8cce8e	-0.2750134
119	0x3d006272	0.031343885
120	0xbb71e3f0	-0.0036909543
121	0x3cff5fda	0.031173635
122	0x3c62ab63	0.013834807
123	0x3dc3d3b1	0.09561861
124	0x3dae26e9	0.08503515
125	0xbdd8871a	-0.105726436
126	0xbe80c150	-0.25147486
127	0xbe3a6b37	-0.18204962

brain.2.weight f4 [16, 128, 1, 1]
0	0x3b94b128	0.0045377202
1	0x3d217528	0.03941837
2	0x3bb2b727	0.0054539624
3	0xbca8fe49	-0.020629065
4	0xbe22e2a5	-0.1590677
5	0x3dca43f6	0.09876244
6	0xbd3ff66f	-0.046865877
7	0x3d5f8c99	0.054577444
8	0xbd8f0008	-0.06982428
9	0xbcae9089	-0.021309154
10	0x3db33e77	0.087521486
11	0xbca8d53d	-0.020609492
12	0x3cca90b5	0.024727205
13	0x3a967885	0.0011480009
14	0xbb147beb	-0.0022656869
15	0xbc6564b7	-0.014001063
16	0xbb4ed86f	-0.003156211
17	0x3d19af77	0.037520852
18	0xbd4c3f3e	-0.049865
19	0xbd86bd51	-0.06579078
20	0xbc9561c3	-0.018235093
21	0xbd167b10	-0.036738455
22	0xbc6d075b	-0.014467086
23	0xbc0939fe	-0.008375643
24	0xbd0a8cf9	-0.03382585
25	0x3da9a4c6	0.08283381
26	0x3ba95356	0.005167405
27	0x3db9ecdb	0.0907838
28	0xbd25771d	-0.0403968
29	0x3cebe94b	0.028797766
30	0x3d481062	0.04884375
31	0xbcd1517c	-0.02555155
32	0xbd81aad4	-0.06331411
33	0x3d135538	0.035969943
34	0x3d16c447	0.03680828
35	0x3da3c693	0.079968594
36	0xbde45ea2	-0.11150862
37	0xbe1cef89	-0.1532575
38	0xbc6ee7ca	-0.01458163
39	0x3d4033e8	0.0469245
40	0x3ddce315	0.107855
41	0x3d9e1a57	0.07719868
42	0x3d7a1783	0.06105758
43	0x3d4ea4f7	0.05045029
44	0xbd162ac2	-0.03666187
45	0xbd54ed94	-0.051984385
46	0x3c1a4b9e	0.009417443
47	0x3db848eb	0.08998283
48	0x3d8970d6	0.06710975
49	0x3d27ef65	0.04099979
50	0x3c76d48f	0.015065326
51	0xbca65203	-0.020302778
52	0xbbea7bd4	-0.0071558747
53	0xbd630c3a	-0.055431582
54	0xbde06e70	-0.10958564
55	0x3d2ea23e	0.042635195
56	0x3d2714a3	0.040791165
57	0xbd02d0fd	-0.031937588
58	0x3d715fd3	0.058929276
59	0x3d8b2a53	0.06795182
60	0xbd943669	-0.072369404
61	0xbc5eb90a	-0.013593921
62	0x3c5c809b	0.013458396
63	0x3ddd002c	0.107910484
64	0xbdd81309	-0.10550506
65	0xbd4ffe47	-0.050779607
66	0x3ccf84ab	0.025331816
67	0xbd6e3a2d	-0.05816095
68	0xbda28665	-0.0793579
69	0x3d3382ec	0.04382603
70	0xbc2c9f2f	-0.010535999
71	0xbbb6b359	-0.005575579
72	0x3d8333eb	0.06406387
73	0xbdcf5dea	-0.101253346
74	0x3ca273c3	0.01983059
75	0xbc1d4fab	-0.009601514
76	0xbb7537f9	-0.0037417396
77	0xbd02467b	-0.031805497
78	0xbc8afc37	-0.016965969
79	0xbc79a998	-0.015238188
80	0xbd1e70ec	-0.03868191
81	0x3c766230	0.015038058
82	0x3c8d1b5d	0.017224962
83	0xbdd95941	-0.10612727
84	0x3cced233	0.025246715
85	0x3a4cf3c4	0.00078183063
86	0x3c93cc7c	0.018041842
87	0xbd88c9ed	-0.06679139
88	0x3d854321	0.065069444
89	0x3dafa62e	0.08576618
90	0x3d75eaa8	0.06003824
91	0xbd2daf4f	-0.042403515
92	0xbd42a2f3	-0.04751868
93	0xbb2b5ca7	-0.0026147754
94	0x3d893253	0.06699052
95	0x3e142332	0.14466551
96	0x3bcacbc2	0.0061888406
97	0x3d9c7ff4	0.076415926
98	0xbd9c077b	-0.07618614
99	0x3e1423e4	0.14466816
100	0x3cb417b4	0.021983959
101	0x3d419e3f	0.047270056
102	0xbcea0ca5	-0.028570483
103	0xbe0b10e5	-0.13580664
104	0x3cc786a4	0.024356194
105	0x3c55690a	0.013025532
106	0x3dd02479	0.101632066
107	0xbd333c38	-0.0437586
108	0x3de3a6ea	0.11115821
109	0x3d456822	0.048195012
110	0xbcadd99c	-0.021221928
111	0x3ceaf95f	0.028683363
112	0x3d2a3e36	0.041563235
113	0xbcffde6b	-0.031233987
114	0x3c1b9368	0.009495594
115	0xbd64a5d3	-0.055822205
116	0x3d08bbe2	0.033382304
117	0x3c782267	0.015144921
118	0x3dca9f44	0.09893659
119	0x3d8ee20b	0.06976708
120	0x3c23b2b6	0.0099913385
121	0x3bf25b85	0.007396164
122	0x3c85855b	0.01629894
123	0xbd879fcc	-0.06622276
124	0xbc7acd49	-0.015307733
125	0xbd8ad44f	-0.06778776
126	0xbcf23f35	-0.029571155
127	0xbd5ed710	-0.05440432
128	0xbd115ceb	-0.035489004
129	0xbb3cf9c6	-0.00288354
130	0xb9e0083d	-0.00042730747
131	0xbd2a0586	-0.041509174
132	0xbda23895	-0.079209484
133	0x3d96d3f3	0.07364645
134	0xbc01818f	-0.007904424
135	0x3c34c795	0.011033912
136	0xbd5efe24	-0.054441586
137	0x3c97dd32	0.018538091
138	0x3d16ac62	0.03678549
139	0xbb42796a	-0.002967442
140	0xbd8fedab	-0.070277534
141	0xbcde1958	-0.027111694
142	0x3cd5d38c	0.02610185
143	0x3d8595a2	0.06522681
144	0x3c419414	0.01181509
145	0xba7b4d28	-0.00095863873
146	0x3d0ad59d	0.033895124
147	0xbd01044d	-0.031498242
148	0xbd3fdd21	-0.046841744
149	0xbd461635	-0.048361022
150	0x3bccb83c	0.0062475484
151	0xbcdc5d23	-0.02689988
152	0xbc622f47	-0.013805217
153	0x3c4f8e2c	0.012668174
154	0x3d2ea1fd	0.042634953
155	0x3e0d2690	0.13784242
156	0xbcffe53d	-0.031237239
157	0x3d6b6237	0.05746671
158	0x3d3dca6f	0.046335634
159	0x3c5d9ccd	0.013526154
160	0xbd8efeb0	-0.069821715
161	0xbd67d64a	-0.056600846
162	0x3b1dd2e7	0.0024082006
163	0x3d98353b	0.07432028
164	0xbd5a7c88	-0.05334142
165	0xbdda6bac	-0.10665068
166	0xbe01fe8b	-0.12694757
167	0xbb6380b8	-0.0034714174
168	0x3d513bf9	0.051082585
169	0x3bd16699	0.0063904044
170	0x3da5a5f9	0.080882974
171	0x3d0abec8	0.03387335
172	0xbd6917de	-0.056907527
173	0xbc90e67f	-0.017688034
174	0xba68ceb1	-0.0008880897
175	0x3d89da11	0.06731046
176	0x3d7034b6	0.05864402
177	0x3d1ff958	0.039056152
178	0x3d19e7d4	0.037574604
179	0xbced1c0c	-0.028944038
180	0xbc5a600d	-0.013328564
181	0xbd95bec0	-0.07311773
182	0xbc80f8e0	-0.015743673
183	0x3d82aa95	0.06380192
184	0x3d456a5a	0.048197128
185	0xbcc5c0c7	-0.024139775
186	0x3d1c205b	0.038116794
187	0xbd8cdc8e	-0.06878005
188	0xbc2a14db	-0.010380949
189	0xbcbcfeaf	-0.023070661
190	0x3a74bc9f	0.0009335968
191	0x3d8f27fe	0.0699005
192	0xbd167b8b	-0.036738914
193	0xbd7904fb	-0.060795765
194	0x3dd12e63	0.10213926
195	0xbc8e9356	-0.01740424
196	0xbd343b6b	-0.044001978
197	0xbc297492	-0.010342734
198	0xba97a460	-0.0011569373
199	0x3d037f36	0.03210374
200	0x3c321081	0.010868193
201	0xbd5fb413	-0.05461509
202	0x3b33c453	0.002743025
203	0x3d1f7f42	0.038939722
204	0x3be6a59b	0.0070387847
205	0x3c621cc3	0.013800803
206	0x3d0ce8cb	0.034401696
207	0xbc349200	-0.011021137
208	0xbd63dcce	-0.055630498
209	0x3c4d1db5	0.01251929
210	0xbd4aec7a	-0.049541928
211	0xbc817ded	-0.015807116
212	0xbccb63a9	-0.024827795
213	0xbc845d4f	-0.016157774
214	0x3cfac57d	0.030611748
215	0xbd48c2a2	-0.04901374
216	0x3d74165b	0.059591632
217	0x3b285fc9	0.0025691858
218	0x3c63437d	0.013871071
219	0xbd329725	-0.043601174
220	0xbc8bd76d	-0.017070496
221	0xbc0918fa	-0.008367771
222	0xbc2b27d3	-0.010446507
223	0x3e1f84bd	0.1557798
224	0xbcaa0990	-0.020756513
225	0xbd34fdbf	-0.044187304
226	0xbc70d015	-0.014698048
227	0x3e3aab7f	0.18229483
228	0x3d28b19b	0.041185003
229	0x3c68676d	0.014184815
230	0xbccceedd	-0.025016243
231	0xbc5e9280	-0.013584733
232	0x3b8632b6	0.0040954007
233	0xbd0f2f70	-0.03495735
234	0x3e196686	0.14980516
235	0xbb2e59f4	-0.002660391
236	0x3dc48557	0.09595745
237	0x3c9008b2	0.017582271
238	0x3c68ca9a	0.01420846
239	0x3c1abbae	0.00944416
240	0x3cbbf818	0.022945449
241	0xbd2551d7	-0.04036125
242	0xbc350494	-0.011048455
243	0xbc90459d	-0.01761132
244	0xba8ec37c	-0.0010891999
245	0x3cb490c4	0.022041686
246	0x3de11761	0.10990787
247	0x3dbfd643	0.09367039
248	0xbd160da2	-0.036634095
249	0x3be13e60	0.0068738908
250	0x3c77c29b	0.015122081
251	0xbd62700c	-0.055282637
252	0x3b8d4a42	0.0043118307
253	0xbd4eb77b	-0.05046795
254	0xbd50313c	-0.050828204
255	0x3d9693f9	0.07352442
