outputs/ragnopieno_model.pt (torch, 36146 bytes, 3 tensors)

brain.0.weight f4 [128, 48, 1, 1]
-0.13820097 -0.017661145 -0.07289458 0.18691552 0.12805331 -0.044991665 -0.34432772 -0.05259459
-0.047043648 -0.10616091 -0.036897846 -0.04811917 0.26951325 -0.06756404 0.066951804 -0.13763072
-0.009581625 -0.157237 -0.03726467 0.02506384 -0.06356379 -0.11631924 0.029052943 -0.041216638
0.43486527 -0.18696344 -0.010150949 0.018431414 0.058286827 -0.04932117 0.47115317 -0.0046515134
-0.13290964 0.40782776 -0.077498436 0.098952726 -0.13435368 -0.17573105 0.06943373 0.3385274
-0.07861254 -0.12743361 0.21688655 0.05764883 -0.10553885 0.09651719 0.111045055 -0.092591204
-0.20574105 -0.030972173 -0.07271441 0.057574075 0.07050999 0.009098993 -0.32955813 -0.028593602
0.21285398 -0.015483491 0.0025601217 0.046098433 0.3071092 -0.05725713 -0.027081305 -0.10047743
-0.0023665894 0.081272714 0.12554027 0.046998568 0.020113803 0.12236937 -0.028392864 0.022030633
0.21284732 -0.0701718 -0.063972265 0.030149864 -0.016459446 -0.0030979693 0.06678577 -0.0074596377
-0.0037592563 -0.24692546 -0.13290717 -0.16434613 -0.024024867 0.052535847 -0.0384231 -0.108639814
0.0053532966 0.027630378 -0.255191 0.07456925 0.043622203 0.122285426 0.046151746 0.031988606
-0.006050798 0.029301133 -0.025957631 -0.18314044 0.042326476 0.08234958 -0.13462283 0.06989492
0.020822963 -0.18767534 0.13897571 0.056299325 -0.19291963 0.07571772 -0.08229101 0.023166874
0.025145516 0.06400751 -0.51214033 0.24284606 0.10820021 -0.3588099 0.025958166 0.009802785
0.014163346 0.12884843 -0.072488144 -0.13816269 0.119855985 0.14466453 0.17729668 0.04146875
-0.04342627 0.100412264 0.028100515 0.03622158 0.08787906 0.053349327 -0.06898191 0.76265925
-0.09217982 -0.06283246 -0.0021785044 0.05660618 -0.011582744 -0.038305778 -0.14710768 -0.28788033
-0.30092445 0.083537035 0.06765617 -0.34184393 0.08853368 -0.040728983 -0.1693225 0.036864743
-0.12892409 -0.14857447 -0.22510359 -0.12328345 -0.29822788 0.022709347 -0.075614095 0.14660469
-0.21458384 -0.2029635 -0.26479495 -0.11367729 -0.060687743 -0.19030428 -0.114374034 -0.13429667
0.21320863 -0.10707745 -0.1220176 -0.3224471 -0.098747045 -0.094233796 -0.25736472 -0.007695768
-0.07865587 -0.025188232 -0.033843696 0.12113933 0.0414311 0.027878355 -0.069511496 -0.10683721
-0.09687644 -0.19040431 0.02050452 -0.1637675 -0.107161805 -0.037933975 -0.008832102 -0.010802128
-0.3557127 -0.06657066 2.0716672e-05 -0.19203034 -0.028996017 0.028892558 -0.09179623 0.11156451
-0.0076692635 -0.09197189 0.13617025 -0.061505858 -0.07174444 -0.059229992 0.050813537 0.21669604
-0.05762845 0.14328484 -0.19021915 -0.012216913 -0.08122458 -0.24185467 -0.0064397333 -0.14327155
0.04634306 -0.17090979 -0.06921731 -0.15160933 0.10231409 0.035642046 0.37994322 0.093920134
-0.011375318 -0.020639233 -0.12942493 0.08679472 -0.008150102 -0.2127786 -0.07719419 -0.014658943
-0.06334653 0.051953655 0.035400476 -0.060861435 0.006359253 -0.2772954 0.032413345 -0.063213386
-0.0010439353 0.064857416 0.056104276 -0.11981991 -0.23087834 0.095304996 -0.15893553 -0.051524524
0.077555284 -0.054410983 0.15788794 -0.12271085 -0.27382934 -0.019070923 -0.014541692 0.35214373
00000000: 8e84 0dbe 1bae 90bc c149 95bd c866 3f3e
00000010: 6820 033e 2e49 38bd b94b b0be 6d6d 57bd
00000020: d7b0 40bd e46a d9bd 3222 17bd 9b18 45bd
00000030: a4fd 893e 045f 8abd 071e 893d 11ef 0cbe
00000040: 40fc 1cbc bc02 21be d7a2 18bd af52 cd3c
00000050: bb2d 82bd c838 eebd 7000 ee3c c7d2 28bd
00000060: a9a6 de3e 5873 3fbe 2a50 26bc 7afd 963c
00000070: 2bbe 6e3d ff04 4abd fd3a f13e b96b 98bb
00000080: 7719 08be cdce d03e 80b7 9ebd baa7 ca3d
00000090: 0394 09be d7f2 33be 4533 8e3d 7753 ad3e
000000a0: 9dff a0bd f57d 02be 8217 5e3e 2e21 6c3d
000000b0: c124 d8bd ceaa c53d 976b e33d 75a0 bdbd
000000c0: c8ad 52be 5bb9 fdbc 4beb 94bd cbd2 6b3d
000000d0: 8b67 903d f113 153c d8bb a8be 213d eabc
000000e0: 65f6 593e 78ae 7dbc b7c7 273b b6d1 3c3d
000000f0: 6b3d 9d3e 7486 6abd 9dd9 ddbc 1cc7 cdbd
00000100: c818 1bbb 4f72 a63d a18d 003e 9281 403d
00000110: b4c5 a43c cb9c fa3d 2798 e8bc 9679 b43c
00000120: a6f4 593e 3cb6 8fbd e403 83bd d9fc f63c
00000130: f6d5 86bc 4d07 4bbb fac6 883d fa6f f4bb
00000140: db5d 76bb 07da 7cbe d118 08be 5a4a 28be
00000150: cccf c4bc d42f 573d 8a61 1dbd 8d7e debd
00000160: b56a af3b 1a59 e23c 65a8 82be c3b7 983d
00000170: 32ad 323d c870 fa3d 9d09 3d3d 7c06 033d
00000180: c645 c6bb ee08 f03c 19a5 d4bc 2b89 3bbe
00000190: 875e 2d3d e6a6 a83d 91da 09be 1125 8f3d
000001a0: eb94 aa3c f72d 40be a64f 0e3e 1f9a 663d
000001b0: b98c 45be e411 9b3d 3088 a8bd 75c8 bd3c
000001c0: f8fd cd3c 5f16 833d a11b 03bf a3ac 783e
000001d0: 1298 dd3d eeb5 b7be 38a6 d43c dc9b 203c
000001e0: 610d 683c d8f0 033e aa74 94bd 857a 0dbe
000001f0: 0e77 f53d f022 143e 438d 353e 23db 293d
00000200: bfdf 31bd f2a4 cd3d 0d33 e63c 145d 143d
00000210: f0f9 b33d d384 5a3d 6346 8dbd a33d 433f
00000220: c6c8 bcbd 4eae 80bd 3dc5 0ebb e2db 673d
00000230: 8dc5 3dbc 85e6 1cbd 65a3 16be 0d65 93be
00000240: c512 9abe 7715 ab3d 518f 8a3d 2b06 afbe
00000250: 2551 b53d 6fd3 26bd e162 2dbe 7cff 163d
00000260: ad04 04be e823 18be 8e81 66be 097c fcbd
00000270: 53b1 98be f408 ba3c 90db 9abd 8a1f 163e
00000280: debb 5bbe aad5 4fbe 3493 87be a4cf e8bd
00000290: b693 78bd 20df 42be ef3c eabd 1185 09be
000002a0: 5d53 5a3e 6c4b dbbd 5de4 f9bd c917 a5be
000002b0: e43b cabd a6fd c0bd 4fc5 83be c82c fcbb
000002c0: 5416 a1bd 8d57 cebc b09f 0abd e617 f83d
000002d0: a8b3 293d 2661 e43c 0b5c 8ebd 78cd dabd
000002e0: 2867 c6bd 59f9 42be 18f9 a73c abb2 27be
000002f0: a677 dbbd a860 1bbd 85b4 10bc 69fb 30bc
00000300: fa1f b6be 3356 88bd b7c8 ad37 9aa3 44be
00000310: 0e89 edbc 16b0 ec3c a9ff bbbd ef7b e43d
00000320: 724e fbbb c25b bcbd 3770 0b3e 91ed 7bbd
00000330: c0ee 92bd 269b 72bd db21 503d 91e5 5d3e
00000340: cf0b 6cbd 43b9 123e cfc8 42be 7229 48bc
00000350: 1359 a6bd c0a8 77be 6604 d3bb c7b5 12be
00000360: 38d2 3d3d fa02 2fbe cec1 8dbd 7a3f 1bbe
00000370: 0d8a d13d 65fd 113d eb87 c23e 3359 c03d
00000380: 8b5f 3abc 9c13 a9bc f887 04be 6ec1 b13d
00000390: 0188 05bc a2e2 59be fd17 9ebd 102c 70bc
000003a0: d3bb 81bd 5bcd 543d 1700 113d d749 79bd
000003b0: 4861 d03b aaf9 8dbe dbc3 043d 0576 81bd
000003c0: a8d4 88ba f7d3 843d 99cd 653d 2464 f5bd
000003d0: 5f6b 6cbe 442f c33d ffbf 22be 610b 53bd
000003e0: 4ed5 9e3d 0dde 5ebd 60ad 213e d34f fbbd
000003f0: 5c33 8cbe a03a 9cbc 4740 6ebc 2f4c b43e

brain.0.bias f4 [128]
-0.05262998 0.015745658 -0.0035833411 0.014070013 0.016991934 0.09505837 -0.051911194 -0.0139682675
-0.3305456 -0.07508249 0.013130093 -0.1077826 -0.008019701 0.04721441 -0.012591417 -0.017956417
0.008484062 -0.074971244 0.038554423 -0.15720788 -0.3421178 0.014440847 -0.36092776 -0.019646518
0.07725971 -0.16860792 -0.05111397 -0.39170918 -0.010464202 0.00042304248 0.0014423486 -0.026148468
-0.36455 -0.40377882 -0.37989283 0.058661312 -0.27344266 -0.051638685 -0.40053502 -0.49658105
-0.3245876 0.040445197 -0.030976932 -0.032766715 -0.24582519 -0.07328215 -0.011209662 -0.011739364
0.03414246 0.11014278 0.072160654 0.068491 -0.35436714 0.013830262 -0.31233105 0.040932894
-0.0032142103 -0.08483521 0.050142758 0.035199612 0.038526583 -0.012628105 0.023973132 -0.08004569
-0.0037057265 0.00056110136 0.04531105 0.061092418 0.04023815 -0.03189678 -0.07865064 -0.044599015
0.015630879 0.08653544 -0.15758726 0.0034935933 -0.0018975063 0.10102561 -0.010771629 -0.2835203
-0.035267938 0.05831477 0.023503546 -0.15122288 -0.08249391 -0.3734731 -0.0010766606 0.004674999
-0.3341661 -0.29602733 0.007886879 -0.37258986 0.038169075 0.00605194 -0.32656774 -0.032908298
0.0059235794 -0.08521056 0.05614207 -0.2735053 0.0012787244 -0.13468717 0.0834374 -0.047217205
-0.385661 -0.12092156 -0.006360271 0.029156873 0.05568161 0.04784894 -0.029467745 0.05346203
-0.045450855 0.049102932 -0.124544874 -0.24081092 0.033387218 -0.18058969 -0.0048906105 -0.18298675
0.008305815 -0.06110177 0.02869358 0.00057370064 0.043094393 -0.050251838 0.050192617 -0.079796724
00000000: 8992 57bd 0afd 803c 7dd6 6abb e985 663c
00000010: ab32 8b3c f6ad c23d d5a0 54bd 29db 64bc
00000020: 463d a9be d9c4 99bd 9a1f 573c 20bd dcbd
00000030: 1065 03bc e663 413d 3b4c 4ebc 5619 93bc
00000040: bc00 0b3c 868a 99bd 3eeb 1d3d 1afb 20be
00000050: 102a afbe 4d99 6c3c 86cb b8be bcf1 a0bc
00000060: 573a 9e3d 8ea7 2cbe e25c 51bd 1b8e c8be
00000070: 0b72 2bbc cdcb dd39 300d bd3a 5035 d6bc
00000080: 4ca6 babe 19bc cebe 5081 c2be d846 703d
00000090: ad00 8cbe 1683 53bd ed12 cdbe df3f febe
000000a0: 5930 a6be dda9 253d 56c3 fdbc 6436 06bd
000000b0: 99b9 7bbe f414 96bd bba8 37bc 7656 40bc
000000c0: f7d8 0b3d 8a92 e13d f7c8 933d 0245 8c3d
000000d0: 9c6f b5be 5398 623c dbe9 9fbe 40a9 273d
000000e0: 80a5 52bb 15be adbd 7e62 4d3d 782d 103d
000000f0: 0dce 1d3d 1ce6 4ebc 4d63 c43c ffee a3bd
00000100: c6db 72bb e016 133a 1498 393d 0b3c 7a3d
00000110: c2d0 243d 33a6 02bd 9613 a1bd 75ad 36bd
00000120: 540c 803c 7e39 b13d 8e5e 21be c5f4 643b
00000130: bfb5 f8ba 84e6 ce3d 7d7b 30bc 9329 91be
00000140: 1d75 10bd 78db 6e3d 828a c03c 2cda 1abe
00000150: 91f2 a8bd de37 bfbe bc1e 8dba bc30 993b
00000160: d217 abbe e590 97be f837 013c 19c4 bebe
00000170: 2d57 1c3d 5a4f c63b e333 a7be daca 06bd
00000180: 961a c23b e082 aebd 3af5 653d e308 8cbe
00000190: df9a a73a 6feb 09be 3ae1 aa3d d466 41bd
000001a0: 5c75 c5be b9a5 f7bd d269 d0bb 65da ee3c
000001b0: 6612 643d 40fd 433d 5766 f1bc 00fb 5a3d
000001c0: ad2a 3abd 2820 493d 6211 ffbd 2397 76be
000001d0: 09c1 083d 81ec 38be 6a41 a0bb e160 3bbe
000001e0: 1d15 083c d945 7abd cc0e eb3c 6664 163a
000001f0: bf83 303d dfd4 4dbd c696 4d3d 776c a3bd

brain.2.weight f4 [16, 128, 1, 1]
-0.028788932 0.07654572 0.083532415 -0.012481471 -0.007569033 0.007920979 -0.0010011842 0.15265785
-0.17047374 -0.029657993 0.014890509 -0.043354314 -0.03499884 0.06687708 -0.0035578015 0.0018558642
0.0721679 -0.0001494064 -0.0024410728 -0.11097627 -0.22278361 0.022299482 -0.06634611 0.040385433
0.0046240087 -0.068193056 -0.05189791 0.07888184 -0.13367103 0.031618387 0.032336682 -0.061770454
-0.14257635 -0.16718401 -0.074072205 0.107323125 -0.04005738 -0.034006316 -0.0053697876 -0.13589257
-0.14073919 -0.033931892 -0.06681777 -0.045265168 0.4062548 0.04944313 0.06689741 -0.05351859
0.00035392304 0.11579752 0.043030765 0.08032587 0.2121643 0.08266149 -0.118917964 0.025363801
0.04644983 -0.020031963 0.022610338 0.0045098886 0.025355686 0.0025482 0.07744463 0.008272584
0.060749684 0.031037549 0.070124745 0.0517984 0.014310639 -0.007460782 -0.13223693 -0.056252673
0.05329743 0.008567803 -0.056122698 0.01750988 0.14206217 0.044142418 0.09958704 -0.10923839
0.022336887 0.03649971 0.043343153 -0.04696134 -0.09919605 -0.077184826 0.032681238 0.004352043
0.02098704 -0.005849933 -0.06209277 -0.09769381 0.011141487 0.15748495 -0.094613366 0.012982558
0.07396027 -0.00892251 0.134585 -0.0031927882 0.024197046 -0.03756643 0.024595538 -0.030365713
-0.10567014 -0.042319193 -0.10337054 0.040809747 0.0441147 0.039637007 0.045954052 0.014977681
0.033703852 0.053892948 -0.011667584 -0.04734418 -0.0042511737 -0.04170025 -0.0029917294 -0.10289933
0.01401764 -0.058411334 0.07616919 0.011466649 0.06422753 0.01703192 0.11635819 -0.021626564
-0.09052559 0.036023468 0.11236302 0.0040786187 0.0020761804 0.011346199 -0.005219972 0.17824376
-0.11284096 -0.06270544 0.0336296 -0.008728895 -0.019690163 0.07218945 0.0059877713 -0.027259931
0.05934883 -0.011351958 -0.040862467 -0.08285196 -0.26123235 0.011327024 -0.04939955 -0.02681831
-0.033105213 -0.0229136 -0.07603324 0.005435725 -0.15819842 0.021990782 0.008380405 -0.08546479
-0.016720379 -0.10090692 -0.008741125 0.10686144 0.0105873495 -0.027895102 -0.09257641 -0.19605903
-0.12490693 -0.0016337461 -0.0671531 -0.010819962 0.060994282 0.037479863 0.038550273 -0.10143668
0.0054707066 0.12195881 -0.003791735 0.06684336 0.1814789 0.08514092 -0.07730624 0.053222213
-0.022518303 -0.01144984 0.014076972 0.005658283 0.081636876 0.0067882896 0.071348704 0.012558329
0.06406458 0.044172566 0.030496947 0.04920229 -0.082657404 -0.005385957 -0.09658234 -0.01881749
-0.0014902437 0.018426977 -0.08213774 -0.012487585 0.12778302 0.017432105 0.017997278 -0.054163408
-0.062376093 0.03145965 -0.006506063 -0.018999694 -0.11971908 -0.011943911 -0.016430223 0.00095037534
-0.034444172 0.31654078 -0.018426226 -0.04008497 7.825426e-06 0.16541392 0.016421396 -0.0422036
0.08625872 -0.029467938 0.15148656 0.15510152 0.003982877 0.007034272 0.057562545 -0.02157498
-0.0668476 -0.057233155 -0.0029803999 0.051096804 0.039334934 0.02144929 0.05754548 -0.010180535
0.05307723 0.0702643 -0.023382308 -0.029340945 0.037637137 -0.020643093 -0.005185742 -0.059624758
-0.043357093 -0.043794256 0.08852999 0.04134096 0.060627494 0.009618365 0.13370937 -0.024050485
00000000: c4d6 ebbc 01c4 9c3d 0b13 ab3d 157f 4cbc
00000010: a705 f8bb fec6 013c 2b3a 83ba 5752 1c3e
00000020: ab90 2ebe 52f5 f2bc 52f7 733c 4b94 31bd
00000030: f25a 0fbd daf6 883d 012a 69bb 7840 f33a
00000040: c4cc 933d faa9 1cb9 68fa 1fbb 8747 e3bd
00000050: 6321 64be 67ad b63c 78e0 87bd 326b 253d
00000060: ff84 973b cda8 8bbd e792 54bd cd8c a13d
00000070: 0fe1 08be 4882 013d 7873 043d 0403 7dbd
00000080: 89ff 11be 4932 2bbe 2bb3 97bd 3acc db3d
00000090: 3513 24bd 354a 0bbd 0bf5 afbb 6c27 0bbe
000000a0: ef1d 10be 2bfc 0abd c1d7 88bd f867 39bd
000000b0: a100 d03e e184 4a3d 8201 893d 4f36 5bbd
000000c0: bf8e b939 4027 ed3d 0741 303d e481 a43d
000000d0: 9941 593e 6d4a a93d 438b f3bd bfc7 cf3c
000000e0: 2d42 3e3d 121a a4bc 5139 b93c b0c7 933b
000000f0: bab6 cf3c b4ff 263b 4a9b 9e3d bb89 073c
00000100: a9d4 783d 7542 fe3c 909d 8f3d 8f2a 543d
00000110: 2c77 6a3c 9379 f4bb 1e69 07be 3469 66bd
00000120: 684e 5a3d f85f 0c3c eae0 65bd e170 8f3c
00000130: bf78 113e aece 343d 4af4 cb3d 61b8 dfbd
00000140: d9fb b63c b880 153d 9788 313d 895a 40bd
00000150: 4c27 cbbd 1413 9ebd c3dc 053d 959b 8e3b
00000160: 03ed ab3c cbb0 bfbb fd54 7ebd b113 c8bd
00000170: c98a 363c bc43 213e a7c4 c1bd ccb4 543c
00000180: 7b78 973d b82f 12bc a6d0 093e 193e 51bb
00000190: e238 c63c 42df 19bd 957c c93c 84c1 f8bc
000001a0: 9669 d8bd e456 2dbd efb3 d3bd 1f28 273d
000001b0: 9eb1 343d 6a5a 223d 513a 3c3d f364 753c
000001c0: 0d0d 0a3d dabe 5c3d 6529 3fbc f9eb 41bd
000001d0: 6e4d 8bbb e2cd 2abd e410 44bb e2bc d2bd
000001e0: 3eaa 653c b940 6fbd 98fe 9b3d 9dde 3b3c
000001f0: b989 833d 8686 8b3c 344d ee3d 312a b1bc
00000200: 7b65 b9bd 588d 133d 951e e63d efa5 853b
00000210: 8710 083b 68e5 393c 4d0c abbb 8885 363e
00000220: 2919 e7bd b66b 80bd 31bf 093d a403 0fbc
00000230: 444d a1bc 10d8 933d 1135 c43b 3850 dfbc
00000240: c217 733d 90fd 39bc 675f 27bd 4aae a9bd
00000250: 3fc0 85be fb94 393c 2f57 4abd 13b2 dbbc
00000260: 5599 07bd 4db5 bbbc 51b7 9bbd 2b1e b23b
00000270: c4fe 21be 0326 b43c f74d 093c 2a08 afbd
00000280: 2df9 88bc 4aa8 cebd f036 0fbc 2cda da3d
00000290: 9076 2d3c 4584 e4bc b398 bdbd b3c3 48be
000002a0: 34cf ffbd 6c23 d6ba 9187 89bd 3646 31bc
000002b0: 24d5 793d 7c84 193d e4e6 1d3d 09be cfbd
000002c0: 9d43 b33b 8ac5 f93d c27e 78bb 2ce5 883d
000002d0: 9bd5 393e 5d5e ae3d bc52 9ebd 89ff 593d
000002e0: 4e78 b8bc 1c98 3bbc 1aa3 663c 1e69 b93b
000002f0: 3c31 a73d 4d70 de3b 451f 923d 73c1 4d3c
00000300: 4a34 833d 4bee 343d bcd4 f93c 5788 493d
00000310: 4948 a9bd af7c b0bb f6cc c5bd 2327 9abc
00000320: 4854 c3ba 2cf4 963c d537 a8bd ba98 4cbc
00000330: 8dd9 023e c6cd 8e3c 076f 933c 73da 5dbd
00000340: 137e 7fbd d5db 003d d030 d5bb 3fa5 9bbc
00000350: 472f f5bd 65b0 43bc ad98 86bc 9c22 793a
00000360: 5515 0dbd a211 a23e 99f2 96bc 2330 24bd
00000370: f349 0337 4462 293e 2a86 863c afdd 2cbd
00000380: 69a8 b03d bf66 f1bc 4b1f 1b3e efd2 1e3e
00000390: cb82 823b c07f e63b b4c6 6b3d 03be b0bc
000003a0: 65e7 88bd 506d 6abd d052 43bb e24a 513d
000003b0: ab1d 213d 6cb6 af3c cfb4 6b3d 42cc 26bc
000003c0: 8267 593d bbe6 8f3d 418c bfbc 6c5c f0bc
000003d0: 6629 1a3d b41b a9bc 28ed a9bb 1739 74bd
000003e0: 3597 31bd 9b61 33bd 364f b53d 2355 293d
000003f0: 8954 783d 5996 1d3c 1ceb 083e 8605 c5bc
