outputs/ragnopiccolo_40x40_model.pt (torch, 43706 bytes, 3 tensors)

brain.0.weight f4 [128, 48, 1, 1]
-0.252415 0.06594846 0.04545528 -0.010677116 0.049196143 -0.10796732 -0.2309539 0.15495601
0.12380659 -0.29208982 -0.051966287 -0.046364535 -0.07636267 -0.046389934 -0.06196212 -0.28454888
0.015312845 -0.1227143 -0.03265179 -0.09423394 -0.008854525 0.17032516 0.11800533 -0.10735718
0.18766533 -0.010911455 -0.16009457 0.056300394 0.0317034 0.111610405 0.14976163 0.010876588
0.03626427 0.009127197 0.07144102 0.023117231 0.016404374 0.145128 -0.09873352 0.042757977
0.015107599 0.07823996 -0.25024995 0.11641368 -0.07693191 0.108626485 -0.16290303 0.11405271
-0.017855266 0.05306604 0.09056477 -0.10683306 -0.035004437 -0.10067136 -0.12255691 0.07473602
0.05986828 -0.048345692 -0.020901997 -0.05155693 -0.23507674 -0.049108125 0.07780651 -0.25979537
0.12929867 0.07955123 0.11485008 0.02234891 -0.017418442 0.0062213754 -0.03880278 0.025715234
-0.16088592 0.13304439 -0.0079171 0.25820693 -0.009610676 -0.050973132 0.22405778 0.034105588
0.055016436 0.045425896 0.021773385 0.088228144 -0.048549198 -0.1048764 -0.075273864 -0.09891537
-0.040712994 -0.12291056 -0.22900978 -0.03435732 0.009332717 -0.10495546 -0.15852877 0.07357986
-0.24111821 -0.06494881 0.05948375 0.11190501 0.037750583 -0.09710757 -0.18250766 -0.003933254
0.025664777 0.0032742813 -0.004890556 -0.008485536 -0.14651053 0.059873704 0.04455895 -0.26270753
0.05436952 -0.071827106 0.14169848 -0.06543158 -0.076181404 0.047367252 0.0709832 -0.11192589
-0.06729602 -0.05219114 -0.017753929 -0.04072789 -0.08824209 -0.059412938 0.19584034 -0.06615054
0.009334367 0.12286283 0.10355823 0.018107543 0.010561239 -0.103179246 -0.012022045 -0.09446032
0.037436437 -0.07789379 -0.1583763 0.0086812675 0.11647197 -0.047653057 -0.098121695 -0.048390914
-0.20701675 -0.060557622 0.024990257 -0.255722 -0.009871087 -0.07779335 -0.07489953 0.13034484
0.016760288 0.055483628 -0.013353115 0.016462116 -0.07438444 0.09701314 0.049514107 0.015900563
0.053877153 0.11874402 0.037659388 -0.009299113 0.029470433 0.084785186 -0.056820434 0.008471699
-0.029037805 0.021454755 0.0118689155 0.150645 0.05575893 0.12945233 -0.10682835 -0.096018724
-0.086743884 0.10513224 -0.050693735 -0.049321037 -0.006499124 -0.14020516 -0.03924635 -0.017133456
0.087878436 0.043947738 -0.101731755 0.017600644 0.018168408 0.016119694 -0.06489724 -0.08484522
-0.25676286 0.06917099 -0.06918422 -0.26465702 -0.07234566 -0.018352438 -0.11476654 0.079861164
0.13966937 -0.16539171 0.0665287 0.09856588 -0.076286644 0.0026674743 -0.061846323 0.110573724
-0.12178228 -0.032844726 0.19406132 -0.027578993 -0.06894904 0.10545893 0.02151945 -0.025367018
0.025228277 0.0013794024 -0.05300303 -0.13978106 0.12508656 -0.06848353 0.17009202 0.09447618
0.060500115 0.05885071 0.11716831 0.022359094 0.14174418 0.0033081842 -0.042382568 0.18015388
0.036517534 0.03473842 -0.08600439 0.017283147 -0.08164709 0.08331191 0.056874428 0.0048854407
0.0038001598 -0.06748136 0.039899033 -0.12850161 0.032060508 -0.040191893 -0.15695293 -0.08098808
0.09030939 -0.16351372 0.051998105 0.011186662 -0.13068788 0.08311934 -0.11134536 -0.046981778
00000000: 8a3c 81be fc0f 873d 512f 3a3d 12ef 2ebc
00000010: e581 493d f81d ddbd 2e7f 6cbe caac 1e3e
00000020: 4f8e fd3d cc8c 95be 9ada 54bd bde8 3dbd
00000030: 0864 9cbd 5f03 3ebd fecb 7dbd 64b0 91be
00000040: bae2 7a3c a351 fbbd e2bd 05bd b9fd c0bd
00000050: 9212 11bc b869 2e3e c7ac f13d 15de dbbd
00000060: 572b 403e f6c5 32bc d5ef 23be 3e9b 663d
00000070: 6ddb 013d ff93 e43d 1d5b 193e b733 323c
00000080: d889 143d 3d8a 153c ab4f 923d 5960 bd3c
00000090: 7762 863c 6f9c 143e cd34 cabd fd22 2f3d
000000a0: dd85 773c 463c a03d c320 80be 4c6a ee3d
000000b0: 7a8e 9dbd 9077 de3d 0dd0 26be 7894 e93d
000000c0: 3545 92bc c75b 593d 067a b93d 4bcb dabd
000000d0: d060 0fbd c92c cebd 1eff fabd 330f 993d
000000e0: 7138 753d 2206 46bd aa3a abbc 5c2d 53bd
000000f0: f5b7 70be 9a25 49bd 0559 9f3d e603 85be
00000100: df66 043e c1eb a23d 8536 eb3d 1015 b73c
00000110: 1fb1 8ebc aedc cb3b aaef 1ebd c1a8 d23c
00000120: 47bf 24be ca3c 083e b9b6 01bc b333 843e
00000130: 1976 1dbc 34c9 50bd 676f 653e 4db2 0b3d
00000140: ea58 613d 8110 3a3d 195e b23c f5b0 b43d
00000150: 86db 46bd 70c9 d6bd 2f29 9abd 2494 cabd
00000160: abc2 26bd 88b8 fbbd 8a81 6abe 43ba 0cbd
00000170: 41e8 183c e3f2 d6bd 5e55 22be 0ab1 963d
00000180: b1e7 76be e203 85bd 3ca5 733d 742e e53d
00000190: 5ba0 1a3d 55e0 c6bd 4ae3 3abe 87e2 80bb
000001a0: f03e d23c 5395 563b f540 a0bb eb06 0bbc
000001b0: db06 16be 213e 753d 7283 363d 9a81 86be
000001c0: 93b2 5e3d 171a 93bd 6819 113e fe00 86bd
000001d0: ff04 9cbd 2a04 423d a45f 913d 6739 e5bd
000001e0: 7fd2 89bd 60c6 55bd b070 91bc 4ad2 26bd
000001f0: 45b8 b4bd fb5a 73bd 5f8a 483e ef79 87bd
00000200: 2cef 183c 829f fb3d 5616 d43d 4556 943c
00000210: 0c09 2d3c a44f d3bd 1df8 44bc 6a74 c1bd
00000220: f356 193d c886 9fbd 662d 22be e03b 0e3c
00000230: db88 ee3d da2f 43bd 07f4 c8bd 8d35 46bd
00000240: 33fc 53be 450b 78bd 5eb8 cc3c feed 82be
00000250: 57ba 21bc 1f52 9fbd ed64 99bd 1e79 053e
00000260: df4c 893c cd42 633d 06c7 5abc 8fdb 863c
00000270: df56 98bd d3ae c63d 4ecf 4a3d e641 823c
00000280: 4aae 5c3d 1130 f33d bb40 1a3d 4f5b 18bc
00000290: fa6b f13c dba3 ad3d 8bbc 68bd e2cc 0a3c
000002a0: b1e0 edbc e2c1 af3c d775 423c af42 1a3e
000002b0: 7a63 643d 278f 043e d2c8 dabd 77a5 c4bd
000002c0: c7a6 b1bd 924f d73d 3ca4 4fbd db04 4abd
000002d0: 9bf6 d4bb f191 0fbe c8c0 20bd 765b 8cbc
000002e0: 9cf9 b33d 8b02 343d bd58 d0bd 3a2f 903c
000002f0: ead5 943c 730d 843c d8e8 84bd 55c3 adbd
00000300: 6c76 83be 85a9 8d3d 75b0 8dbd 2081 87be
00000310: f629 94bd da57 96bc b80a ebbd 408e a33d
00000320: 7d05 0f3e 725c 29be 3340 883d e8dc c93d
00000330: 2c3c 9cbd cbd0 2e3b 9252 7dbd 7a74 e23d
00000340: fd68 f9bd 3188 06bd 03b8 463e 57ed e1bc
00000350: 2735 8dbd dafa d73d 8f49 b03c 7ece cfbc
00000360: 88ab ce3c 10cd b43a b519 59bd c422 0fbe
00000370: b116 003e 1841 8cbd 9a2c 2e3e ba7c c13d
00000380: f8ce 773d 710d 713d f0f5 ef3d 6b2a b73c
00000390: 6325 113e 1fce 583b 5899 2dbd 427a 383e
000003a0: 6993 153d e049 0e3d 1223 b0bd 6395 8d3c
000003b0: 9736 a7bd 6f9f aa3d 29f5 683d 0c16 a03b
000003c0: 1a0c 793b ab33 8abd 2b6d 233d ed95 03be
000003d0: e151 033d 41a0 24bd 45b8 20be 14dd a5bd
000003e0: 21f4 b83d 2470 27be f7fb 543d 4348 373c
000003f0: 0bd3 05be 793a aa3d 0909 e4bd f76f 40bd

brain.0.bias f4 [128]
-0.026890403 -0.013432824 0.032728855 -0.03624801 0.044892825 -0.032871325 -0.05503843 -0.00244953
0.042897057 -0.015663287 -0.006282324 0.03448987 -0.04297677 -0.17447957 0.031772554 -0.13310619
0.015498282 -0.07370427 -0.002962231 0.002456787 0.008139648 -0.086176366 -0.0012771052 -0.15385817
-0.11404296 -0.047713123 0.000200034 -0.12003806 -0.0062890127 -0.009655839 -0.16547109 -0.23715751
-0.023448508 -0.02444803 -0.15342402 -0.2897847 -0.07836016 -0.0005892174 -0.016786752 -0.000787817
0.023368083 -0.04216718 -0.050638914 -0.18317857 -0.07326646 -0.10388434 -0.02238015 -0.023466181
-0.20052384 -0.027851462 -0.10041072 -0.05092603 -0.17209846 -0.2359444 0.012316237 -0.0012663678
-0.059511874 -0.015077463 -0.17846712 -0.23450983 -0.024912464 0.018098595 -0.043524783 -0.11104354
-0.06636056 -0.054664318 -0.0026608175 -0.00982019 -0.28014135 -0.1362909 0.027436994 -0.10466111
0.03137077 0.007564624 -0.20004009 -0.030465502 -0.04263138 -0.12687068 -0.08154395 -0.086275004
-0.053282443 -0.020517182 -0.048411958 -0.011186331 0.011982442 -0.00033502886 -0.16062333 0.043903746
-0.14843348 -0.14874056 -0.040307622 0.042196214 0.0059612477 -0.017753318 0.0038404264 -0.05449972
-0.09833972 -0.16793427 -0.27932814 -0.035315838 -0.010390689 -0.035938516 -0.18872704 -0.019187361
-0.25071183 -0.107408665 -0.059162106 -0.107459106 -0.11342183 -0.13879533 -0.01293001 -0.21661012
-0.13933666 -0.21563643 -0.027431022 -0.0028341238 -0.037166327 -0.17821173 -0.035780396 -0.21190786
0.0063309954 0.002872621 0.028610554 -0.11329688 -0.026086135 -0.18873677 -0.05549905 -0.05054939
00000000: 4349 dcbc 5915 5cbc b10e 063d cb78 14bd
00000010: 8ae1 373d 15a4 06bd fa6f 61bd 4b88 20bb
00000020: d3b4 2f3d 4b50 80bc f4db cdbb 4045 0d3d
00000030: 6908 30bd c6aa 32be f023 023d fd4c 08be
00000040: 82ec 7d3c 44f2 96bd fd21 42bb 0c02 213b
00000050: 285c 053c 3c7d b0bd 8a64 a7ba ff8c 1dbe
00000060: 5b8f e9bd d66e 43bd 38c0 5139 84d6 f5bd
00000070: 1014 cebb 8633 1ebc 4171 29be 6bd9 72be
00000080: 1617 c0bc 3c47 c8bc 301b 1dbe a95e 94be
00000090: 4b7b a0bd b675 1aba 5f84 89bc 8185 4eba
000000a0: 6c6e bf3c 7eb7 2cbd c06a 4fbd 2a93 3bbe
000000b0: ba0c 96bd 50c1 d4bd 9456 b7bc 263c c0bc
000000c0: 1f56 4dbe c028 e4bc 23a4 cdbd d097 50bd
000000d0: 943a 30be 699b 71be 0bca 493c 41fc a5ba
000000e0: b9c2 73bd 7707 77bc 16c0 36be 5823 70be
000000f0: 3915 ccbc 8143 943c 0b47 32bd cc6a e3bd
00000100: 0ce8 87bd b1e7 5fbd 1c61 2ebb dde4 20bc
00000110: b06e 8fbe d78f 0bbe 8cc3 e03c 9058 d6bd
00000120: a37e 003d aae0 f73b 4fd7 4cbe ca92 f9bc
00000130: 3e9e 2ebd 63ea 01be 8400 a7bd f3b0 b0bd
00000140: b13e 5abd a613 a8bc 9e4b 46bd df46 37bc
00000150: 0152 443c d0a6 afb9 717a 24be 6ad4 333d
00000160: f2fe 17be 724f 18be 9b19 25bd f0d5 2c3d
00000170: 9256 c33b 686f 91bc aaaf 7b3b 193b 5fbd
00000180: 5666 c9bd f6f6 2bbe 1904 8fbe 57a7 10bd
00000190: b53d 2abc 4434 13bd a941 41be d02e 9dbc
000001a0: 4d5d 80be 13f9 dbbd f753 72bd 8513 dcbd
000001b0: b449 e8bd 5d20 0ebe 65d8 53bc 0bcf 5dbe
000001c0: 45ae 0ebe cccf 5cbe 06b7 e0bc b5bc 39bb
000001d0: b83b 18bd 237d 36be 778e 12bd 60fe 58be
000001e0: 3d74 cf3b 9542 3c3b ae60 ea3c 3208 e8bd
000001f0: 97b2 d5bc 3644 41be f952 63bd e10c 4fbd

brain.2.weight f4 [16, 128, 1, 1]
0.08136275 0.028392756 0.0489201 0.020775687 0.01229874 0.042151805 0.0065902923 0.02095345
0.018347256 -0.0071623297 -0.002277875 0.00949565 -0.00059035514 -0.028941633 0.044528976 -0.03950547
0.092958294 0.04221791 -0.0016783808 -0.011273072 0.008218426 -0.048897333 0.03065807 0.030456673
0.018356824 -0.005196987 -0.09268718 -0.042881016 0.012465481 0.03280056 -0.030353367 -0.031794533
0.082118854 -0.0040790206 0.01003551 -0.08542365 -0.006403408 0.049241655 0.012944267 -0.028686607
0.01560872 0.09607925 0.015640777 0.012170902 -0.020171328 -0.00942013 -0.028612547 0.040505625
0.015624312 0.055984553 0.0408815 0.029464439 0.03971146 -0.077371456 -0.0048948247 -0.07001958
0.010613711 0.032033373 0.0026967314 -0.01630405 0.058876097 0.00095947646 0.10265579 -0.071761526
0.09096734 0.14681837 0.05355218 0.17831378 -0.08109147 0.039085504 0.036797915 -0.025742672
-0.02907532 -0.012324861 -0.035459053 0.008116108 -0.020562436 0.0026468937 0.03792458 -0.048818182
-0.0020218387 0.062792234 0.012118746 -0.009529719 -0.004177886 0.0010158485 -0.003139079 -0.00399341
-0.010613511 -0.012189206 0.02460286 0.0014098013 -0.01209193 0.074683286 0.006170767 0.010619032
0.05023531 -0.00067949 -0.0921139 0.013904154 0.0069538127 0.026180727 -0.019568915 0.03601611
-0.01813506 0.03962073 0.004270317 0.08912259 -0.05014395 -0.019837942 -0.004359612 0.0021362295
-0.0049021468 -0.019053966 -0.009610286 -0.0010329873 0.051213395 0.019732896 0.039822225 -0.011702207
0.0071926047 -0.011646442 0.02409274 0.022624489 -0.022849113 0.0028024318 0.011615238 0.027954023
0.050059747 0.0072753658 -0.008984608 0.015646972 0.028582934 0.0645845 0.021097148 0.02827223
0.0015352017 -0.014335484 -0.00854186 0.0054055615 0.03228373 -0.034569595 -0.023875585 0.012561424
-0.01514033 0.024389647 0.018480591 -0.016992351 0.008081838 -0.009836857 0.0472415 -0.0016035223
0.0047958065 -0.020327697 0.008252932 -0.0018640826 -0.020701183 0.006307541 -0.005623983 0.003290518
0.026792243 -0.023323521 -0.01264854 -0.05585456 0.055167016 0.0070531117 0.018536394 0.008596648
0.10032017 -0.0056603705 0.03989249 -0.024205558 0.031553384 0.02816929 -0.0036513477 -0.008842477
-0.025118817 0.012201454 -0.02329674 0.010854204 -0.012578556 -0.03972415 0.027235502 -0.03597751
-0.009815896 -0.006891776 0.033472687 -0.030850215 0.100002535 -0.0016712827 0.010519477 -0.04839619
0.104111746 0.15039666 0.009962165 0.007039307 -0.046950355 0.03621852 0.020682788 -0.005911269
-0.0031178622 -0.007980977 0.0311286 -0.02918263 -0.014598503 -0.022193396 -0.028160648 0.013532629
0.0075648795 0.007985674 -0.034949932 0.022343358 0.009297783 0.0065363017 -0.027909853 -0.0012309566
0.013991467 -0.040278476 0.00805242 -0.03072753 -0.03144597 0.07275674 -0.0057009356 0.009887491
0.08222271 -0.0034375072 -0.044672877 -0.010538293 -0.012222529 -0.0045094453 -0.008683168 0.054079205
-0.010853595 0.005608962 0.018293967 0.1194633 0.006179389 -0.0035152354 -0.014604525 0.024399376
0.03565338 -0.0046911146 0.021839654 0.027205406 -0.014216001 -0.009258107 -0.012612587 0.01139973
0.0157982 0.0009736202 -0.012771884 0.0561866 0.0020244352 0.01618558 -0.01876043 0.0004463537
00000000: 83a1 a63d ed97 e83c 7160 483d c631 aa3c
00000010: a880 493c 5fa7 2c3d 61f3 d73b 92a6 ab3c
00000020: fc4c 963c fab1 eabb 6748 15bb a593 1b3c
00000030: 10c2 1aba 0117 edbc 0464 363d 7dd0 21bd
00000040: eb60 be3d b0ec 2c3d 1dfd dbba b1b2 38bc
00000050: 94a6 063c 9248 48bd a226 fb3c 4680 f93c
00000060: 0d61 963c 7d4b aabb c7d2 bdbd 01a4 2fbd
00000070: 043c 4c3c e159 063d a0a7 f8bc fc3a 02bd
00000080: ee2d a83d 4ea9 85bb fb6b 243c 98f2 aebd
00000090: aed3 d1bb 9eb1 493d 3114 543c 2d00 ebbc
000000a0: b7bb 7f3c 33c5 c43d 1621 803c 7768 473c
000000b0: 573e a5bc e456 1abc dc64 eabc 3ae9 253d
000000c0: 1dfd 7f3c 0f50 653d 5c73 273d 685f f13c
000000d0: 7ca8 223d ed74 9ebd c464 a0bb 6d66 8fbd
000000e0: 21e5 2d3c 6d35 033d a5bb 303b 1290 85bc
000000f0: 1028 713d 6085 7b3a 333d d23d b5f7 92bd
00000100: 164d ba3d 8e57 163e 8859 5b3d e397 363e
00000110: 4913 a6bd 1f18 203d 69b9 163d 4ce2 d2bc
00000120: 5e2f eebc 37ee 49bc 833d 11bd 6df9 043c
00000130: 8e72 a8bc 8277 2d3b ce56 1b3d 93f5 47bd
00000140: d380 04bb 3799 803d b48d 463c 8a22 1cbc
00000150: a6e6 88bb 3826 853a 02b9 4dbb 27db 82bb
00000160: 4be4 2dbc 3cb5 47bc f08b c93c 15c9 b83a
00000170: 3b1d 46bc 8df3 983d 2534 ca3b 73fb 2d3c
00000180: 8ac3 4d3d cd1f 32ba 36a6 bcbd 40ce 633c
00000190: cfdc e33b f778 d63c fd4e a0bc a185 133d
000001a0: fa8f 94bc 5949 223d 04ee 8b3b e885 b63d
000001b0: be63 4dbd 2e83 a2bc 13db 8ebb fcff 0b3b
000001c0: 30a2 a0bb 1017 9cbc 7674 1dbc 4d65 87ba
000001d0: 23c5 513d e2a6 a13c a11c 233d 9dba 3fbc
000001e0: f1af eb3b b8d0 3ebc 235e c53c fe56 b93c
000001f0: 102e bbbc 01a9 373b d74d 3e3c d6ff e43c
00000200: 730b 4d3d 3166 ee3b 2d34 13bc 142e 803c
00000210: c226 ea3c e144 843d edd3 ac3c 2a9b e73c
00000220: d238 c93a 61df 6abc 28f3 0bbc 2321 b13b
00000230: f23b 043d d998 0dbd bb96 c3bc 6ece 4d3c
00000240: 260f 78bc cccc c73c 9c64 973c 8b33 8bbc
00000250: af69 043c c52a 21bc 4e80 413d 482d d2ba
00000260: 2426 9d3b 4586 a6bc 4e37 073c 3c54 f4ba
00000270: 8795 a9bc 7daf ce3b 6449 b8bb bba5 573b
00000280: 687b db3c f810 bfbc d23b 4fbc c0c7 64bd
00000290: cff6 613d ca1d e73b a3d9 973c f5d8 0c3c
000002a0: a974 cd3d a17a b9bb 4f66 233d bc4a c6bc
000002b0: 1f3e 013d 48c3 e63c 734b 6fbb 09e0 10bc
000002c0: fac5 cdbc 9be8 473c ced8 bebc d5d5 313c
000002d0: 4a16 4ebc cab5 22bd fd1c df3c 275d 13bd
000002e0: dad2 20bc 68d4 e1bb a81a 093d 97b9 fcbc
000002f0: 21ce cc3d f10e dbba e259 2c3c 153b 46bd
00000300: 8a38 d53d 9501 1a3e 5938 233c fda9 e63b
00000310: 044f 40bd df59 143d f36e a93c 52b3 c1bb
00000320: 0c55 4cbb a5c2 02bc 6801 ff3c 6910 efbc
00000330: 8f2e 6fbc edce b5bc 29b1 e6bc f6b7 5d3c
00000340: cfe2 f73b 58d6 023c a927 0fbd 6b09 b73c
00000350: ba55 183c 792e d63b 34a3 e4bc 0d58 a1ba
00000360: 773c 653c 0bfb 24bd 4cee 033c 4db8 fbbc
00000370: 7dcd 00bd 7c01 953d eace babb 25ff 213c
00000380: 6164 a83d cd47 61bb e8fa 36bd cea8 2cbc
00000390: 0141 48bc f8c3 93bb d943 0ebc 2882 5d3d
000003a0: 47d3 31bc 62cb b73b 3bdd 953c 2da9 f43d
000003b0: 797c ca3b dd5f 66bb d147 6fbc 33e1 c73c
000003c0: 4709 123d ecb7 99bb 13e9 b23c dfdd de3c
000003d0: 3bea 68bc 51af 17bc 06a5 4ebc efc5 3a3c
000003e0: 3a6b 813c 8c3a 7f3a 2a41 51bc ec23 663d
000003f0: 63ac 043b 9f97 843c 79af 99bc 9404 ea39
