outputs/nca/Brini_128x128_model.pt (torch, 46797 bytes, 3 tensors)

brain.0.weight f4 [128, 48, 1, 1]
-0.08037701 -0.06113058 -0.027304437 -0.012083681 0.12766932 -0.09900685 -0.03812455 -0.058212865
-0.057433814 0.06387662 -0.02069746 -0.09575474 0.0029026426 0.11241573 -0.124173224 0.03941594
-0.010958715 0.08402763 -0.13055846 0.046348356 -0.023483345 -0.16109948 0.10974886 0.010596896
-0.16079769 -0.041804988 0.06713057 -0.12709184 -0.06850563 -0.06076948 0.056660134 0.046962824
0.037122853 -0.1463102 -0.010988315 -0.121285245 -0.028841782 -0.07243906 -0.08992599 0.13276786
-0.003847127 0.061862506 0.1095596 -0.025106579 0.049807563 -0.020596564 -0.020537883 -0.1158156
-0.21178696 0.0022413754 -0.09624268 0.0391309 0.074869744 -0.13095067 -0.17492071 0.0014076029
-0.16145645 -0.011472713 0.016595833 0.080056876 0.031766705 0.010016132 -0.029092345 0.14202735
0.041860335 -0.09069966 0.12319527 -0.11048617 0.06894508 -0.10820782 -0.110391855 0.044032477
0.119454235 -0.06930889 -0.102299236 -0.13373938 0.026256353 -0.15077806 0.046077464 0.02262931
0.0654669 -0.025109744 0.07336684 -0.093955904 0.039379153 0.07770322 0.105797194 0.12357074
0.026157893 0.12260142 0.025825744 -0.1299958 0.07978546 0.08837969 0.049054127 -0.01334473
-0.04667625 0.039768446 0.1282238 0.10753019 -0.09920718 0.032016065 -0.1299693 0.118936524
-0.028631303 -0.114001915 0.118274584 -0.051343597 0.09543848 0.08928239 -0.07131264 0.12564753
0.12074175 -0.013593668 0.0146030085 -0.023596125 0.026216524 -0.06451071 0.0036509905 -0.07930748
-0.011479154 -0.10735296 -0.102638386 0.043166198 -0.08938007 -0.078160554 0.1425976 -0.010888531
-0.021608178 -0.0040704254 0.0700774 0.0065375273 -0.05414116 -0.10917665 0.11637531 0.09563888
-0.03372146 -0.09665219 -0.037615016 -0.07388658 -0.028365364 0.0942443 -0.024377499 -0.08319938
0.056490958 0.07742564 -0.10800283 0.07479586 -0.039802946 0.12272685 0.09979169 -0.0867068
0.007838552 0.033606026 0.013004179 0.11715325 -0.0350755 -0.007223649 0.040326364 0.08726071
0.10351388 -0.004228002 -0.016451895 0.016501214 0.110906966 -0.081568345 -0.047457315 -0.13725741
-0.014711008 -0.06639238 -0.033342484 0.018328909 -0.058406074 0.029429827 0.021987941 -0.058888145
-0.037076537 -0.18060306 0.02029581 -0.044283226 0.06668375 0.06277558 -0.03489303 0.0046507637
0.022089237 0.08515306 0.07596113 0.011418624 0.081807405 0.09032956 -0.077784255 0.09476041
-0.15984046 0.054785658 -0.057311855 0.0069042244 -0.010742007 0.09028801 -0.11007531 0.10356813
0.08581386 -0.09725774 -0.006531736 -0.018414658 -0.052091695 0.098673865 0.12972291 0.00046845485
0.077656426 0.10372546 0.048869777 0.032828815 0.14549626 0.088130005 -0.037640028 -0.033528768
0.005106108 0.092579015 0.016823716 -0.11013893 -0.14423262 -0.03047828 0.039308775 -0.16487333
0.039552867 0.0013714859 -0.055734888 -0.09286533 0.08618571 0.10482681 -0.105876744 -0.039678894
0.02829269 0.0075893872 0.06430592 0.089936234 0.12734789 -0.051923577 0.09591693 0.027028844
-0.046520688 0.05311621 -0.036430538 0.06894445 0.08144173 -0.033536814 -0.07684582 -0.11483764
0.004515947 -0.059851516 -0.04110747 0.122792326 0.0732763 -0.06736569 0.060905658 0.124369316
00000000: b49c a4bd 0f64 7abd 8ead dfbc a2fa 45bc
00000010: bfbb 023e 1ac4 cabd 7d28 1cbd 9d70 6ebd
00000020: b83f 6bbd bfd1 823d b88d a9bc 101b c4bd
00000030: 433a 3e3b 383a e63d 884e febd 9c72 213d
00000040: 2f8c 33bc ae16 ac3d 1eb1 05be c6d7 3d3d
00000050: 2560 c0bc 43f7 24be 03c4 e03d 9a9e 2d3c
00000060: 26a8 24be b53b 2bbd c17b 893d 5d24 02be
00000070: ae4c 8cbd 6be9 78bd 7514 683d 175c 403d
00000080: 220e 183d 57d2 15be 5508 34bc 6664 f8bd
00000090: 9a45 ecbc ee5a 94bd 1e2b b8bd 4cf4 073e
000000a0: 1520 7cbb 8a63 7d3d c960 e03d 50ac cdbc
000000b0: 0403 4c3d 20ba a8bc 103f a8bc bb30 edbd
000000c0: aede 58be 0ae4 123b e21a c5bd b947 203d
000000d0: 4f55 993d ef17 06be 6a1e 33be 517f b83a
000000e0: d754 25be 0cf8 3bbc fcf3 873c dcf4 a33d
000000f0: ce1d 023d b41a 243c 1253 eebc 9e6f 113e
00000100: be75 2b3d bec0 b9bd cd4d fc3d 9346 e2bd
00000110: 1433 8d3d 109c ddbd 2015 e2bd 665b 343d
00000120: 6ca4 f43d d2f1 8dbd 4382 d1bd faf2 08be
00000130: 9017 d73c 9065 1abe b9bb 3c3d 1a61 b93c
00000140: 8313 863d f3b2 cdbc 5b41 963d f46b c0bd
00000150: 094c 213d de22 9f3d 33ac d83d a812 fd3d
00000160: 1449 d63c 7416 fb3d 8390 d33c 9e1d 05be
00000170: 8f66 a33d 6900 b53d fbec 483d dba3 5abc
00000180: 982f 3fbd 3de4 223d 1a4d 033e ca38 dc3d
00000190: 222d cbbd 4723 033d ac16 05be fe94 f33d
000001a0: 328c eabc d679 e9bd f239 f23d aa4d 52bd
000001b0: 4075 c33d b0d9 b63d 5d0c 92bd bfa9 003e
000001c0: 7347 f73d fab7 5ebc 7541 6f3c a94c c1bc
000001d0: 09c4 d63c 311e 84bd 7545 6f3b f66b a2bd
000001e0: 1013 3cbc dedb dbbd 1334 d2bd 0acf 303d
000001f0: e60c b7bd a412 a0bd 1b05 123e cf65 32bc
00000200: a203 b1bc 3461 85bb bd84 8f3d c138 d63b
00000210: 1fc3 5dbd 0298 dfbd 2e56 ee3d 51de c33d
00000220: 831f 0abd 95f1 c5bd 3412 1abd d951 97bd
00000230: 7b5e e8bc 2803 c13d 52b3 c7bc 7064 aabd
00000240: 1063 673d 5591 9e3d 9630 ddbd 922e 993d
00000250: 6a08 23bd 3758 fb3d 965f cc3d 5693 b1bd
00000260: 456d 003c 79a6 093d 7b0f 553c 0bee ef3d
00000270: 54ab 0fbd 5cb4 ecbb 422d 253d beb5 b23d
00000280: 16ff d33d 0d8b 8abb 20c6 86bc 8e2d 873c
00000290: 3123 e33d 4e0d a7bd 9a62 42bd 358d 0cbe
000002a0: 7106 71bc baf8 87bd 2192 08bd 8226 963c
000002b0: 353b 6fbd d216 f13c 0e20 b43c b234 71bd
000002c0: 91dd 17bd 02f0 38be 6643 a63c 5462 35bd
000002d0: 7d91 883d 7c90 803d feeb 0ebd 6f65 983b
000002e0: 7df4 b43c ba64 ae3d 8291 9b3d 2e15 3b3c
000002f0: a48a a73d b4fe b83d 5a4d 9fbd bf11 c23d
00000300: 38ad 23be ed66 603d d6bf 6abd d53c e23b
00000310: 3eff 2fbc ece8 b83d 2a6f e1bd 871b d43d
00000320: 2dbf af3d 112f c7bd 2c08 d6bb 56da 96bc
00000330: 1a5e 55bd 8615 ca3d 15d6 043e f29a f539
00000340: 550a 9f3d 046e d43d ad2b 483d 8277 063d
00000350: f9fc 143e 817d b43d 6e2c 1abd 7655 09bd
00000360: 2351 a73b 119a bd3d e4d1 893c 8590 e1bd
00000370: b7b1 13be 96ad f9bc 3d02 213d 8ed4 28be
00000380: 3002 223d 6ec3 b33a 444a 64bd 2e30 bebd
00000390: 2282 b03d 70af d63d e8d5 d8bd 5686 22bd
000003a0: 12c6 e73c 65b0 f83b d2b2 833d 7d30 b83d
000003b0: 7c67 023e d1ad 54bd 1870 c43d 986b dd3c
000003c0: 7a8c 3ebd 6290 593d 3038 15bd bf32 8d3d
000003d0: ecca a63d e65d 09bd 5761 9dbd ff2f ebbd
000003e0: 82fa 933b dd26 75bd 4e60 28bd 8b7a fb3d
000003f0: e311 963d 06f7 89bd 3678 793d 57b5 fe3d

brain.0.bias f4 [128]
0.045875993 0.036543667 -0.014414034 -0.04116297 -0.006534897 -0.18184716 -0.021974351 0.051580887
-0.02588594 0.13251905 0.08969308 -0.06909695 -0.102063954 0.08935394 -0.016332125 0.10309015
0.06010808 0.09674637 -0.06279132 -0.14380907 -0.12975843 -0.008956784 -0.023424968 -0.017431766
-0.18655218 0.073916815 0.052887272 -0.0108645465 -0.09990005 -0.075567104 0.054712895 0.11507934
0.015174278 -0.0038380148 -0.0059589096 0.08051719 -0.068807065 -0.12803587 0.026985476 -0.032053474
-0.09343337 0.031094113 -0.0629889 -0.0056424346 0.11072984 0.049808502 0.053635698 -0.03342994
-0.04715661 0.09737387 0.0881361 -0.1644838 -0.145531 -0.19251566 -0.00548835 0.06960629
-0.09086987 -0.05113581 -0.11783166 -0.120415226 -0.020244591 -0.11421435 0.03628916 0.04240969
-0.12898888 0.05618012 -0.012699207 -0.15163112 -0.1617085 -0.1371985 0.014035743 -0.14768833
0.085535035 0.10293911 -0.18184744 0.08078772 0.012445342 0.060449336 0.10140843 -0.017269708
-0.14408623 0.04984134 -0.10266579 -0.12327699 -0.041669447 -0.14694268 -0.051124267 -0.042586252
0.032592796 -0.005259447 0.07833393 -0.061586626 0.026541287 0.05070684 -0.13372204 0.019021086
0.07157242 -0.18252097 -0.12774946 -0.14178568 -0.09953971 0.009882909 0.0004682377 -0.0505566
-0.07800106 0.094242536 -0.048332736 -0.012601597 -0.16840401 -0.096977755 -0.096138194 -0.0523116
-0.13694543 -0.10532702 -0.060722556 -0.1338847 0.10455708 -0.107011564 0.08381969 0.13088992
0.029181829 -0.12915048 0.048475094 0.028659405 -0.13809949 -0.122280836 -0.01989283 0.044610873
00000000: 77e8 3b3d d0ae 153d d728 6cbc 819a 28bd
00000010: b022 d6bb 2436 3abe 8e03 b4bc 7b46 533d
00000020: c00e d4bc 13b3 073e 01b1 b73d b482 8dbd
00000030: e806 d1bd 33ff b63d f3ca 85bc ee20 d33d
00000040: e433 763d f622 c63d bc98 80bd af42 13be
00000050: 65df 04be 7abf 12bc b8e5 bfbc 10cd 8ebc
00000060: 8907 3fbe b361 973d 53a0 583d 3601 32bc
00000070: 6698 ccbd edc2 9abd a11a 603d b8ae eb3d
00000080: 899d 783c 3487 7bbb f542 c3bb 32e6 a43d
00000090: b8ea 8cbd d61b 03be a510 dd3c 814a 03bd
000000a0: ff59 bfbd 15b9 fe3c 5300 81bd 2ce4 b8bb
000000b0: 54c6 e23d 0004 4c3d 1bb1 5b3d d5ed 08bd
000000c0: 4a27 41bd f46b c73d b380 b43d 716e 28be
000000d0: 1406 15be d322 45be 9ed7 b3bb be8d 8e3d
000000e0: fb19 babd c873 51bd ba51 f1bd 429c f6bd
000000f0: fcd7 a5bc 37e9 e9bd f1a3 143d c8b5 2d3d
00000100: a915 04be 201d 663d 5610 50bc 3045 1bbe
00000110: ea96 25be c37d 0cbe 2cf6 653c 9c3b 17be
00000120: fe2c af3d bdd1 d23d 3736 3abe 0874 a53d
00000130: 8ce7 4b3c b999 773d 39af cf3d 3479 8dbc
00000140: 578b 13be 6f26 4c3d 7142 d2bd a678 fcbd
00000150: 95ad 2abd 2478 16be ae67 51bd ec6e 2ebd
00000160: 0680 053d 7057 acbb 8a6d a03d 4242 7cbd
00000170: 1d6d d93c fab1 4f3d 6eee 08be 1cd2 9b3c
00000180: 9094 923d c7e6 3abe c1d0 02be 4430 11be
00000190: 7adb cbbd edeb 213c cd7d f539 7014 4fbd
000001a0: 05bf 9fbd 3b02 c13d 8cf8 45bd ee76 4ebc
000001b0: 1a72 2cbe 469c c6bd 1ae4 c4bd b044 56bd
000001c0: 6c3b 0cbe b1b5 d7bd 37b8 78bd 1219 09be
000001d0: 0622 d63d e128 dbbd a8a9 ab3d 0208 063e
000001e0: bb0e ef3c 0640 04be d28d 463d 21c7 ea3c
000001f0: f469 0dbe 606e fabd 4af6 a2bc e4b9 363d

brain.2.weight f4 [16, 128, 1, 1]
0.0006244543 0.011167068 0.0047925417 -0.0011634124 0.015324574 -0.0043584984 0.0074341125 0.015017982
0.004972076 -0.009803995 0.0005919596 -0.005224998 -0.0049406807 -0.0057711825 0.006280442 0.005219406
-0.006644758 0.01032902 0.00051668996 -0.0021328416 -0.011162661 0.00895203 0.00013308693 -0.010763572
-0.0022786472 0.007880429 0.002089955 0.0056203497 -0.0051014675 -0.009166982 0.0028052153 0.0041031237
-0.0064989063 -0.003780153 -0.0032379327 0.0032208026 -0.003604148 0.0116762435 0.0029223557 0.0055134995
-0.0038999896 -7.471299e-05 -0.004393715 0.008488062 -0.01035839 -0.000567064 0.0022574686 0.0023682502
0.0035097327 0.005750036 -0.009975652 0.00030468122 -0.01018662 -0.002151651 0.0043243454 0.007870786
0.002486582 0.0055337218 -0.0066604814 0.0074380506 0.0060845492 -0.0023515322 0.007975905 0.0013990373
-0.004373001 0.004325277 -0.0105388025 -0.005547406 0.0007588175 -0.00070386636 0.0069715963 0.0030621507
0.0076601477 -0.0043398347 -0.0074415035 0.007195408 -0.007826904 0.0048109875 -0.003544269 0.007251284
-0.013040442 0.0052657737 -0.008307936 -0.011423387 -0.009023258 -5.9023776e-05 0.0050793616 -0.0047653755
0.017654758 0.01580325 0.0075058644 0.011619282 -0.009202563 0.009823918 -0.0018568117 0.005283732
0.00784596 -0.00561458 0.0007751205 0.0029975718 0.010649999 0.0018993036 0.007115792 -0.0004361446
0.009737934 -0.009025609 0.00042074313 0.0037063477 -0.012799274 -0.0030627123 -0.008406634 0.011206459
0.0012445501 -0.0009595677 0.0009087574 -0.009126201 0.0045023537 0.00447275 0.010746943 -0.004546481
-0.0070140087 0.0036337245 0.008459718 0.0050809425 0.0023288205 0.0023842708 -0.0037898293 0.0048841606
-0.0011618823 0.0029522933 -0.0027414702 -0.0063145417 0.008534308 -0.0045090555 0.008287845 0.015381851
0.004819797 -0.004700512 -0.003532984 -0.009485853 -0.011986309 0.0003542847 0.0060371216 0.006132944
0.00068539986 0.0078145405 0.003206894 -0.011195756 -0.0027123478 0.0066362047 -0.00074024004 0.0046491516
0.0016776726 0.002204122 -0.0004361695 0.006628033 -0.012113005 -0.005684786 0.0022599513 -0.0015359169
-0.011792292 -0.008131041 -0.0076872385 0.008299725 0.00692733 0.0041601136 0.0048453812 0.00022804242
-0.0019600913 0.0036394133 0.0027432516 0.0032122303 -0.004056745 -0.0049910913 0.0030772088 0.0034199092
0.0012040097 0.0026853008 -0.00883867 0.0044397116 -0.0102710975 -0.010621508 0.002489795 0.0070011984
0.0022967127 0.0028172254 0.00018189297 0.0044948873 0.00783623 0.004797033 0.0050659124 0.006966751
-0.0054187016 0.006479572 -0.00010610234 -0.0031786496 0.0052310014 -0.0027728342 0.00047454392 0.006185743
0.0072037396 -0.0025818592 -0.008923144 -2.152831e-06 -0.0008476017 0.003876961 -0.0025036838 0.010438179
-0.015343258 0.004958336 0.0010830432 -0.0042791017 -0.0072596516 0.004205497 0.009814082 -0.0018266832
0.011587228 0.009743695 0.010922577 0.0029109528 -0.011361234 0.008760835 0.0022660685 -0.00012569714
0.0029918083 -0.01339402 -0.005630698 0.0018308242 0.012165083 0.004252097 0.010160272 0.0002340256
0.009917634 -0.0016195972 -0.007651584 0.004977422 -0.0010688758 -0.0036132976 -0.0005198429 0.008160033
0.0065557505 0.00023609937 0.0018566895 0.002952429 0.009211892 -0.006303242 0.008300476 0.006918416
-0.007689515 -0.0041534295 0.0037527347 0.0039428985 -0.0055639297 -0.008689912 0.0011273053 0.0030434623
00000000: 6bb2 233a 14f6 363c c10a 9d3b a47d 98ba
00000010: ec13 7b3c bcd1 8ebb db99 f33b fb0d 763c
00000020: ccec a23b efa0 20bc bc2d 1b3a 7636 abbb
00000030: 6fe5 a1bb 301c bdbb 2acc cd3b 8d07 ab3b
00000040: 45bc d9bb 0d3b 293c 7a72 073a 25c7 0bbb
00000050: 98e3 36bc 89ab 123c 408d 0b39 b159 30bc
00000060: 5b55 15bb ea1c 013c a0f7 083b e92a b83b
00000070: 362a a7bb 1c31 16bc b4d7 373b 7f73 863b
00000080: c7f4 d4bb 72bc 77bb 7f33 54bb 1a14 533b
00000090: 9233 6cbb b74d 3f3c fe84 3f3b 96aa b43b
000000a0: f896 7fbb 3baf 9cb8 27f9 8fbb 8311 0b3c
000000b0: 3db6 29bc 05a7 14ba 0af2 133b a534 1b3b
000000c0: 8b03 663b cc6a bc3b eb70 23bc 9fbd 9f39
000000d0: c8e5 26bc b702 0dbb 3db3 8d3b 78f4 003c
000000e0: ecf5 223b 3954 b53b 2b40 dabb e4ba f33b
000000f0: e660 c73b 2a1c 1abb 5fad 023c e75f b73a
00000100: 644b 8fbb 0ebb 8d3b f1aa 2cbc 04c7 b5bb
00000110: 61eb 463a ac83 38ba fd71 e43b 5dae 483b
00000120: fa01 fb3b 2c35 8ebb dbd7 f3bb 75c7 eb3b
00000130: 6a3c 00bc 7da5 9d3b f746 68bb 2e9c ed3b
00000140: 94a7 55bc 838c ac3b 021e 08bc 2829 3bbc
00000150: 4ad6 13bc 4c90 77b8 c670 a63b de26 9cbb
00000160: b6a0 903c d175 813c c1f3 f53b cd5e 3e3c
00000170: 59c6 16bc 80f4 203c 4360 f3ba 2823 ad3b
00000180: 578c 003c 83fa b7bb 7531 4b3a e972 443b
00000190: 557d 2e3c 0ef2 f83a 972b e93b 56aa e4b9
000001a0: db8b 1f3c 26e0 13bc 3097 dc39 32e6 723b
000001b0: 0cb4 51bc c9b7 48bb fbbb 09bc 4c9b 373c
000001c0: 2c20 a33a 808b 7bba ad39 6e3a 1086 15bc
000001d0: 7b88 933b 2590 923b f213 303c a6fa 94bb
000001e0: c5d5 e5bb c823 6e3b a19a 0a3c 097e a63b
000001f0: 209f 183b 6d41 1c3b c95e 78bb 4f0b a03b
00000200: 4d4a 98ba 437b 413b 3daa 33bb 37ea cebb
00000210: 7bd3 0b3c b3c0 93bb bec9 073c 2904 7c3c
00000220: 63ef 9d3b c106 9abb a389 67bb 8d6a 1bbc
00000230: 3962 44bc 4abf b939 0cd3 c53b ddf6 c83b
00000240: 68ac 333a 8f08 003c c12a 523b 676e 37bc
00000250: a5c1 31bb 8574 d93b ab0c 42ba e957 983b
00000260: 5ae5 db3a 0873 103b aead e4b9 f82f d93b
00000270: a075 46bc 7147 babb b11b 143b d250 c9ba
00000280: 7534 41bc 0f38 05bc 3be5 fbbb 92fb 073c
00000290: a8fe e23b 9051 883b 01c6 9e3b ac1e 6f39
000002a0: e074 00bb 3983 6e3b 20c8 333b 4884 523b
000002b0: 72ee 84bb 4f8c a3bb ffaa 493b 8e20 603b
000002c0: ddcf 9d3a dffb 2f3b 12d0 10bc 007b 913b
000002d0: 1b48 28bc d505 2ebc d42b 233b 4f6a e53b
000002e0: 7284 163b 33a1 383b 86ba 3e39 d949 933b
000002f0: 8863 003c 6e30 9d3b f4ff a53b 5849 e43b
00000300: 5d8f b1bb 9752 d43b 4383 deb8 e450 50bb
00000310: d268 ab3b 70b8 35bb 35cc f839 c6b1 ca3b
00000320: 590d ec3b 6934 29bb 6132 12bc 5b79 10b6
00000330: 9631 5eba 9d14 7e3b d814 24bb e504 2b3c
00000340: 4a62 7bbc 8979 a23b e6f4 8d3a b537 8cbb
00000350: 5fe2 edbb 44ce 893b 3ecb 203c 516d efba
00000360: 5bd8 3d3c 05a4 1f3c 9cf4 323c afc5 3e3b
00000370: 7824 3abc 9b89 0f3c 5282 143b 92cd 03b9
00000380: 3712 443b 9772 5bbc b881 b8bb 44f8 ef3a
00000390: 0e50 473c 2d55 8b3b 4577 263c c564 7539
000003a0: 927d 223c aa48 d4ba 24ba fabb a419 a33b
000003b0: 8519 8cba 13cd 6cbb 1146 08ba a9b1 053c
000003c0: 9fd1 d63b 7191 7739 295c f33a 8a7d 413b
000003d0: 7aed 163c 6d8b cebb b8fe 073c e1b3 e23b
000003e0: 54f8 fbbb 7e19 88bb 71f0 753b 6e33 813b
000003f0: a051 b6bb 2260 0ebc 17c2 933a d374 473b
