outputs/nca/Brini_128x128_model.pt (torch, 63885 bytes, 3 tensors)

brain.0.weight f4 [128, 48, 1, 1]
00000000: b1cb 353e 9caa 153d 5491 933c 118b 513e
00000010: 7203 573d f07b 7ebb 9813 1abe c025 c0bb
00000020: 0bd2 823d d390 363d 7050 f43c e140 8fbd
00000030: 8336 36bd 003c c2bc 1877 03bd b503 f1bd
00000040: fc76 243c 0db9 46bb c2cb 7abd e30d a1bc
00000050: 6fe4 29bc afce 85bb a3f7 2f3c a3d3 303d
00000060: 2276 773e 2117 313c 57db 50bd 8e65 7bbd
00000070: 7759 cc3c f350 ed3b 8ae5 2dbe 12aa b93b
00000080: 5ada 7fba 4146 39be a068 46bc 922c 23bc
00000090: 681c e6bd 4a24 453c 38b1 123b 1fc3 373e
000000a0: d143 04bd b659 8f3c 74ba 883d 3bca 063c
000000b0: 6087 263d c777 ecbd e377 34bc a352 833d
000000c0: 4bfe d6bc b6ef 2bbd d707 573c f2bc ef3d
000000d0: bb4d 3ebc 85ec a23d 0198 ffbc de9e 91bc
000000e0: af17 2fbe 485a f83d a6b9 03be 66b8 b13d
000000f0: bb44 debe fb66 863d fb19 683d 69d2 7c3d
00000100: 2358 6c3d 0bf0 a3bc 863f 583e 2fce e53c
00000110: 9bf8 403d 9fe7 46be 4d46 15bd a934 17bd
00000120: 6729 c9bd a52d efbc 933c 1dbc 040d efbc
00000130: 9271 91bd 225c 0d3d 6440 ba3e 84a0 d2bd
00000140: 0b2d e739 c8b0 e0bd f037 8cbc b5b5 7b3d
00000150: a021 51be a84e 2ebb 9afc f3bc a31d d5bd
00000160: 01e6 a1bd 8e23 97bd c5bd 2f3e b53c 4ebd
00000170: 28bd 5abd c391 473e 92cf bc3d 6dce 3dbd
00000180: 33bb bebd c92a e13c 13d7 223d 150b 8cbe
00000190: 073a 26bd abbe 0bbe 97bb 24be d545 70bd
000001a0: e6ee 80bd bbdb e4be b9d5 b0bc 9525 fc3d
000001b0: 356b 813e 3a74 ce3d 87b7 dd3d c271 eabc
000001c0: df65 6bbc 63f3 88bc b954 eabd e565 8bbd
000001d0: cc44 973c bdfe 2dbe 996b f23c dc3b 46bd
000001e0: e6be c9be ae6c 803d 26bc 3abd 3359 6cbd
000001f0: 840b 0a3d 322e b4bc 22c5 71be dcb0 f43d
00000200: 19d4 3abd cf67 dc3d 21da e7bd 44a6 c3bc
00000210: 4cf0 d63d 7036 6f3d c445 00bd 1384 f3bd
00000220: c705 9dbd 098e ee3d 38e7 3bbe 3362 d8bd
00000230: 5e92 ea3b bebd 4b3e be7f 9cba 8cea 2fbd
00000240: 92f2 61be a06a c83d 8d17 603d 0dea 62be
00000250: 1334 503d 72bd d43b 5268 c23b 7ce5 8d3d
00000260: 1566 7d3c 7e51 503e bbbb 8a3d 235d 9bbd
00000270: 5b7c 82bd 3567 733c 9709 e23c 49c5 303c
00000280: 26ac 9d3c 5e16 c43d 5e0c 993d e4f9 74bd
00000290: 7fcd bfbd 977c d6ba 8be0 173b afa9 2d3d
000002a0: 7da5 a53d 61e1 a0bc 1389 3dbd a93b d8bd
000002b0: cb5f 653c c0b6 bcbb 2fcf b8bc 38db 383c
000002c0: 15b9 c63c f67e 5f3e b50e a63c c96e cabd
000002d0: 39d5 bf3c 130e db3c a002 773d 37d8 153e
000002e0: eeb2 863d 5eb8 0f3d fa4a 043d 8a6e 1d3c
000002f0: ebf1 693b 4c0e ac3e b949 99bc 6542 01ba
00000300: 20f6 baba 1a65 49bd 0521 c1bc 710a fb3d
00000310: db22 60bd 15e3 de3d 1032 fa3d ffc2 5bbd
00000320: 0e60 39bc 6c55 15be 1065 153d 3504 913c
00000330: bd9d 163e 91c9 ce3d ecd7 0e3e 1d95 6bbe
00000340: 34fa 503c 3fd7 a5bc eba1 9cbc acc0 ca3c
00000350: 6f4f 1cbd 45f2 4d3d 6cfb 58bd c937 aa3a
00000360: 810b a6be b95c 083e 2bed 3b3d 4a1a 85be
00000370: 501d a73d 98a5 5dbd 70b2 afbe e525 253e
00000380: 74c3 b03d 75e4 d03c a9ae 95bd e70d babd
00000390: 55c5 86bd c49f 4b3d ab79 d1ba d7d5 0dbe
000003a0: 9e09 dfbb e4f9 c1bd 3ce7 18be 5794 74bc
000003b0: 5df2 823c dfaf b9bb 9d01 c3bd 85d1 94bd
000003c0: 7116 043e d13f 243c acfd 843b 10f0 5dbc
000003d0: e7b1 50bd def1 8139 13fd 05bd 02ec 68bb
000003e0: 2686 2c3c cc5c 0b3e 8c94 b0bd 3c87 b63d
000003f0: 7787 14be 930d 763b 0707 a83a e6c2 ba3d
0.17753483 0.03653966 0.018013634 0.20463206 0.05249352 -0.0038831197 -0.15046537 -0.005863875
0.06387719 0.04457171 0.029823512 -0.069947965 -0.04448558 -0.02371025 -0.032096 -0.11768285
0.010038134 -0.0030322701 -0.061229475 -0.019659942 -0.010369404 -0.0040834765 0.010740194 0.043170583
0.24166158 0.010808737 -0.05099043 -0.061376147 0.024945004 0.007242316 -0.16982093 0.005666026
-0.0009760015 -0.18093206 -0.0121099055 -0.009959357 -0.11235887 0.012032578 0.0022383463 0.17945527
-0.032291237 0.017498832 0.06676188 0.008226926 0.040656447 -0.11546283 -0.011014911 0.06412246
-0.026244303 -0.041976653 0.013124428 0.1170596 -0.011615212 0.07955269 -0.03120041 -0.01777595
-0.17098878 0.12126595 -0.12863788 0.08677749 -0.43411812 0.06562611 0.056665402 0.0617241
0.05770124 -0.020011922 0.21117982 0.028052418 0.04711209 -0.19424294 -0.036443997 -0.036915455
-0.0982235 -0.02919657 -0.009596962 -0.029181011 -0.0710174 0.034511693 0.3637725 -0.10284522
0.00044093313 -0.10971218 -0.017116517 0.061452586 -0.20422983 -0.0026597176 -0.029783536 -0.104060434
-0.07905198 -0.073798284 0.17162235 -0.050350863 -0.05340305 0.19489197 0.092192784 -0.04633944
-0.09313049 0.027486222 0.039755892 -0.27352205 -0.040582683 -0.13646953 -0.16087185 -0.058660347
-0.06295566 -0.4469889 -0.021586286 0.12311856 0.25277105 0.10080762 0.10826021 -0.028618697
-0.01436755 -0.016717618 -0.11441941 -0.06806544 0.018465422 -0.16991706 0.029592322 -0.04839693
-0.39403456 0.06270729 -0.04558959 -0.057702255 0.03370239 -0.021994684 -0.23610356 0.11947796
-0.04561243 0.107619874 -0.11320902 -0.023882993 0.10495052 0.058401525 -0.031316534 -0.118904255
-0.076671176 0.11648185 -0.18349922 -0.10565605 0.0071585616 0.198966 -0.0011939926 -0.04294829
-0.2206519 0.09785962 0.05470996 -0.22159596 0.05083091 0.00649231 0.005932846 0.06928536
0.015466233 0.20343587 0.06774088 -0.07586124 -0.06371375 0.014856149 0.027592463 0.010789224
0.019247126 0.09574579 0.07473062 -0.059808627 -0.09365367 -0.0016364035 0.002317461 0.04239815
0.08088205 -0.019638719 -0.046273302 -0.10558254 0.01399989 -0.00575909 -0.02255973 0.011282735
0.024258176 0.21825776 0.020270685 -0.09884412 0.023417102 0.02674011 0.060305238 0.1463326
0.06577097 0.035087936 0.032298066 0.009608874 0.0035697173 0.33604658 -0.018711912 -0.0004930853
-0.0014264025 -0.049168684 -0.023575315 0.12257851 -0.05472074 0.10883156 0.1221658 -0.05365276
-0.011314405 -0.14583367 0.036473334 0.017702201 0.1470861 0.100970395 0.13949555 -0.23006101
0.012754966 -0.020244239 -0.019120177 0.024750076 -0.03816169 0.050279874 -0.05297415 0.0012986596
-0.32430652 0.13316621 0.045880478 -0.2599662 0.08159888 -0.054113 -0.34315825 0.16127737
0.0863103 0.025499562 -0.073087044 -0.09084683 -0.06580607 0.04971291 -0.0015981694 -0.13851105
-0.0068065664 -0.09471491 -0.14931959 -0.014927945 0.015984708 -0.0056667174 -0.09521792 -0.07266525
0.12899186 0.010024981 0.0040585604 -0.013546005 -0.05095091 0.00024785002 -0.032712054 -0.0035541062
0.01053003 0.13609618 -0.08622083 0.08912513 -0.145048 0.0037544712 0.0012819477 0.09119205

brain.0.bias f4 [128]
00000000: 1ce4 79be b4ba 1a3d 5d9b 303d 4924 2fbe
00000010: 7d5d 93bd 1c3f 80be 41c9 fa3d 8f50 4cbd
00000020: 462e 27bd 1025 46bd 178c 103d 315b abbd
00000030: 97af 7d3c ef11 ab3d ed98 abbd 161d 49be
00000040: 32f3 fd3d 7977 c13c 5cd0 e4bc d536 c0bd
00000050: 14ee 48be 5513 0dbe fd0b abbd 65f0 3c3d
00000060: 4d4e e6bd a9c6 6fbe 6523 3dbe e8f4 3ebe
00000070: 8c7f d7bd 19f9 e63b 972b 9dbd 050c 8abe
00000080: 5247 353d 575f 86bd 84b0 73be 90e5 81be
00000090: 84ee 80bd d549 3f3d a6cc 34bd 08aa 39bc
000000a0: 647f 07be a2a2 20be 174c debd 695d e9bc
000000b0: b3d2 15bd 7ce9 3ebe 7d52 95bc 3a6e 18be
000000c0: 4a4f 9d3d 0692 2b3d f450 01bd f9ae 1fbc
000000d0: 267a b83d cc3b b03d c3f8 87bb 76e9 73be
000000e0: c5f3 9bbe a641 65bd 47ce 913d 36e4 b3bd
000000f0: beea 0bbe 6200 9abd 4002 9ebd 51fa 31be
00000100: 8208 3f3d 7c49 8fbd 26d8 a63d 5039 26bd
00000110: 662b 303b 7afe ca3d f5a5 9f3d 8730 003d
00000120: 5830 76be f904 29bd e2cc f2bd 175c 5abe
00000130: 5a90 22be 3c16 58be ee68 2dbe c68d 0bbe
00000140: 25c5 0cbe df6c ebbd fb4e 5ebe 522d 51be
00000150: e42d 943d 023d 4bbc 0072 81be 8d2d b93d
00000160: 718c 7abe e90c cebd 8b13 07be b2a7 cb38
00000170: 4470 873d bff7 15bd 2fea 78be 3836 91bd
00000180: eef8 0b3e d5ee d9bd 3354 87bd 7b0c f63d
00000190: 6d3e babc c55a 133d c7e4 19be 5a2d 413d
000001a0: 1dea c33c 74f9 6f3d 4764 7ebe 785e c7bd
000001b0: 05cf 293d f601 2cbd 9027 07be 13cf 07be
000001c0: 909a 15be 2cf6 333e 0b0d d33c 4513 3ebe
000001d0: 7854 92be 7b07 87bd a891 5fbe 374d 923c
000001e0: 0d01 87be f718 73bb 1fcc cebd 9e63 1ebe
000001f0: 4fb8 0ebe c646 8b3c e666 653d 9114 6cbe
-0.24403423 0.03777571 0.043116916 -0.17103685 -0.07195566 -0.2504815 0.122454174 -0.049881514
-0.040815614 -0.04837519 0.03528985 -0.08367003 0.015483758 0.0835303 -0.08378778 -0.19640002
0.123999014 0.02361654 -0.027931385 -0.093854584 -0.1962207 -0.13776906 -0.08351896 0.046127696
-0.112454034 -0.23415627 -0.18470533 -0.18648112 -0.105223745 0.0070487377 -0.0767433 -0.26962295
0.04425747 -0.065611534 -0.23797804 -0.25370455 -0.06295493 0.04670127 -0.04414048 -0.0113320425
-0.1323219 -0.1568704 -0.10854357 -0.028486924 -0.03657789 -0.18643755 -0.01822781 -0.14885798
0.07681139 0.041887306 -0.031571344 -0.009746307 0.09007673 0.08605155 -0.0041495278 -0.23819527
-0.3045942 -0.05597081 0.071194224 -0.08783762 -0.13663766 -0.07519604 -0.07715273 -0.17380644
0.046638973 -0.06996438 0.08146696 -0.040582 0.0026881336 0.09911819 0.07795326 0.03129628
-0.24041879 -0.041264508 -0.118554845 -0.21324192 -0.15875378 -0.21102232 -0.16934559 -0.13628301
-0.1374708 -0.11495375 -0.21709816 -0.20427445 0.072353154 -0.012404682 -0.25282288 0.09041891
-0.24467637 -0.10061056 -0.13191049 9.71103e-05 0.0661321 -0.036613222 -0.24308084 -0.070904195
0.13669178 -0.10641257 -0.066078566 0.12014099 -0.022734845 0.035975236 -0.15028678 0.04716239
0.023915345 0.058587506 -0.2484294 -0.09734815 0.041457195 -0.041994058 -0.13198686 -0.13262586
-0.14609742 0.17574376 0.025763055 -0.18562038 -0.2858007 -0.06593224 -0.21832907 0.017859085
-0.2636799 -0.0037093738 -0.10097527 -0.15467688 -0.13937496 0.01700152 0.056006335 -0.2305472

brain.2.weight f4 [16, 128, 1, 1]
00000000: 4fa7 6ebb bb22 c5bc bc3a 7d3c ebe7 af3d
00000010: 795d 87bc a6ab 12bd c497 0cbc a536 66bc
00000020: c5cc 73bd 879d 813d 9902 da3c 891c 30bd
00000030: de68 82bc 3570 143d dc69 3d3c b791 5c3d
00000040: 6c1a b13d 2c01 693d 69c3 07be 9a71 66bd
00000050: 8892 0f3c 9df5 333c e1de adba dcb5 c03c
00000060: ec02 24bd 84c4 33bd 39ee c2bd e7e3 903d
00000070: 5ff9 0bbd 4ac3 373d 0cc6 063d 318b 063d
00000080: 5992 673c f4b0 5abd a048 cd3c 1698 49bd
00000090: efd3 fdbd c00c a8bd 62e6 6bbd d6d1 b03a
000000a0: aa0c c33c be5c 35bd 2eab 743d dc89 bbbb
000000b0: c8f3 97bc ea95 a73c e7d8 83bd 65fd 193d
000000c0: 6fcb 473e e73b 91bd e72d 41bd da7f 8a3d
000000d0: e5b9 333b fdc4 c03c 5af7 b43c 644b 833b
000000e0: 32a3 4fbd f9ff 903c 8d9d 0a3d b020 0e3d
000000f0: 6def 7fbc f0a6 a03d a68f e6bc 5242 093d
00000100: c88c 36bc 0ecb 7cbc fa06 1c3c cc5d 0ebd
00000110: cd8c 6a3b 7457 21bd 2cf0 a4bc dcd9 c1bb
00000120: b1b3 b4bd 4b5c d1ba e026 813d dd62 6d38
00000130: cef0 7ebc a2a1 f2bc 6114 933d 0151 9d3c
00000140: d299 f4bc 5571 6cbc ffc4 333d 8acc 133d
00000150: 9db8 843d 3e01 eebc 9656 d2bb 8e75 633c
00000160: d505 8f3c e236 42bd f48c 813d f8bf 123d
00000170: ad6f f8bc 1a7c 1d3a e077 9a3c 58bf ed3c
00000180: 21d1 d2bc e3f1 883c 0951 513d 84d9 e13a
00000190: aa3a c7bc ea9e 32bb 5a06 953c 3e2e ac3b
000001a0: 1f10 6b3c 363a 933c ae44 cbbc ff13 2dbd
000001b0: 1a57 d13c f98a a33d 82e8 1c3c 9034 87bc
000001c0: b14c bdbc 1342 24bd 906a 213c 4f71 10bd
000001d0: f21a b8bc 2c1d 25bd 7d3f 78bd d8be d13c
000001e0: a165 bdbd 5142 f73b 0e6c 9f3d f9f4 a73d
000001f0: 7c5a 663d 1cff 153c cf6e 16bd 1e46 a2bd
00000200: 8c67 05bd f543 d8bc 1887 243d be28 8b3d
00000210: a62c 74bb c20b 063c 7129 2abd 9686 ed3c
00000220: 38e0 fb3a 76df 673d c775 5b3d 8669 22bd
00000230: cb7b eeba 3249 483d 8b1f 43bd 3685 163d
00000240: a77a c13b 0639 3d3d 27d2 8bbd f704 62bd
00000250: ef01 423d 4ea6 e13b 08b2 5b3c 36a6 c23c
00000260: 7643 eabc 1e26 14bd 51c3 a2bd 213c 643d
00000270: 312d 5bbd b994 1f3d e846 9a3c a778 2c3d
00000280: 5505 b43b 0706 00bd b3e8 50bc 80a8 ae3c
00000290: e59a 87bd 5e69 1ebd 83b8 6bbd c47d 8fbc
000002a0: ac66 9c3c 0ea2 58bc 4e3a 393d 8f0f 483c
000002b0: 7e56 37bd 3975 b1bd aea8 4fbd cce2 e7bd
000002c0: e452 253e 8a9b 2fbd e701 933c 7c9c d03c
000002d0: 924d 50bb 7940 303c ea5a 3d3c 1f11 b1bb
000002e0: 5884 5fbd 5c42 b4bd 0b2f 403d 2229 fd3b
000002f0: 88b9 d9bb 6325 203d 9d92 dd3b 0c46 9a3c
00000300: 5ba3 70ba 05f0 a4ba 3f98 fd3c c147 e23d
00000310: 7e6d 213c 51a0 333d c711 82bc 8567 2fbc
00000320: bcfb 9abd 476f 0bbd 2b7f 453d aa61 1dbc
00000330: de7d 1fbb 2b46 edbc b8a4 503d 3d1b a83c
00000340: 4c26 f5bc 069d 08bc de05 f6b9 cfe4 403d
00000350: 078f 3b3d 635d b1bc 9464 bbbc 6915 993b
00000360: c08a 0b3b 5481 d6bc c87e dd3c 6e36 973c
00000370: 9e9d 07bd 6f2a a3bc de6e ef3b bb72 2f3c
00000380: 934f 0abc 85e8 443d 532b d03c a2a3 a9bc
00000390: 390c e93c 9b7e 183d 61ac cc3c 4384 b6bc
000003a0: c4d8 13bc 0b35 9b3c 730a b7bb b6e6 71bc
000003b0: 0010 673b 1eb0 853d d869 e13c 0065 93bc
000003c0: 25dc c53c 5056 4ebd 9446 b03c 6298 8cbc
000003d0: 5cbf 35bb 79f1 1c3b b4ba 1f3c 0d63 ba3c
000003e0: b5e6 54bd ffe0 0a3d 4237 083d c218 5b3d
000003f0: 62f2 873d bec3 823d 7ed2 6cbc b40b 85bd
-0.0036415642 -0.024064412 0.015455898 0.08589157 -0.016524063 -0.035808228 -0.008581106 -0.014051114
-0.059521455 0.06328874 0.026612567 -0.042995963 -0.015919145 0.03623982 0.011560883 0.053849902
0.08647618 0.056885883 -0.13258137 -0.056260683 0.008762963 0.010983852 -0.0013265276 0.023524217
-0.04004185 -0.043888584 -0.095180936 0.07074719 -0.034173366 0.044863977 0.032903716 0.032847587
0.014134013 -0.053391412 0.025059044 -0.049217306 -0.12393939 -0.08205557 -0.057592757 0.001349027
0.02380975 -0.0442779 0.059733562 -0.005723221 -0.018548861 0.020457227 -0.06437855 0.03759517
0.19511198 -0.070915036 -0.047162917 0.06762667 0.0027424034 0.023531431 0.022090603 0.00400679
-0.050692745 0.017700182 0.03384166 0.034699142 -0.015621048 0.07844341 -0.028144669 0.033510514
-0.011141963 -0.015429271 0.009523148 -0.03475742 0.003578949 -0.039390042 -0.020134054 -0.0059158634
-0.08823336 -0.001597294 0.06306243 5.6597277e-05 -0.015560342 -0.029618088 0.07181621 0.019203665
-0.029858503 -0.014431317 0.043889042 0.036083736 0.06480525 -0.029053327 -0.0064190133 0.013883008
0.017458836 -0.04741562 0.06325713 0.035827607 -0.030326689 0.0006007567 0.018855989 0.029021904
-0.025734486 0.016716903 0.05110267 0.0017230962 -0.024319965 -0.0027255365 0.018191505 0.005254536
0.014347105 0.017972093 -0.024813022 -0.042255398 0.025554229 0.07985491 0.009576919 -0.016504556
-0.023107858 -0.040102076 0.009852067 -0.03526431 -0.022473786 -0.040311024 -0.060607422 0.025603697
-0.092479 0.0075457473 0.07784282 0.08201022 0.056238636 0.009155061 -0.03672677 -0.0792353
-0.032569453 -0.026399592 0.040167898 0.0679488 -0.0037258058 0.008181514 -0.041543428 0.02899484
0.0019216603 0.056609593 0.053579118 -0.039651416 -0.0018194852 0.04889793 -0.047637504 0.036748134
0.005904514 0.04619696 -0.06827193 -0.055180516 0.047365125 0.00688628 0.013409145 0.023760896
-0.028596621 -0.036169164 -0.0794741 0.055721406 -0.053509895 0.038960192 0.018832639 0.04210725
0.0054937997 -0.031255748 -0.012750792 0.021320581 -0.06621341 -0.038674705 -0.05754901 -0.017516024
0.019091927 -0.013222231 0.04522162 0.012210741 -0.04476022 -0.086649366 -0.050697975 -0.11322555
0.16144902 -0.042872943 0.017945243 0.025465243 -0.0031784517 0.010757559 0.01155732 -0.0054036523
-0.054569572 -0.088017195 0.046919864 0.0077258507 -0.0066444315 0.039098155 0.0067618624 0.01883223
-0.00091796153 -0.0012583738 0.030956386 0.11048842 0.009852765 0.04385406 -0.015877618 -0.010705833
-0.07567546 -0.03404167 0.04821698 -0.009605804 -0.0024336497 -0.028964123 0.050938338 0.0205208
-0.029925488 -0.008338219 -0.00046925148 0.04709321 0.0457907 -0.021650976 -0.022875108 0.0046717417
0.0021292418 -0.026184715 0.027037993 0.018458571 -0.0331093 -0.019917695 0.0073069176 0.010708506
-0.008441824 0.04807331 0.025411284 -0.020707909 0.028448211 0.037230115 0.02498454 -0.022279864
-0.009023849 0.018946191 -0.0055859624 -0.014764478 0.003525734 0.06527732 0.02751629 -0.017992496
0.024152825 -0.050375283 0.02151803 -0.017162506 -0.0027732467 0.002394764 0.009749103 0.02275231
-0.051977832 0.03390598 0.033255823 0.053490408 0.06638028 0.06384991 -0.014454482 -0.06496373
