outputs/nca/Brini_model.pt (torch, 45701 bytes, 3 tensors)

brain.0.weight f4 [128, 48, 1, 1]
0	0xbe19c557	-0.15016685
1	0xbd876bb7	-0.06612342
2	0xbe327684	-0.17428023
3	0xb9c773f7	-0.00038042638
4	0xbdc5407e	-0.096314415
5	0x3d1e8151	0.038697544
6	0xbdb7bd0c	-0.08971605
7	0xbe4e98c5	-0.20175464
8	0x3d5326e8	0.051550776
9	0x3d6eb430	0.05827731
10	0x3e3dc9f3	0.18534069
11	0x3df2ad0d	0.11849413
12	0xbde53af8	-0.11192888
13	0xbde0ac02	-0.10970308
14	0xbd4634da	-0.048390247
15	0xbda998fc	-0.082811326
16	0x3d8db25e	0.069187865
17	0xbc9031d1	-0.01760188
18	0x3b81e549	0.0039641005
19	0x3d1177c7	0.03551462
20	0xb9c502a9	-0.0003757675
21	0x3cba29a5	0.022724936
22	0xbc8ca5d3	-0.017168915
23	0xbd9b4668	-0.07581788
24	0xbdbe8695	-0.09303013
25	0x3d0a6068	0.033783346
26	0x3bb984ab	0.005661567
27	0xbcb37044	-0.021904118
28	0x3dfe2c03	0.12410738
29	0x3cf0a5ca	0.02937593
30	0xbdcdc1a0	-0.10046697
31	0x3de1b5c5	0.11020998
32	0xbdb6e04a	-0.089294985
33	0x3d7ecd34	0.062207416
34	0xbded7695	-0.11594883
35	0xbd253b58	-0.040339798
36	0xbd3c9a75	-0.04604574
37	0xbe4d4a3c	-0.2004785
38	0x3d350dad	0.044202495
39	0x3ea90ad4	0.33016074
40	0x3ceffb41	0.029294612
41	0xbd4ca79e	-0.04996454
42	0xbd9223ed	-0.071357585
43	0x3d5b3306	0.053515457
44	0x3dc35df0	0.095394015
45	0xbd2703ee	-0.040775232
46	0xbe21163d	-0.1573114
47	0xbaa23b10	-0.0012377221
48	0xbd992f6c	-0.07479748
49	0x3c53be36	0.012923768
50	0x3dc3d1b7	0.09561484
51	0x3d45c74c	0.048285767
52	0xbd36d9b7	-0.044641223
53	0xbd512e30	-0.05106944
54	0x3c99cf96	0.018775743
55	0xbd2735df	-0.04082286
56	0x3da632b3	0.08115139
57	0xbe2ab2db	-0.1666979
58	0x3cf4ed3a	0.029898275
59	0x3dbf005d	0.09326241
60	0x3eab857d	0.3350028
61	0x3c30a717	0.010782025
62	0xbcea571e	-0.028605994
63	0x3ea5a835	0.32354894
64	0xbdb5a535	-0.08869401
65	0x3db41bfc	0.087944
66	0xbd0e16b1	-0.03468961
67	0x3cae8353	0.021302855
68	0xbb59aae6	-0.0033213436
69	0xbf156f90	-0.58373356
70	0x3e11b30f	0.14228462
71	0x3a76fb91	0.00094216416
72	0xbdfe2bdb	-0.124107085
73	0x3d6fcb69	0.058543596
74	0x3dd330b7	0.10312026
75	0xbc73b7b5	-0.014875342
76	0xbc9010ea	-0.01758619
77	0x3be7dca5	0.0070758634
78	0x3e0dd2dc	0.13849968
79	0xbd9a060b	-0.07520684
80	0xbc61841b	-0.013764407
81	0xbd60dd23	-0.054898392
82	0xbbc68e64	-0.0060594548
83	0x3d574a1d	0.052560914
84	0xbe053f8d	-0.13012524
85	0xbd89ec00	-0.067344666
86	0xbe379e04	-0.17931372
87	0x3d0a4bca	0.033763684
88	0x3d633cc8	0.055477887
89	0x3da9a5d7	0.082835846
90	0x3d597d47	0.05309799
91	0xbdc24653	-0.094860695
92	0xbddcb0cb	-0.10775908
93	0xbcfdd3cb	-0.03098478
94	0xbdd0fa07	-0.10203939
95	0x3be6987d	0.007037221
96	0x3d910756	0.07081477
97	0x3dac81a3	0.08423164
98	0xbced9aaf	-0.029004423
99	0xbd9ac925	-0.075578965
100	0xbe3fab01	-0.18717577
101	0x3da4c2c9	0.08044965
102	0xbdbd6d95	-0.09249417
103	0xbd28a653	-0.041174244
104	0xbd61511b	-0.05500899
105	0xbe57e43c	-0.21083158
106	0x3d5aaeba	0.05338929
107	0x3da06010	0.078308225
108	0x3ea40651	0.3203607
109	0xbde8c282	-0.113652244
110	0x3ceff90f	0.029293565
111	0x3d8a0cf9	0.067407556
112	0xbccca514	-0.02498106
113	0x3e0b5bcd	0.13609238
114	0xbe254b57	-0.16142021
115	0x3d8d4fbf	0.06899976
116	0x3c9e26c9	0.019305604
117	0xbda29e49	-0.07940347
118	0x3d28b26c	0.04118578
119	0xbd84299a	-0.06453247
120	0xbefa921c	-0.48939598
121	0x3cf5bf3c	0.029998414
122	0xbd51afaa	-0.051192917
123	0x3b3f019a	0.0029145242
124	0xbc5bcdcf	-0.013415768
125	0xbd59888f	-0.053108748
126	0xbe82b517	-0.25528786
127	0x3c875ed1	0.016524704
128	0x3d8299aa	0.06376965
129	0xbdd310e0	-0.10305953
130	0x3c84ce24	0.016211577
131	0xbc9d924f	-0.019234804
132	0xbe79013f	-0.24316882
133	0x3bda5e27	0.006664056
134	0xbdd5e852	-0.10444702
135	0xbdd62a8b	-0.10457333
136	0xbda34ba8	-0.07973415
137	0x3dbf0a16	0.093280956
138	0xbe09c935	-0.1345566
139	0x3d0df09e	0.0346533
140	0xbdabc497	-0.08387106
141	0x3e4623cf	0.19349597
142	0xbd6557a0	-0.05599177
143	0x3d164e21	0.036695603
144	0x3db14478	0.086556375
145	0xbb93ae32	-0.0045068497
146	0xbdc11d52	-0.094294205
147	0x3df06ae6	0.11739139
148	0x3d8d5658	0.069012344
149	0xbc200d13	-0.009768742
150	0x3e18511b	0.1487469
151	0xbc96815f	-0.018372236
152	0x3d73bf52	0.05950863
153	0xbc526e91	-0.012843744
154	0x3b9dc390	0.0048145726
155	0x3d59da74	0.05318685
156	0xbf185416	-0.59503305
157	0x3d0a8a85	0.03382351
158	0x3de0376a	0.109480694
159	0xbe983e04	-0.29734814
160	0xbce9c86c	-0.028537951
161	0xbc995b1f	-0.018720208
162	0x3e8052f4	0.25063288
163	0x3cbf6190	0.023361951
164	0xbd91cd2d	-0.07119212
165	0x3e8dd0aa	0.2769826
166	0x3da9cd9f	0.08291172
167	0xbdbda98c	-0.09260854
168	0xbeb37837	-0.35052654
169	0xbc2373f8	-0.00997638
170	0xbd88712a	-0.06662209
171	0xbe83f209	-0.25770596
172	0xbd5bc136	-0.053651057
173	0x3e120863	0.14261012
174	0x3ebc0dfe	0.36729425
175	0xbd031c52	-0.03200943
176	0x3cde62ba	0.027146686
177	0x3d8fe4ad	0.07026038
178	0x3d1e8a67	0.03870621
179	0xbd75065f	-0.05982053
180	0x3e826359	0.2546642
181	0xbde9e974	-0.11421481
182	0xbd92c52e	-0.07166515
183	0xbe5c65de	-0.21523234
184	0x3d922b4b	0.07137164
185	0x3d1f08fc	0.038826928
186	0xbdc76f76	-0.09738056
187	0x3d6de0fc	0.05807589
188	0xbce91a52	-0.028454933
189	0x3ca49fa9	0.020095663
190	0x3d368410	0.04455954
191	0xbdd5b6e7	-0.104352765
192	0xbe61581d	-0.22006269
193	0x3e88a0cf	0.26685187
194	0x3c466fd3	0.012111622
195	0xbe2449ed	-0.16043825
196	0x3d28e664	0.041235343
197	0x3c5e5aec	0.013571482
198	0xbe825bec	-0.25460756
199	0x3e456e68	0.19280398
200	0x3cb5e6b6	0.022204738
201	0xbe6903fb	-0.22755425
202	0xbd7ff037	-0.062484946
203	0xbc0f980f	-0.008764281
204	0xbd8b6da6	-0.06808023
205	0x3d0228ff	0.03177738
206	0x3d1af1c0	0.037828207
207	0xbe2926d4	-0.16518718
208	0x3cbe4a72	0.023228858
209	0xbc85ae6e	-0.016318526
210	0x3e243f71	0.16039826
211	0xbd1f8047	-0.038940694
212	0xbdda6790	-0.10664284
213	0x3e75643c	0.23964018
214	0x3d04920a	0.032365836
215	0xbd22fb56	-0.039790474
216	0x3e98ecff	0.29868314
217	0xbd301117	-0.04298505
218	0x3da0a5c1	0.07844115
219	0xbe98bfef	-0.29833934
220	0xbdd444d8	-0.103646934
221	0x3dff5189	0.124667235
222	0xbecdcfff	-0.4019775
223	0x3ce1233a	0.027482618
224	0xbdaf155a	-0.08548994
225	0xbc9d209e	-0.019180592
226	0xbccb107f	-0.02478814
227	0xbd2b0dd4	-0.041761234
228	0xbdeda753	-0.1160418
229	0x3d34051e	0.043950193
230	0x3d86a23a	0.06573911
231	0xbdd6c71a	-0.10487194
232	0xbcc5234a	-0.024064679
233	0xbdb700c1	-0.08935691
234	0xbe377477	-0.17915522
235	0x3d998752	0.074965134
236	0x3d74424f	0.05963355
237	0x3e18cc67	0.14921723
238	0x3db24be8	0.08705884
239	0xbdbfa89f	-0.09358334
240	0xbb6f729f	-0.0036536825
241	0xbd04d3b0	-0.032428443
242	0x3e1eda52	0.1551297
243	0xbd8c34a0	-0.06845975
244	0x3e1dcd3d	0.15410323
245	0xbcf68f46	-0.030097615
246	0xbe1f9897	-0.15585552
247	0xbd511d50	-0.051053345
248	0x3d9542fb	0.07288166
249	0xbdb7890c	-0.089616865
250	0x3de89179	0.11355872
251	0x3c8585aa	0.016299088
252	0x3e82d254	0.25551093
253	0x3d01927e	0.031633846
254	0x3db90f5f	0.09036135
255	0xbd8ffd4f	-0.07030737

brain.0.bias f4 [128]
0	0xbe13b36d	-0.14423914
1	0xbdb1da5e	-0.08684228
2	0xbe335957	-0.17514549
3	0xbd6c5952	-0.05770237
4	0x3d824b09	0.06361968
5	0x3d3de8cd	0.046364594
6	0x3d153f16	0.036437117
7	0xbd9b63f9	-0.07587428
8	0xbdb8d35a	-0.09024687
9	0x3d7c8927	0.061654236
10	0xbe1d00f7	-0.153324
11	0xbd046ac5	-0.032328386
12	0xbe97ffb7	-0.29687282
13	0x3db37e89	0.08764369
14	0xbdfb8865	-0.122818746
15	0xbca4f657	-0.020136995
16	0xbd9138d9	-0.07090921
17	0xbe98fa67	-0.29878542
18	0xbc2fc564	-0.010728214
19	0x3d4227b4	0.047401145
20	0xbe331831	-0.17489697
21	0xbe1f4272	-0.1555269
22	0xbcde93e2	-0.027170125
23	0x3c69cefb	0.014270539
24	0x3bf4c5c6	0.0074698655
25	0xbd8ed179	-0.069735475
26	0xbe65c645	-0.22438915
27	0x3cfb9761	0.030711832
28	0x3d806324	0.062689096
29	0xbe8a0123	-0.26953992
30	0xbe144aa3	-0.14481597
31	0xbd958bbd	-0.073020436
32	0xbd01b54e	-0.031667046
33	0xbd9f2135	-0.077700056
34	0x3c57f4fc	0.013180967
35	0xbe1204e4	-0.14259678
36	0xbe427d5e	-0.18993136
37	0xbdfe47c6	-0.124160334
38	0xbe4d267a	-0.20034209
39	0xbd8ec1b0	-0.06970537
40	0xbe31b0ba	-0.17352572
41	0xbd81a3cb	-0.06330069
42	0xbe8409f2	-0.25788838
43	0xbc4e4c4d	-0.012591434
44	0xbe8d6f80	-0.2762413
45	0xbe4a56b0	-0.19759631
46	0xbdefee26	-0.11715345
47	0x3da9be3b	0.08288237
48	0xbe762e4f	-0.24041103
49	0xbde4178b	-0.11137303
50	0xbc1c34d4	-0.00953408
51	0xbd361bb2	-0.044460006
52	0x3d8c63dc	0.06854984
53	0xbe819944	-0.25312245
54	0xbe5f71cf	-0.21820758
55	0xbec20fff	-0.3790283
56	0xbe4a7a0f	-0.19773124
57	0xbe543e8c	-0.20726985
58	0xbe62cb04	-0.22147757
59	0xbe3f0ea7	-0.18657933
60	0xbe6a655a	-0.22890225
61	0x3b4214a2	0.002961435
62	0xbd8b7386	-0.06809144
63	0xbe34ce38	-0.17656791
64	0x3da017fa	0.07817073
65	0x3c769763	0.015050742
66	0x3cb073ea	0.021539647
67	0xbd77c9c8	-0.060495168
68	0xbcc00fe2	-0.023445074
69	0x3e487118	0.19574392
70	0xbbb2fe60	-0.005462453
71	0x3c5ef72c	0.013608735
72	0x3da52e47	0.08065467
73	0xbcde7b75	-0.027158478
74	0x3d532b33	0.05155487
75	0xbd4a8ee6	-0.049452685
76	0x3cd0b634	0.025477506
77	0xbe4b858d	-0.19875164
78	0x3d068ffd	0.03285216
79	0xbdfe2a65	-0.1241043
80	0x3c82328a	0.01589324
81	0xbdb99844	-0.090622455
82	0xbd828979	-0.06373877
83	0xbe66fe0d	-0.2255785
84	0x3cf975a2	0.0304516
85	0xbe05f490	-0.13081574
86	0xbe520dda	-0.20513096
87	0xbe15966d	-0.14608164
88	0x3c9dd66d	0.019267285
89	0xbc6854b9	-0.014180356
90	0xbd18a867	-0.037269976
91	0x3bad2a84	0.0052846093
92	0xbdc25a6a	-0.09489901
93	0xbe90cea8	-0.28282666
94	0xbd2a12ce	-0.04152184
95	0xbde1c81e	-0.110244974
96	0x3d6a8b9e	0.057262056
97	0xbe3da7d7	-0.18521057
98	0xbe90aa52	-0.28254944
99	0xbe91f99e	-0.28510755
100	0xbe05ffed	-0.13085909
101	0xbde58f26	-0.11208944
102	0xbdbeed62	-0.09322621
103	0xbd97eb67	-0.07417946
104	0x3dec7c23	0.11547115
105	0xbe0ba88b	-0.13638513
106	0xbe11f89b	-0.14254992
107	0xbdf48326	-0.11939077
108	0x3d13cee0	0.036085963
109	0xbba374af	-0.004988275
110	0xbebf8542	-0.37406355
111	0xbdcf186c	-0.1011208
112	0xbbf95629	-0.007609148
113	0xbdabf2c3	-0.083959125
114	0xbe293ced	-0.16527148
115	0x3df4326c	0.1192368
116	0xbd9a3e78	-0.07531446
117	0xbe2f3148	-0.17108643
118	0x3cc49d07	0.024000658
119	0xbc241cba	-0.010016615
120	0xbcc946d9	-0.024569916
121	0xbc85b3ed	-0.016321147
122	0xbbcb47f2	-0.006203645
123	0xbe48bcea	-0.19603315
124	0xbd0cadf7	-0.034345593
125	0xbdd2d1ce	-0.10293923
126	0xbeb74f7a	-0.35802823
127	0xbe5c2941	-0.21500112

brain.2.weight f4 [16, 128, 1, 1]
0	0x3d35e780	0.04441023
1	0xbcd98e9f	-0.026557265
2	0xbdd09215	-0.10184113
3	0x3c973a84	0.01846052
4	0x3cd8e90b	0.026478311
5	0x3c4eebd6	0.01262947
6	0x3d5be2cb	0.053683084
7	0xbcadc4c1	-0.021211984
8	0x3d2c42ae	0.04205578
9	0x3bca8d33	0.006181383
10	0xbd0f9e22	-0.035062917
11	0x3d10ee0a	0.03538326
12	0x3d87f404	0.06638339
13	0xbb0dba47	-0.0021625923
14	0x3db22a56	0.08699481
15	0x3cec1f0a	0.028823394
16	0x3d2de549	0.04245499
17	0x3cc2322f	0.02370557
18	0x3d62f387	0.055408027
19	0x3b261bf7	0.0025346258
20	0x3d2551d2	0.040361233
21	0xbd618095	-0.055054266
22	0xbca76fed	-0.020439113
23	0x3d4209a5	0.04737248
24	0x3c900ae8	0.017583326
25	0x3c3d4ca2	0.011553915
26	0xbd715f5d	-0.058928836
27	0xba237bfa	-0.00062364305
28	0x3c9683ec	0.018373452
29	0xbceb0d69	-0.028692918
30	0xbcd46524	-0.025927134
31	0x3d370089	0.044678245
32	0xbd27aead	-0.04093807
33	0x3ca941b8	0.02066122
34	0x3d1cddaa	0.038297333
35	0x3ca3b43c	0.019983403
36	0xbd08ad40	-0.03336835
37	0xbd839263	-0.064244054
38	0x3a0044f0	0.0004893085
39	0xbcc95e11	-0.024580987
40	0x3d6d6953	0.057961773
41	0x3d0fc8aa	0.035103478
42	0xbddc987c	-0.107712716
43	0xbcaf9721	-0.021434369
44	0x3d05dd14	0.03268154
45	0x3d2e45c5	0.042547006
46	0x3d2a0d24	0.041516438
47	0x3d318cc6	0.043347143
48	0x3b47807c	0.0030441573
49	0x3c830de7	0.01599784
50	0x3cbf8d00	0.023382664
51	0x3d2d8551	0.04236347
52	0x3d06e2c2	0.032931097
53	0x3c8bcbf4	0.017065026
54	0x3d947c6b	0.07250293
55	0xbc277a95	-0.010222097
56	0x3ccc258d	0.02492025
57	0xbda1875b	-0.07887145
58	0x3d76d298	0.06025943
59	0xbc41e990	-0.011835471
60	0x3ca7337b	0.02041029
61	0xbcf91ecd	-0.030410195
62	0x3d2fa2d0	0.04287988
63	0x3d30095c	0.042977676
64	0x3ce15de9	0.0275106
65	0xbbf478e8	-0.007460702
66	0x3ce58870	0.02801916
67	0x3d08ac0c	0.0333672
68	0x3d289309	0.04115585
69	0xbc6e83d5	-0.014557798
70	0xbccb0e03	-0.024786955
71	0xbc0cdf8c	-0.00859822
72	0xbd9f1d51	-0.077692635
73	0x3cc27491	0.023737224
74	0x3d9402c5	0.07227091
75	0x3ce9755b	0.028498342
76	0xbd621d83	-0.055203926
77	0x3cc930b7	0.024559362
78	0x3d5f85db	0.054571014
79	0x3cfc4975	0.030796746
80	0x3d49389d	0.049126256
81	0x3d2c19fc	0.042016968
82	0x3d436489	0.0477033
83	0x3cece5f1	0.028918238
84	0xbc35cf8f	-0.011096849
85	0x3cc7a234	0.024369337
86	0x3d6cda1e	0.0578252
87	0x3c0121f9	0.007881635
88	0xbad0a60c	-0.0015918626
89	0xbcce2589	-0.025164383
90	0x3d0d3cfc	0.034481987
91	0xbd03e778	-0.032203168
92	0x3bf93d15	0.0076061585
93	0xbd18e36c	-0.03732626
94	0x3d840e5a	0.0644805
95	0x3cd2d3e4	0.025735803
96	0xbd8c33bd	-0.06845806
97	0x3d7804b5	0.060551364
98	0xbcb38a8e	-0.021916654
99	0xbca04279	-0.019562947
100	0x3d5e6747	0.05429771
101	0x3d000b32	0.031260677
102	0xbda0bd97	-0.078486614
103	0x3ca331ae	0.01992115
104	0x3d5d6709	0.05405334
105	0x3b87d32c	0.0041450467
106	0x3d9a6cb5	0.075402655
107	0xbd016aef	-0.03159612
108	0x3d0e2d93	0.03471143
109	0xbd74a5a2	-0.059728272
110	0x3c718225	0.0147405015
111	0x3c573e06	0.013137346
112	0xbc87c28b	-0.016572258
113	0x3c990ec5	0.0186838
114	0xbcaad354	-0.020852722
115	0xbcb00fa2	-0.02149183
116	0x3ccbb245	0.024865279
117	0xbcfb24d9	-0.030657219
118	0x3d851bff	0.064994805
119	0x3cc223f9	0.023698794
120	0x3d2b9916	0.04189404
121	0x3b263a4b	0.0025364335
122	0x3d1c7041	0.03819299
123	0x3ba5a5c3	0.0050551607
124	0x3d08345a	0.03325305
125	0x3a87ce34	0.0010361136
126	0xbcf816c1	-0.030284287
127	0x3bb6ea63	0.0055821403
128	0x3cfc995b	0.030834844
129	0xbc8a0fb7	-0.016853197
130	0xbd75f031	-0.060043518
131	0x3c3d3d60	0.0115502775
132	0x3ca8de1f	0.020613728
133	0x3c9560ed	0.018234694
134	0x3d1eccfe	0.038769715
135	0xbbe15dce	-0.0068776375
136	0x3cff334f	0.031152396
137	0x3c3d354c	0.0115483515
138	0xbca4c62e	-0.02011403
139	0x3cae628c	0.021287225
140	0x3d397e1e	0.04528629
141	0xba525783	-0.00080239045
142	0x3d82f191	0.063937314
143	0x3cba81ab	0.022766909
144	0x3d003c6e	0.03130763
145	0x3c8af208	0.016961113
146	0x3d491c7b	0.049099427
147	0x3c2abfae	0.010421677
148	0x3cf7370e	0.03017762
149	0xbd4d110a	-0.050065078
150	0xbc562ae5	-0.01307175
151	0x3cf25198	0.029579923
152	0x3c2343ac	0.009964865
153	0x3ab2aebc	0.0013632397
154	0xbd7356a0	-0.059408784
155	0xbb41f004	-0.0029592523
156	0x3c4daf6e	0.012554033
157	0xbc907123	-0.017632073
158	0xbcf31cb5	-0.029676775
159	0x3d0dd53b	0.03462718
160	0xbce7d6e3	-0.028300708
161	0x3d0600ef	0.032715734
162	0x3d1fe4bd	0.0390365
163	0x3c9982bc	0.018739097
164	0xbcaffc33	-0.021482563
165	0xbd2abb26	-0.041682385
166	0x3a8b219f	0.0010614878
167	0xbc94ad0e	-0.018148925
168	0x3d1ae079	0.03781173
169	0x3cccfab6	0.025021892
170	0xbd96537d	-0.07340143
171	0xbcc83896	-0.024441045
172	0x3ca1c98f	0.019749431
173	0x3ced493c	0.028965585
174	0x3d0b1311	0.03395373
175	0x3d4ea6ed	0.05045216
176	0x3c87e636	0.016589265
177	0x3b64bc32	0.0034902212
178	0x3d129b5b	0.03579269
179	0x3d1d81db	0.038453918
180	0x3c802e79	0.01564716
181	0x3c5aee2a	0.013362447
182	0x3d557845	0.05211665
183	0xbc27976a	-0.010228971
184	0x3c8d6d13	0.017263925
185	0xbd69291b	-0.056923967
186	0x3d2421f0	0.040071428
187	0xbc89fc81	-0.016844036
188	0x3d1b612e	0.037934475
189	0xbd074e7f	-0.033033844
190	0x3cdbfe9a	0.026854802
191	0x3d1113f1	0.03541941
192	0x3cede5bb	0.029040208
193	0xb98eb293	-0.000272174
194	0x3cad2604	0.021136291
195	0x3ceab55e	0.028650936
196	0x3d096135	0.03353997
197	0xbc5e420f	-0.013565554
198	0xbcb0f472	-0.021600936
199	0xbc043b30	-0.008070752
200	0xbd6c6717	-0.0577155
201	0x3c07bcbf	0.008284747
202	0x3d6df379	0.05809352
203	0x3cc7ff77	0.024413807
204	0xbd0f4ba5	-0.03498425
205	0x3c958957	0.018253965
206	0x3d20fce9	0.039303694
207	0x3cb0f8dd	0.021603042
208	0x3d22d183	0.039750587
209	0x3cfe8057	0.031067057
210	0x3d24c697	0.040228453
211	0x3ce2c7f9	0.027683245
212	0xbc56c318	-0.013108037
213	0x3c8f8e30	0.017523855
214	0x3d2d9bf1	0.042385045
215	0x3ba8a35f	0.0051464285
216	0xbbe52755	-0.006993214
217	0xba456981	-0.0007530675
218	0x3cdac72d	0.026706303
219	0xbc26d811	-0.01018335
220	0x3bb1880e	0.0054178303
221	0xbcd0225b	-0.025407007
222	0x3d8e147d	0.069375016
223	0x3cb7ca50	0.022435337
224	0xbd75406a	-0.059875883
225	0x3d1870ab	0.037216824
226	0xbd127ae4	-0.03576173
227	0xbc5fda6a	-0.013662914
228	0x3d2a2013	0.041534495
229	0x3c9487b6	0.018131118
230	0xbd65bc94	-0.056088045
231	0x3cd5602d	0.026046837
232	0x3d18c46f	0.03729671
233	0x3b71e867	0.0036912204
234	0x3d4c3d69	0.049863253
235	0xbce8906d	-0.02838918
236	0x3ce1e8ea	0.027576882
237	0xbd0f42a9	-0.03497568
238	0xbc18994d	-0.0093138935
239	0x3ba95d86	0.0051686196
240	0xbc1cbcd0	-0.009566501
241	0x3c03a1eb	0.00803421
242	0xbc0fd5d3	-0.008779007
243	0xbbf19063	-0.0073719486
244	0x3cc2c435	0.0237752
245	0xbc46f7e0	-0.012144059
246	0x3d49a45b	0.049229007
247	0x3baf0723	0.005341427
248	0x3cef52d5	0.029214302
249	0x3c7dd313	0.015492219
250	0x3ce271f4	0.027642228
251	0x3b46ad92	0.0030315858
252	0x3d0ccd41	0.034375433
253	0xbb379199	-0.0028010367
254	0xbd1d5e4c	-0.038420007
255	0xbc0554f8	-0.008137934
