outputs/nca/Brini_128x128_model.pt (torch, 68429 bytes, 3 tensors)

brain.0.weight f4 [128, 48, 1, 1]
00000000: 77e9 84bd a63d 99bd 3349 d2bd 380a 253e
00000010: 3ea1 4f3d dfaf b83d 6e50 dbbd 8471 203a
00000020: 5364 88bc dd35 003e 38b0 cabd 8fb6 303e
00000030: 6d2a 413e 08dd 59bc 57c8 1c3a 4b92 273d
00000040: 0d01 25bd f095 793d ee0e a93e e683 4d3b
00000050: 92db 983d 58db c33e 697b 953c b906 13bc
00000060: 0e92 75bd 9c6b c5bc d0d5 a93c 113a 9cbd
00000070: 6b47 21bd 594c 71bc 8cef f23b d40c 37bb
00000080: 8db8 d63c eab3 ebbd 3f3b 35bd 0711 f4bc
00000090: 5d77 573d 0759 7cbc 8380 10bd cc2d 013e
000000a0: 2e1f dd3c f1c3 cebc a5c3 323d fc35 283d
000000b0: 328e 4cbc 99a3 0bbe 078c 2c3c 2d20 1e3d
000000c0: b173 453e 6990 09be 426c f03c de94 983e
000000d0: f670 b2bd 1b6e d3bd a9f5 183e 4c13 183e
000000e0: 0a3e f63c 9a16 12be c812 34bd 176c fabc
000000f0: d07a bd3d b4dc a73d 7607 18bd cf8c 433e
00000100: 861e ac3d c24f 313c d1ba 393c 562c 07bd
00000110: 15fb a73d 6257 75be d8f5 7e3d 335e 2dbd
00000120: 45c5 9f3d 8ec0 70bc 0237 dfbb 3606 8cbe
00000130: 43da ff3c 344f b43c 18a9 fb3d 0ee9 a8bc
00000140: 115b e5bc 381b 733e 1050 a13c 038d 9ebc
00000150: f5a5 863e 3a81 b13c 8fdd 5ebd 24cb 32be
00000160: f3e2 4e3d f1b2 bb3b 20c7 e8bc 21c7 783b
00000170: e034 49bc a3be 013b f358 ac3c fd9d f9bc
00000180: 48f8 57be 247b 383e 3166 2c3c 44e6 ce3d
00000190: 13e0 23be 255d 26bd f02c 4c3d 37dc 823c
000001a0: 0d0b 803d 187d 71be 3cd3 283d 6236 cbbc
000001b0: d180 9c3d 2362 2abe 9d74 b83d c5b0 1ebc
000001c0: 02d6 db3d af9d 5abd 3ab6 87be be71 ce3b
000001d0: 6678 e6bd 2726 4cbd 74b2 1bbe c659 443c
000001e0: ef28 93be f0e2 19bc c375 d93d 2aeb 13bb
000001f0: 3d25 8cbd f1a2 bf3d 3912 a03d 74ea 92bd
00000200: fc79 8e3d 0acb 13be a814 2cbd 4096 ec3c
00000210: 93c4 2dbe c5cd 87bd 51f7 a9bd cf9c 91be
00000220: 7824 ccbc 2993 c73c ed66 a83e ddd8 8cbd
00000230: 0297 bd3c 9181 fdbd d41a 0ebe 2240 943d
00000240: 243c 043e f268 bb3d 3305 643d 0014 0e3e
00000250: 76bf c33d e7c5 073c 65cd f83d 6764 efbc
00000260: 28cd cabc b3db 7ebd 7dbd 2bbd 0699 dcbd
00000270: 99aa af3e 6d0e f23c 1538 30bd e007 b3bd
00000280: 7198 ad3d 4989 823d 4006 373e 16b7 88bd
00000290: aa6d a13c eb0f 443e f9ea 913c b7f3 fdbc
000002a0: 40b2 2abc b33d 20bd e42f a93c cbb6 b43d
000002b0: 3f12 573d 4b46 9c3c dbcb 413e 81f8 563d
000002c0: dad2 9dbd 9b68 06be 3924 e1bc 0cbb 88bd
000002d0: 2194 a5bd d06d f93c 6759 8abc 00de acbd
000002e0: 5ced a7bc 08a9 033e 6983 e2bd 531d dd3c
000002f0: ad73 01bd e266 91be 137f 05be d7e8 0d3d
00000300: 7420 363d 8692 88bc e212 eebc b90e 3ebe
00000310: 9d91 4abd 369a 9eba f2fd cd3c 8cc5 17bc
00000320: f559 1dbe e095 95be d9db ef3c 5f51 163d
00000330: 981e 4abe 0e6a 003d 8e44 be3d a7f0 323e
00000340: e80d fcbc da5e c2bd 55a0 143e ed3d 61bc
00000350: 72ff 083e 407a 92bd bdab 98bd d99e 63bc
00000360: ff57 70be 272b b93d 84b8 0e3e 5c97 febd
00000370: ea3d ec3c 8e6b 7abc d346 d83d 1c1a 083e
00000380: 5c8e 02bd 8cfe ba3d 8546 cd3d b6f4 09bc
00000390: 19bb 233e 7cee 03bd 4a4e 423e f26f 1cbe
000003a0: b0e2 a93c eef1 a73b eba8 0e3c 2475 0dbd
000003b0: 579e 903c 59ef 91be 8a1c f03c e4c7 943c
000003c0: b1cb 67be 6e06 17bd 1f02 953d f17f cc3d
000003d0: 0688 853d 7cfd 6dbc 8bde a23e 6412 fa3c
000003e0: be81 0139 bce3 0fbe 443f 313d 1340 19bd
000003f0: 74c6 f53d cba0 ad3c f656 bf3b 80eb bf3c
-0.064898424 -0.07482462 -0.10267868 0.1611718 0.050690882 0.0901792 -0.107087 0.0006120431
-0.0166494 0.12520547 -0.09896892 0.1725714 0.1886384 -0.013297327 0.00059807807 0.040911
-0.040284205 0.060934007 0.33019203 0.0031359135 0.07463755 0.38253284 0.018247323 -0.008973771
-0.05995374 -0.024099164 0.020731837 -0.07628263 -0.03937475 -0.014727675 0.00741381 -0.002793123
0.026211048 -0.11508925 -0.044245955 -0.029793276 0.052604068 -0.015402085 -0.03527881 0.12615126
0.026992407 -0.025239917 0.043643612 0.04106711 -0.012485074 -0.13636626 0.010531432 0.038604904
0.19282414 -0.13433994 0.029348496 0.29801077 -0.08712952 -0.10323735 0.14937462 0.14851111
0.03005888 -0.14266434 -0.043963224 -0.03056912 0.0925194 0.08196393 -0.03711649 0.19096683
0.084042594 0.010822238 0.011336044 -0.033001266 0.08202187 -0.23959115 0.062246174 -0.042326164
0.07801298 -0.014694346 -0.0068119774 -0.2734849 0.031232005 0.022010423 0.122881114 -0.020618942
-0.027997525 0.23740852 0.019691497 -0.019354349 0.2629849 0.021668065 -0.054410513 -0.17460304
0.050509404 0.0057281186 -0.028415263 0.0037960487 -0.012280673 0.0019797466 0.021038508 -0.030470842
-0.21090806 0.18015724 0.010522411 0.101025134 -0.16003446 -0.040616173 0.049847543 0.015974147
0.06252108 -0.23582876 0.041217074 -0.024806205 0.07641757 -0.16638999 0.09006617 -0.0096857
0.10734178 -0.053373035 -0.26506215 0.00630018 -0.11253433 -0.049841072 -0.15204793 0.011984294
-0.28742167 -0.009392485 0.106181644 -0.0022570589 -0.0684304 0.093572505 0.07815976 -0.07173625
0.069568604 -0.14432922 -0.042011887 0.028880239 -0.16969518 -0.06631044 -0.08299125 -0.28439948
-0.024919733 0.024362164 0.32891026 -0.06877301 0.023143295 -0.123782285 -0.13877422 0.07238795
0.12913567 0.09150876 0.05566902 0.13874817 0.09558003 0.00828693 0.12148551 -0.02922268
-0.02475603 -0.06222124 -0.041928757 -0.107713744 0.34309843 0.029547894 -0.043022234 -0.087417364
0.084763415 0.06373841 0.17873478 -0.06675546 0.019705612 0.19146697 0.017812239 -0.031000001
-0.010418475 -0.03912134 0.020652719 0.088239275 0.052507635 0.019076487 0.18925421 0.052483086
-0.07706232 -0.13125841 -0.027483093 -0.06676301 -0.08084894 0.03044787 -0.016888333 -0.08440781
-0.020498924 0.12857449 -0.11060221 0.026991522 -0.031604458 -0.28398806 -0.13036756 0.03464588
0.044464543 -0.01667143 -0.029061738 -0.18560304 -0.049455274 -0.0012100402 0.025145505 -0.009263407
-0.15366347 -0.29215908 0.029279636 0.036698695 -0.19738233 0.03135114 0.092904195 0.17474614
-0.03076835 -0.09490748 0.14514287 -0.013747674 0.13378695 -0.071522236 -0.074546315 -0.013892853
-0.23471068 0.09041434 0.13937575 -0.12431213 0.028838117 -0.015284432 0.10560384 0.1329121
-0.031874046 0.09130582 0.10023216 -0.00842016 0.15989341 -0.03220986 0.18975177 -0.15277079
0.020737976 0.005125276 0.008707265 -0.034535542 0.017653627 -0.2850292 0.029310483 0.018161722
-0.22636296 -0.036871366 0.07275795 0.099853404 0.06520085 -0.014525767 0.31810412 0.030526347
0.00012350731 -0.14051718 0.043273225 -0.03741462 0.120007426 0.021194836 0.005839224 0.023427725

brain.0.bias f4 [128]
00000000: 6dd9 76be 6009 29be 4798 1fbe 2d5e 64be
00000010: 62ea b3bc 0ee7 ff3d 72e1 70bd 935f eabc
00000020: 2756 95be 576d 3cbc 3f18 9fbd 84a9 abbd
00000030: 223c 9c3d 8047 8cbb 399f 98bd 8565 babe
00000040: 40c2 b0bc ae05 bbbd e11f 93bd eb71 40bb
00000050: 49be 37be 83ab 053e 7833 96be 7f67 07be
00000060: c2c5 e6bb 4bc6 b83d 1e00 a5bd d22b 94bd
00000070: 60d9 10be 8795 74be bfe2 ca3c 9c9f 07bd
00000080: ebb5 12be def8 0abd a86f 873c 251c 86bd
00000090: 6093 38bd 3885 803c eb23 093d d97e 0fbd
000000a0: 5566 92bd 8760 11bd 4a4c 5fbe 230d d0bd
000000b0: 3188 9b3d 441f 2cbe 89b8 e53c 7b9b 64bc
000000c0: 46d6 dcba 5e42 ccbd ba6e c0bd 44bd 193c
000000d0: db78 063e cbd7 28bc 87a5 11ba 2385 08be
000000e0: 972a a8bd 1085 48be a08e 98bd 8c7b 20be
000000f0: fa7a 57be e4a3 35bd 9e0c 89bb eecd 43be
00000100: 774e 96bd ac14 e33d 50dd 8e3d fa52 8cbe
00000110: 2672 8fbe c650 c33d 6360 aebd a481 393e
00000120: 4c02 1a3e 6769 c13d 4403 1b3e 8925 0ebe
00000130: ea74 79be 8a1a f0bd e30b a9bd 177e 20be
00000140: b912 1bbd 5f03 07bd e94a 2fbe 21f7 eabd
00000150: e127 b53d b02b a0bd 25c8 093e eb09 093d
00000160: 919f 8bbd 888a abbd 6117 2cbe ca74 78be
00000170: 9aed d93c 6956 4dbd e290 003d b115 19be
00000180: 97aa 44be d914 54bd f85f cb3c f07b 3cbe
00000190: 42c2 c0bd 8820 63be 108d d73d a1f3 7f3d
000001a0: c9e1 f6bb 8bc5 633d 2948 9fbc 2cad 8bbe
000001b0: 57b3 50bc 6761 ea3c 6b00 6abd 4c52 54be
000001c0: a330 2bbe ec39 64bc 4e13 c6bd 254e 62be
000001d0: fbf4 76bd 9ff9 07bc cce5 59bd 95fb 3fbe
000001e0: b31f 863d 2e81 d23c 15ea a5bd 887b eebd
000001f0: 4c28 aebd 47e3 943c f077 f83d 4562 203e
-0.24106379 -0.16507483 -0.15585433 -0.2230155 -0.021962348 0.12495242 -0.05880875 -0.028610026
-0.29167292 -0.011500678 -0.077682965 -0.08381942 0.07628657 -0.0042809844 -0.07452244 -0.36405578
-0.021577 -0.09131943 -0.07183815 -0.0029364775 -0.17943682 0.13053708 -0.29336143 -0.13223074
-0.0070426175 0.090221964 -0.08056663 -0.072349206 -0.14145422 -0.23885165 0.024766324 -0.0331112
-0.14327209 -0.033928744 0.016532734 -0.06548337 -0.045062423 0.015688524 0.03348152 -0.03503308
-0.071484245 -0.035492446 -0.21806446 -0.10158756 0.07594336 -0.16808802 0.028042095 -0.013953085
-0.0016848526 -0.09973596 -0.093961194 0.009383503 0.1313204 -0.010305355 -0.00055559765 -0.13332038
-0.08211248 -0.1958201 -0.074490786 -0.1567213 -0.21043006 -0.04434575 -0.0041824123 -0.19121525
-0.07339185 0.11087927 0.06975806 -0.27407056 -0.28016776 0.09536891 -0.08514478 0.1811586
0.15039939 0.09443932 0.15137964 -0.13881506 -0.24361005 -0.11723812 -0.0825422 -0.156731
-0.037859652 -0.0329622 -0.1711842 -0.11472917 0.08845497 -0.07820833 0.13455255 0.033456724
-0.06817544 -0.08376032 -0.16805793 -0.24263301 0.026602555 -0.050131235 0.03138817 -0.14949681
-0.192057 -0.051777694 0.024826035 -0.18406653 -0.09412052 -0.22180378 0.105249524 0.062488202
-0.00753424 0.055608314 -0.019443588 -0.27280557 -0.01273807 0.028610898 -0.057129305 -0.20734519
-0.16717772 -0.013929825 -0.09671651 -0.22100122 -0.060292225 -0.00829926 -0.053197667 -0.18748315
0.06549015 0.025696363 -0.08101288 -0.116446555 -0.0850378 0.01817478 0.12132251 0.15662487

brain.2.weight f4 [16, 128, 1, 1]
00000000: 03e0 2cbd 3db5 53bd 959d 283c 00e4 16bd
00000010: 9100 82bc fd51 043d 90dd 8d3a fa90 663d
00000020: 4515 a3bc e21f 28bd 0eef dc3c 3e7c 803d
00000030: 65d4 d93d 7107 d2bc 1045 5f3a c3f5 e7bd
00000040: dad9 233d 3808 25bd b34d afbd f1ee 94bd
00000050: 6bcf 683d d8a7 bc3a 316c e439 e780 703c
00000060: d023 df3c d452 003e a998 0a3d 2d6c 0ebd
00000070: 8b22 41bd eb46 263d c16c 703d cb9b 34bd
00000080: a649 00bd 004c dbbc 3ba8 a93d b149 be3c
00000090: 3265 ec3c 24e7 93bd 2587 193c 8691 0abd
000000a0: d7dc a0bd 8d73 503d ec25 6e3d a279 8d3c
000000b0: c5fc 203e e2e1 18be 823b 913d 308d 843c
000000c0: bd44 0bbd 0cd3 50bd cee7 0abd 8c76 a53d
000000d0: 1213 0abc 69da 2ebd d160 eb3c 3eef b83c
000000e0: 4759 003d 2e58 80bd 7ce5 983d 3722 cbbc
000000f0: 0789 91bd bd4c 903d 0de2 8c3d f39d 0d3d
00000100: c9aa 8b3d 44e6 d33b 0ffe 4dbd 5331 52bd
00000110: 1795 683d f1ce 903c c9d2 b93c fb53 a6bd
00000120: 6b8e 6bbc e303 e4bc 25e3 7ebd 351f 02bd
00000130: f7eb ceba 7966 93bd 0bab 8f3d 6aa8 693d
00000140: 108e dfbc 7b5d 76bc 8ff2 12bd 7be7 7ebd
00000150: 47ff 973d 5cf4 aebb 8588 36bd 890b 593d
00000160: 43da 05bb 15ae a73c d9a9 9abd 6133 e4bd
00000170: dcd1 5e3d 474f fdbd 3b8e 953d 9338 c8bc
00000180: 39f0 98bc b186 c33c 30cd 98bc 8bbb 23bd
00000190: f94f 083d bf9f c6bd cd4c 1d3d 69fd a63d
000001a0: b89a 60bd 39a7 01bc 2c7b 2b3d 2e11 67bc
000001b0: 6c23 493d 3c3e c8bd 1477 453c 9e14 c9bd
000001c0: 619e 8cbd 192e 02bd f400 c3bd af5e f23d
000001d0: a7fe b93d 1bbf 42bd 7b73 11bc 44fa ad3c
000001e0: 47a3 a33c 2b67 833c e124 3a3c 9f64 06bd
000001f0: 16fd 653d 8db2 c33b 34e8 323d 86c3 e9bc
00000200: 0966 cfbc 7d57 19bd d28a 9bbd 4a2c 1abd
00000210: f4bb 9e3c b664 1f3b 8cd3 b83c 88a1 4a3d
00000220: ef3f fdbb d812 34bd d493 683d a3ba 033d
00000230: 200a 9b3d 8035 ebbc 1ed6 4f3b 03fd d0bd
00000240: 5396 223d ff97 6cbd 993e b7bd b42e 213e
00000250: 84e0 763d c087 023d 029b f63c a3a3 293c
00000260: 88ef 823c 1449 c33d 64be 393d c3e9 57bc
00000270: 187e 10bd c802 493d fb31 fd3c 0d74 84bd
00000280: 8ed8 9cbc 0714 d1bc 5a62 803d 670d 263d
00000290: 1498 0c3c c518 53bd 4db3 033c 038a ea3b
000002a0: 7a6d 03bd a5d9 433d f0b0 663d eb0b 9d3c
000002b0: c4ab db3d 7858 f0bd a4eb 553d ebbd 613c
000002c0: 18d6 e2bc 3c61 34bd b578 53bc 2667 5d3d
000002d0: f311 9fbc a4b1 5fbd ce00 1d3d 4197 ac3c
000002e0: bf2c 443d 1771 55bd 3850 12be 0a78 cfbc
000002f0: b310 28bd 67bd 013d d4c6 9d3d 0e60 bf3c
00000300: b987 103d 00ac bebc 7e85 22bc 7b71 05bd
00000310: e140 7ebc 4aa4 373b 619b f83b 09b3 b1bd
00000320: a6e2 26bd 51eb e2bc 9834 7fbd 943d a6bc
00000330: d380 18bc 1890 62bd 84cd 643d e630 b63c
00000340: df3f d03c cc17 603c 8bc1 2bbd e798 2ebd
00000350: d9a2 a63d 468c 8d3b 0044 8fbc 78d6 3d3d
00000360: dda2 a33b bb34 6c3c d886 90bd 10b0 9fbd
00000370: 5b5d 463d 763c 9ebd 3aac 583d c3f2 c1bc
00000380: 193b b83c f254 353d bfa9 3cbc a84d 8dbd
00000390: c759 0f3d 17a5 c7bd 729a c53c 6412 923d
000003a0: e631 20bd eccf 173d cfb0 163d 40d5 50bd
000003b0: abc7 df3c a6e0 b2bc 4a11 f2bc 25d5 88bd
000003c0: 0c6d 71bd 286d b8bb 0ac0 83bd dd63 933d
000003d0: 91aa ab3c fe54 75bd 7adb eb3a 36b4 503c
000003e0: c09e 7abc f21e 333d 3f55 433c 28b7 703d
000003f0: 199b bd3c b833 073b 5a45 263c ee1b b33c
-0.04220582 -0.051686514 0.010291477 -0.03683853 -0.01586941 0.032304753 0.0010823477 0.056290604
-0.019907603 -0.04104603 0.026969459 0.06273697 0.10636214 -0.025638314 0.0008517066 -0.11326172
0.04000268 -0.04029104 -0.08559742 -0.07272137 0.056838434 0.0014393283 0.00043568158 0.01467917
0.027238756 0.12531596 0.033836994 -0.034771133 -0.047152083 0.040594976 0.058697466 -0.04409389
-0.031320237 -0.026769638 0.082840405 0.023228498 0.028856847 -0.07221821 0.0093706 -0.03383019
-0.07854622 0.050891448 0.058141634 0.017269913 0.15721424 -0.14929917 0.07091428 0.016180605
-0.0340011 -0.05098252 -0.033912472 0.08079252 -0.008427398 -0.04268876 0.02873269 0.022575017
0.03133514 -0.06266819 0.07465646 -0.024796588 -0.07106214 0.07045887 0.06879053 0.03457446
0.06819684 0.006466659 -0.050291117 -0.05131657 0.05678281 0.017676802 0.022683518 -0.08121487
-0.014377217 -0.027833885 -0.06222834 -0.031768043 -0.0015786876 -0.071972795 0.07015046 0.057045378
-0.02728942 -0.015036936 -0.035875853 -0.062232476 0.07421737 -0.0053391885 -0.04456379 0.052989516
-0.0020424284 0.020468751 -0.07551927 -0.11142612 0.054399356 -0.123686366 0.07302519 -0.02444104
-0.018669235 0.023867937 -0.018652529 -0.039973777 0.033279393 -0.09698438 0.03840332 0.08153803
-0.05483505 -0.007913404 0.041865513 -0.014103217 0.049106047 -0.09777495 0.012052316 -0.098183855
-0.06866146 -0.031782243 -0.09521666 0.11834466 0.09081774 -0.047545534 -0.00887763 0.0212375
0.019975318 0.016040405 0.011361332 -0.032810804 0.056149565 0.0059722126 0.043678477 -0.028535616
-0.025317209 -0.03743695 -0.07594837 -0.037639894 0.019376732 0.0024321503 0.02256181 0.049470454
-0.0077285687 -0.043963283 0.056781605 0.032160413 0.075702906 -0.028712034 0.0031713317 -0.10204508
0.03969414 -0.057762142 -0.089474864 0.15740472 0.06027271 0.031867743 0.03010321 0.010353955
0.015983358 0.09535423 0.045347586 -0.013178292 -0.035276502 0.049074918 0.030907622 -0.064674474
-0.01914623 -0.025522245 0.06268759 0.040540125 0.00858118 -0.051537294 0.008038354 0.0071575656
-0.032086827 0.047814984 0.056321084 0.019170722 0.10726121 -0.11735624 0.052226678 0.01377819
-0.027689978 -0.044038042 -0.012907197 0.05405345 -0.019417739 -0.05461277 0.038330846 0.021068217
0.047894236 -0.052109804 -0.14288414 -0.025325794 -0.04103155 0.03167477 0.07703939 0.023361232
0.035285685 -0.023275375 -0.009919522 -0.032578927 -0.015518398 0.0028021508 0.007586882 -0.08676726
-0.040743493 -0.027700098 -0.062306017 -0.020293035 -0.009308058 -0.0553132 0.055860057 0.022240113
0.025421081 0.013677549 -0.041932624 -0.042626288 0.081365295 0.0043197004 -0.01748848 0.04634711
0.00499378 0.014416869 -0.070569694 -0.07797253 0.048428874 -0.07726376 0.052898623 -0.023675328
0.022489117 0.044270463 -0.01151508 -0.068995774 0.034997728 -0.09748285 0.024121497 0.07132414
-0.039110087 0.037063524 0.03678971 -0.05098462 0.027316889 -0.021835636 -0.02954926 -0.06681279
-0.058941886 -0.005628247 -0.06433113 0.07196782 0.020955356 -0.059895508 0.0017994486 0.012738278
-0.015296638 0.043730684 0.01192218 0.05876842 0.023145245 0.0020630192 0.010148371 0.021863904
