outputs/nca/Brini_128x128_interrupted_epoch53_model.pt (torch, 46081 bytes, 3 tensors)

brain.0.weight f4 [128, 48, 1, 1]
000000 ef 21 13 ba 11 af 9d 3d b2 55 f8 bd 31 e0 f3 bd
       -0.00056126615 0.07699407 -0.1212572 -0.119079955
000010 3c dc 61 bc da e1 ba 3c 20 ef 5b 3c c3 23 d7 3d
       -0.013785418 0.022812773 0.013423711 0.10504868
000020 f1 1c 72 3d cf 83 c0 bd 7b 57 3f bd e1 3b 5f 3d
       0.059109632 -0.094001405 -0.046714287 0.054500464
000030 d7 e8 8a bd 18 8c 12 3e bb 8b 03 3e e4 9f 13 3e
       -0.06782692 0.14311254 0.12846272 0.14416462
000040 36 ec 99 bd 9d 06 f6 bd 2c 98 cd bd 7a 9e 3b bc
       -0.07515757 -0.1201298 -0.1003879 -0.011451358
000050 1f c9 e8 3d 86 48 da bc 66 df f9 3d e6 75 d5 bc
       0.11366486 -0.02664591 0.12200813 -0.026057195
000060 8b 68 f1 bd d6 38 d1 bd f6 5f db bd b0 5d 10 3e
       -0.11787518 -0.10215919 -0.107116625 0.14098239
000070 e3 bc 8f 3b ac 06 02 be 9a 56 ae bd 4d 87 49 bd
       0.0043865307 -0.12697858 -0.08512612 -0.0492013
000080 c3 71 0d 3e 0d 05 35 3d 10 ac c2 3d e7 9f 0c 3a
       0.13812928 0.04419427 0.095054746 0.00053644035
000090 e8 b0 68 bd f6 de 06 be 04 e3 e7 bc 6d 47 be 3d
       -0.056809336 -0.1317099 -0.028306492 0.09290967
0000a0 6a 16 5f bd 42 ae 85 bd 74 ae e4 bd c9 c2 7b bd
       -0.054464735 -0.06527378 -0.11166087 -0.06146506
0000b0 13 3e af 3d 58 de db 3d 36 1c 06 be 04 2e 34 3d
       0.085567616 0.10735768 -0.13096699 0.043989196
0000c0 35 df db bd 79 15 a5 3c 97 2c 9c 3c 34 a5 1d bc
       -0.10735933 0.02015184 0.01906423 -0.009621907
0000d0 b4 52 92 bd 88 79 a9 3d 5b 0e 1b be e1 51 bb 3c
       -0.071446806 0.08275133 -0.15142195 0.022866191
0000e0 7b 9e 9e 3d 30 ba 0d be be 34 33 bd 9d 22 42 3d
       0.077450715 -0.13840556 -0.04375147 0.04739629
0000f0 d6 ac dc bd 88 a8 03 be 13 7c 04 3e fa d6 47 3c
       -0.10775153 -0.12857258 0.12937956 0.0121972505
000100 99 66 f0 3d dc c6 d1 bd 53 da d6 bd e5 9f ae 3d
       0.11738319 -0.102430075 -0.10490861 0.08526591
000110 ae da 7b 3d ae 35 84 3d 2b 7c 67 3c 9c c4 cd 3d
       0.061487846 0.06455551 0.014128725 0.10047266
000120 da 29 b0 3d 78 d5 39 3d c8 c9 b9 bd 16 8e 16 bd
       0.086017326 0.045369595 -0.0907169 -0.036756597
000130 bc 46 ec bd d4 62 1b be f9 59 11 bd 55 99 9a 3d
       -0.11536929 -0.15174419 -0.035486195 0.07548777
000140 62 43 53 bd 6b 41 c4 3c 60 d0 0b 3e 90 f2 0e bd
       -0.051577933 0.023956975 0.13653708 -0.034899294
000150 73 03 75 3b 1a dc ac bd 54 6b 9a bd 8d 95 25 bd
       0.003738609 -0.084404185 -0.075400025 -0.040425826
000160 20 36 b8 3d cb f1 82 3c 62 c9 bc 3d 58 b1 8a bd
       0.089946985 0.015984436 0.09218098 -0.06772107
000170 7b 53 cf 3d 5c 87 cd 3c 83 df df bd 7b be 9e 3d
       0.101233445 0.025088958 -0.10931303 0.07751175
000180 ca c1 1c bd 82 ed ec bd e4 51 f9 3d c3 69 84 bd
       -0.03827075 -0.115687385 0.121738225 -0.06465485
000190 d5 9b 1a 3d 04 ef 4c bc 8a a9 37 be 52 81 1b bd
       0.03774627 -0.012508158 -0.17935768 -0.037965126
0001a0 ca 9f aa bd 2b 5f c8 bc 02 9c fe 3d b0 a8 07 3c
       -0.083312586 -0.024459442 0.124321 0.008279964
0001b0 3f a4 bf bd 6a 86 bf ba 5d 83 27 3d 34 6a e1 3d
       -0.09357499 -0.0014612202 0.040896762 0.11006585
0001c0 02 01 47 bd dd 93 58 bd cf 9f fe 3d 2b 16 a8 bc
       -0.048584945 -0.05287539 0.12432825 -0.020518383
0001d0 33 6b cb bd 6f 04 c8 3d 64 1b d5 bd 8e 8f 1d bd
       -0.09932556 0.09766471 -0.10405615 -0.038466983
0001e0 c8 bb e7 3d f9 35 25 3e e4 e1 5a bd ea 25 96 3d
       0.11315113 0.1613387 -0.053438082 0.0733145
0001f0 18 f3 b1 3d 18 d3 86 3d 48 94 0f 3e fb bb 55 bd
       0.086889446 0.06583232 0.14021409 -0.052181225
000200 07 78 de bc 8a 34 27 3c bb a3 8a bd 8c db 24 3d
       -0.027156843 0.010205397 -0.0676951 0.04024844
000210 f4 3c 9b bd 0a be cf bd 21 5d bf 3d ad be 3c bc
       -0.07579985 -0.10143669 0.09343935 -0.01152007
000220 07 24 64 3d 74 b4 62 3d 3a 7a 05 be 9e 21 c5 bd
       0.05569842 0.055347875 -0.13034907 -0.096255526
000230 a4 4a 97 3d 0f e9 61 3c dc 8b d1 bd 1c a5 8f bd
       0.073872834 0.013788476 -0.10231754 -0.07013914
000240 b3 c3 2f 3c 5b 4f e2 3d 2d 93 01 3e 36 18 27 bc
       0.010727811 0.11050292 0.126538 -0.010198643
000250 4b 59 8c bd 41 10 a0 3d 53 23 d8 3c 38 ab 11 be
       -0.06852969 0.078156 0.026384031 -0.14225471
000260 05 9c a6 bd 27 0f 21 be 79 dd ab bb 3d 4a b9 3a
       -0.08135227 -0.15728436 -0.0052449075 0.0014136505
000270 68 02 e7 3d 41 ba 9d bd 9f d2 ce 3d 37 9e 39 bd
       0.11279756 -0.07701541 0.100987665 -0.0453169
000280 87 d8 b8 3d d8 13 6a bd 54 fd 0e be 94 02 62 3c
       0.09025674 -0.05714783 -0.13963825 0.01379456
000290 59 ce a9 bd ba 58 8b bd 64 af 3f 3d a8 3e f2 3c
       -0.08291311 -0.068040326 0.046798125 0.029570892
0002a0 51 ea d1 bd 6c df fd bd cd 54 1a bc 40 e5 98 3c
       -0.102497704 -0.1239613 -0.009419632 0.018664002
0002b0 06 e1 20 3d e8 ae b8 3d 1c a6 0b bd d7 85 ab bd
       0.0392771 0.09017736 -0.03409396 -0.08375137
0002c0 3f 5a e8 3d e1 19 77 bd 48 0d 74 3d 72 9d e7 bd
       0.11345338 -0.060327414 0.05958298 -0.11309327
0002d0 2c e0 9f 3c 22 d5 f0 3d f5 70 4a 3d bd 2e ae bd
       0.019516073 0.11759402 0.04942413 -0.08505008
0002e0 a5 cc 4c 3d c8 69 71 bd 9e 05 08 be fe 7c c8 bd
       0.04999985 -0.05893877 -0.13283393 -0.09789465
0002f0 42 75 99 3d 37 c6 f3 bd db 34 c4 3d 14 b3 e2 bd
       0.07493068 -0.11903041 0.09580394 -0.11069313
000300 99 30 48 bd 28 63 00 3e 9a 9a 54 bc f7 b8 92 3c
       -0.04887447 0.12537825 -0.012976313 0.017910464
000310 c2 94 00 be 72 ad 81 3d 66 dd 7f 3d 92 fd 7a bd
       -0.12556747 0.0633191 0.062467 -0.06127698
000320 61 c7 01 3d cb 37 6c 3d bc ba 44 3d 2f 95 cb 3d
       0.031684283 0.057670396 0.048029646 0.09940564
000330 91 25 b2 bd 0d f1 c9 3d 88 2f 47 3c 08 18 ed 3d
       -0.086985715 0.0986043 0.012157328 0.11576849
000340 81 e3 81 3d fc 69 df 3b 0a 86 50 bd 0b 80 d9 bd
       0.06342221 0.0068180542 -0.05090908 -0.106201254
000350 df ac 26 bd e4 93 c5 3d f1 dc 08 be e3 20 b0 3c
       -0.040692206 0.096473485 -0.13365532 0.021500057
000360 7c ca 51 3b c7 fb f0 3c 4f 57 74 3d 0c 51 be bd
       0.003201156 0.029416932 0.059653576 -0.09292802
000370 df c6 25 3d b0 a5 56 bd f1 4d 3c be 7f 99 cc 3d
       0.04047286 -0.052404106 -0.18389107 0.099902146
000380 7b ac a1 38 7d 01 06 be 79 55 a2 3d 0d 4e 8a bc
       7.709205e-05 -0.13086505 0.07926459 -0.01688292
000390 d9 d3 00 3e 41 34 da ba 11 84 ec bd d4 3c 93 3d
       0.12580813 -0.0016647653 -0.11548627 0.071893364
0003a0 96 5f fa bd d8 73 48 3d 81 e3 4f 3d 77 15 06 3d
       -0.12225263 0.048938602 0.050754074 0.032735314
0003b0 cb 65 4b 3d 2a 0b 21 be 68 41 33 be f1 f7 34 bd
       0.049657624 -0.15726915 -0.17505419 -0.044181768
0003c0 08 dc 15 be 67 c7 b8 bd cf 6d e7 bd bb e2 ed bd
       -0.14634717 -0.09022408 -0.11300241 -0.11615511
0003d0 5d d3 9c 3d f8 db a7 bd 9a 62 72 bd bc 4f 78 bd
       0.07657502 -0.081962526 -0.059176065 -0.060622916
0003e0 75 64 29 3d 5f f9 8b bd 12 eb fa bb 64 07 85 3d
       0.04135557 -0.06834673 -0.007657417 0.0649555
0003f0 01 fd 59 3d a0 dd 84 bd 46 e0 9a 3d f5 ec 15 be
       0.0532198 -0.06487584 0.07562308 -0.14641173

brain.0.bias f4 [128]
000000 b2 c4 b2 3d ea 9d 9d bd b2 89 3d bd b3 cb a7 ba
       0.08728923 -0.07696135 -0.046273895 -0.0012801796
000010 a4 bf f6 bd 9c de 6d 3d 74 d9 04 3e bf cf c1 bd
       -0.12048271 0.058073625 0.12973577 -0.094634525
000020 05 3d 0d 3c 47 df ef 3d f4 d3 e5 bd 5e aa 80 3d
       0.008620505 0.11712509 -0.112220675 0.06282495
000030 42 d5 04 be 63 f0 98 3d 2f 28 d8 bc eb ea a2 3c
       -0.12971976 0.07467725 -0.026386349 0.019887408
000040 4f 31 c8 bd 79 36 80 bd ec d8 37 3b 58 8b 60 3d
       -0.0977503 -0.0626039 0.002805288 0.05482039
000050 bc a9 9e bc e9 14 fe bd cd 10 ae ba c0 f0 44 3d
       -0.019368045 -0.12406332 -0.0013280154 0.04808116
000060 c8 7e 16 be 71 2b e9 bd 4a 97 0f be f6 de 98 bd
       -0.146968 -0.11385239 -0.14022556 -0.074644014
000070 f7 4c ca 3d b9 d6 a0 3c 5f 8d b9 bc 0e 90 b3 bd
       0.09877961 0.019633638 -0.022650419 -0.087677106
000080 8b 2a b4 3d c4 1e c9 3d 1f 84 db 3d 7b 88 70 3d
       0.08797177 0.09820321 0.107185595 0.058723908
000090 48 60 e9 bd 73 f0 e4 bd 11 bc df bd 79 bb 2a bd
       -0.11395317 -0.111786745 -0.10924543 -0.041682694
0000a0 52 42 1d 3e 51 8c 94 bd cc 23 12 3e ef 4f 0b be
       0.1535733 -0.07253326 0.14271468 -0.13604711
0000b0 52 19 b6 3c 4a 84 95 bd a5 49 f4 bd d6 fc a5 bd
       0.02222887 -0.07300623 -0.11928109 -0.08104865
0000c0 87 0f cf 3d 47 2b 2a bd 01 14 bc 3d 71 52 62 3d
       0.101103835 -0.04154518 0.09183503 0.055254404
0000d0 f4 2f a4 bd 55 e5 fe bd a3 c8 10 be b6 68 93 3d
       -0.08016959 -0.12446085 -0.14139037 0.071977064
0000e0 df 6f 8d 3d 87 0a 28 be e5 fa 6a 3c 73 ad f5 bd
       0.06906103 -0.16410266 0.0143420445 -0.119959734
0000f0 23 02 85 bd 28 03 ba bd 62 33 6b 3d da 4c 80 bd
       -0.06494548 -0.09082633 0.05742205 -0.06264658
000100 0e 9a 38 bd a8 d7 90 3d ca 11 8e 3d 4e f1 7c bd
       -0.045068793 0.07072383 0.06936987 -0.061753564
000110 de 72 08 be 56 26 aa bc a0 1e c5 3d a3 e6 f8 bb
       -0.13325068 -0.020770233 0.09624982 -0.0075958534
000120 5d d9 a2 3d 36 43 3f bd 1d 10 e6 3d a2 3e f1 bd
       0.07951615 -0.046694957 0.11233542 -0.117795244
000130 15 59 f0 bd c6 77 87 3c 5f 84 24 3d a7 14 02 bd
       -0.11735741 0.016536605 0.0401653 -0.031757977
000140 f4 99 56 3d b5 83 3e bd ce 47 91 3d a1 c8 9a 3c
       0.052392915 -0.046512324 0.07093774 0.018894495
000150 40 33 f4 bd 65 66 a6 bc a0 2f 00 3e 00 8a 16 be
       -0.11923838 -0.020312497 0.12518167 -0.1470108
000160 c8 6b 95 bc 46 1a b3 3c 86 09 00 be 8e ee b3 bd
       -0.01823987 0.021863114 -0.12503633 -0.08785735
000170 9c bd 4c bd d9 cd aa 3c 2a e0 d4 3d 50 ae fd 3c
       -0.049985513 0.020850109 0.103943184 0.030966908
000180 1f b9 77 3d 69 09 6d 3d d6 07 67 3d e5 7e 48 3d
       0.06047928 0.057870302 0.056403957 0.04894914
000190 f7 41 be bd dd be ed bd a4 5e 87 bd ab 42 b9 bd
       -0.092899255 -0.1160867 -0.06609848 -0.09045919
0001a0 ad 94 75 3d ea d7 bc bd b3 f4 24 3c 1a 43 27 be
       0.05995624 -0.0922087 0.010068106 -0.16334191
0001b0 23 22 09 be a2 02 66 3d 7a 0d 00 be 18 f1 ba bc
       -0.13391928 0.056154855 -0.12505141 -0.02282004
0001c0 9a c0 0b bc 3e 3f c0 3d bd 49 03 3e ec 9b 38 3c
       -0.0085298065 0.093870625 0.12821098 0.011267643
0001d0 85 c9 46 bd 3d 87 12 3d 24 4d b2 3d 4c b8 36 3d
       -0.048532028 0.035773505 0.0870612 0.044609353
0001e0 16 66 02 bd 60 b0 12 3e 0a 64 16 be 46 b0 05 be
       -0.031835638 0.14325094 -0.146866 -0.13055524
0001f0 fb 0e 0a bd 02 0e 86 3d 22 98 e5 bd 9a 6c fb 3d
       -0.033705693 0.065456405 -0.11210658 0.122765735

brain.2.weight f4 [16, 128, 1, 1]
000000 57 8d a8 3b 3e 4a c9 ba 5d d4 0b ba c3 80 f9 ba
       0.005143802 -0.0015357209 -0.0005334074 -0.0019035566
000010 89 68 73 bb b4 d5 55 3c de 00 04 3c 86 03 b5 ba
       -0.0037141165 0.013051439 0.008056847 -0.0013810254
000020 6d a1 24 b9 3b 07 9d 3b 56 e6 65 bb 80 e8 9e 3b
       -0.00015700395 0.0047921217 -0.0035079918 0.0048494935
000030 bb d0 04 3a d1 79 69 3b 14 8b 09 3c a4 70 51 39
       0.00050665037 0.0035625587 0.008394975 0.00019973755
000040 06 a8 e5 bb f8 a7 54 3a 8d 3e 8a 3b db a1 e4 ba
       -0.0070085553 0.00081121875 0.0042188824 -0.0017443256
000050 6c 97 2f 3b ef bc b7 bb 83 a0 41 3b ec 4e ca 3a
       0.0026793135 -0.0056072394 0.0029545135 0.0015434898
000060 a0 21 c5 bb 65 5f 96 bb fa e6 81 ba c0 92 aa 3b
       -0.0060159713 -0.0045890086 -0.0009910755 0.0052054822
000070 15 cc 52 b8 1b ae 80 ba c3 0c 41 3b 43 fc 61 b9
       -5.0257968e-05 -0.0009817512 0.002945707 -0.00021551647
000080 45 f0 15 3b e3 a4 90 ba 6d 28 64 3b 38 a4 94 3b
       0.0022878808 -0.0011035468 0.0034814135 0.004536178
000090 92 e6 9a 39 b7 4c 9b ba cf 0c 1c 3b 3b 24 e7 b9
       0.00029544957 -0.0011848424 0.0023811345 -0.00044086747
0000a0 9d eb 0c 3c 49 78 c2 3b 49 cc 93 3b 47 c8 6e 3a
       0.008601096 0.0059347493 0.0045104367 0.0009108823
0000b0 b8 68 ab 39 c3 f5 03 bb 0f 4c 4e 3c e6 6e 9a bb
       0.00032693683 -0.00201355 0.012591376 -0.004712927
0000c0 a8 e4 6f 3b 86 ff 51 3a 1f 92 8f b9 cb 8e b1 3a
       0.0036604796 0.0008010793 -0.00027383954 0.0013546584
0000d0 d4 7b b0 bb 01 8f dc 3a 3a 49 1d 3b d0 0f 05 b9
       -0.005385855 0.0016827286 0.0023999945 -0.00012689759
0000e0 02 3e 98 3b 11 cf ae bb c8 ed 81 3b ef 7c 17 bc
       0.004646064 -0.005334743 0.0039651133 -0.009246095
0000f0 2c 76 05 3c 8a 95 af 3a e7 e8 89 3b d1 2f a2 39
       0.00814585 0.0013396007 0.0042086723 0.00030934674
000100 07 9c 05 bc a9 c2 f1 3a 6a 04 f8 3a de ba 0c 3a
       -0.008154876 0.0018444854 0.0018922214 0.00053684216
000110 48 2f 5d 3b 31 f9 8e 3b 85 2a 64 3b d8 c2 57 3b
       0.0033750106 0.004363202 0.0034815383 0.0032922532
000120 2f 87 17 3c e1 97 9d ba 92 15 47 3b 72 0d 17 3a
       0.009248539 -0.0012023413 0.0030377847 0.00057621964
000130 98 ec 93 3b a2 02 1e 3c 11 be fe 3b 72 83 05 3c
       0.004514288 0.009644182 0.0077741225 0.008149015
000140 70 87 28 3b cd a3 10 bb 52 4b ce 3b 95 c2 11 3a
       0.0025715493 -0.002207029 0.0062956 0.0005560306
000150 47 e4 3b bb b2 e5 8f 3b 69 98 78 3b c1 52 cf bb
       -0.002867 0.0043913955 0.003793264 -0.0063270037
000160 bc 04 28 3b 2f f9 91 3b c4 8c 18 3b 65 b2 21 3c
       0.0025637588 0.004454754 0.0023277262 0.009869193
000170 5b a4 76 ba a4 b9 fc 3b de 9e 67 ba 98 69 b2 3a
       -0.0009408646 0.00771256 -0.0008835624 0.0013611792
000180 99 d5 f0 3a db c2 6b 3b cc 21 63 ba b6 01 42 ba
       0.0018374204 0.0035974297 -0.0008664399 -0.00074007676
000190 1f 82 c6 bb ed b1 85 bb d9 e0 3e 3b 26 c8 13 bc
       -0.006057992 -0.0040800483 0.002912572 -0.009019887
0001a0 87 9f 9b 3b 61 7a 36 3b 9a c3 57 3b 9f 4b e7 bb
       0.0047492418 0.002784394 0.0032922984 -0.0070585753
0001b0 e3 92 20 ba fd c3 1d ba 40 63 6b bb 22 6a b1 39
       -0.00061254035 -0.0006018279 -0.0035917312 0.00033839146
0001c0 21 34 95 bb 2d 63 09 3b 43 45 b1 3b cc 35 81 3b
       -0.0045533334 0.0020963654 0.005409868 0.0039431807
0001d0 6b df 6b bb 1e 1b 46 ba 1a 38 a3 3b b5 15 81 3a
       -0.0035991322 -0.00075571414 0.004981053 0.0009848388
0001e0 2d f2 5f 3b 9e 55 a2 3b 08 c5 3e bb 34 76 9e 3b
       0.0034171448 0.004954054 -0.002910914 0.0048358683
0001f0 3a 4d 3a 3b 9c 5a 3c bb e4 2a 20 ba 94 c5 c8 ba
       0.0028427378 -0.002874053 -0.0006109907 -0.0015317672
000200 f3 db a7 3b 87 00 f3 ba 80 77 49 ba 37 a5 b9 ba
       0.0051226555 -0.0018539586 -0.00076853484 -0.0014163618
000210 7a 53 93 ba 4b d4 35 3c 77 62 e2 3b d5 6e bb 39
       -0.0011240088 0.011097978 0.0069087106 0.00035749996
000220 a6 d6 b6 b8 0b f0 72 3b 4a 7f 06 bb e1 d6 ab 3b
       -8.718418e-05 0.0037069346 -0.0020522648 0.0052441214
000230 77 84 4c bb 3e 32 ac 3b 12 0c 9c 3b 79 da e5 39
       -0.0031206885 0.005255013 0.004762181 0.00043841059
000240 ca 4f 50 bb 7d d2 19 39 d0 1a eb 39 b9 e1 84 39
       -0.003178584 0.0001466963 0.0004484267 0.00025345178
000250 4a 53 53 3b 50 16 c8 bb 95 43 1d 3b d6 a1 8d 3a
       0.003224569 -0.0061061755 0.002399658 0.0010805677
000260 1f 08 b7 bb 83 a0 94 bb 31 1b e6 ba d4 c2 2c 3b
       -0.005585685 -0.004535736 -0.0017555711 0.0026361244
000270 66 c0 1d 3a a5 27 9c 39 17 65 1b 3b 13 a0 d0 ba
       0.00060177443 0.00029784176 0.0023711377 -0.0015916846
000280 d6 93 97 3b cf 98 1c bb 97 85 9c 3a b0 88 bc 3a
       0.0046257777 -0.0023894792 0.0011941668 0.0014383998
000290 9f 20 01 3b 1c cf cf b9 74 17 1d 3b ae e6 28 3a
       0.0019703282 -0.00039636425 0.0023970278 0.00064430654
0002a0 d3 77 02 3c 54 e3 a4 3b fa ad 40 3b 07 69 66 3b
       0.007963139 0.0050319824 0.0029400573 0.0035157816
0002b0 51 f7 ba b7 89 90 0b bb fe 47 b4 3b a2 ec 5c bb
       -2.2288094e-05 -0.0021295866 0.005501746 -0.003371038
0002c0 a1 a1 64 3b cd 0c 52 3a dd 91 c3 3a 8b 34 5e ba
       0.0034886377 0.0008012772 0.001492079 -0.00084764574
0002d0 00 fe 97 bb 7b 83 99 ba cb 79 5b 3b 43 2a 95 3a
       -0.0046384335 -0.0011712158 0.0033489342 0.0011380393
0002e0 1b fe 54 3b 65 78 b8 bb 83 38 77 3b 7b db ca bb
       0.0032500091 -0.0056295865 0.0037722893 -0.006190715
0002f0 11 17 bb 3b ca 4c 48 bb c0 a8 27 3b 76 7e 84 ba
       0.005709537 -0.0030563348 0.002558276 -0.0010108489
000300 db 13 85 bb cc 7f 14 b9 ef 8e cf 3a 79 8c 84 b9
       -0.004061205 -0.00014161988 0.0015835444 -0.00025281662
000310 fe 18 58 bb f3 1f cc 3b 23 05 3a 3b 72 09 33 b9
       -0.003297388 0.0062293946 0.002838441 -0.00017074289
000320 9a 1e 02 3c a3 cb 3b ba 7e 5f 9e 3b 93 87 b1 3a
       0.007941866 -0.0007163828 0.004833161 0.0013544433
000330 e4 5c 93 3b bd 8a f8 3b c5 67 bf 3b 98 72 14 3c
       0.0044971574 0.0075848983 0.0058412277 0.009060524
000340 b8 ee 82 3b 7b 30 91 ba 96 60 a0 3b b8 9d 57 3a
       0.0039957426 -0.001107707 0.0048943264 0.0008225101
000350 5d e7 58 bb 75 90 7e 3b 9b c5 ee 3a 90 1a 91 bb
       -0.0033096888 0.0038843427 0.001821685 -0.0044282153
000360 31 72 0d 38 ac c0 32 3b 7d d3 81 3a c5 e8 d5 3b
       3.372337e-05 0.0027275486 0.0009904947 0.0065279924
000370 d4 22 27 3b ff 00 e0 3b 61 c3 78 3a 25 a1 fe 3a
       0.0025502937 0.0068360562 0.0009489563 0.0019426687
000380 69 6a ed 3a de 67 1e 3b cc 33 d7 3a bf 53 f0 ba
       0.0018113378 0.0024170796 0.0016418635 -0.0018335505
000390 6a 46 8d bb cc 11 67 bb ba ef 11 3b ce 38 c4 ba
       -0.0043113725 -0.003525841 0.0022268132 -0.0014970542
0003a0 75 cc 08 3c 0d 90 c9 3a 74 6a 8d 3b 04 93 9d bb
       0.008349528 0.0015378013 0.0043156687 -0.0048087854
0003b0 ac f5 01 bb 99 98 da ba a3 88 b0 bb 08 35 f5 3a
       -0.001983027 -0.0016677558 -0.005387382 0.0018707821
0003c0 0e ca 60 bb 5e e5 f7 3a e2 78 88 3b b0 a9 a0 3b
       -0.0034300121 0.0018912961 0.004164801 0.004903041
0003d0 47 e3 8f b8 a4 21 af b9 65 64 34 3b 46 19 07 3b
       -6.861105e-05 -0.00033403665 0.002752566 0.002061443
0003e0 06 d0 61 3b dd 5e ab 3b 40 9c 17 bb f5 6f bf 3b
       0.0034456267 0.0052298144 -0.0023133904 0.0058422037
0003f0 19 c9 ac 3a 5f c3 6e ba e6 6d 75 ba 7f 28 85 b8
       0.001318249 -0.0009108092 -0.00093623844 -6.349477e-05
