outputs/nca/Brini_model.pt (torch, 36933 bytes, 3 tensors)

brain.0.weight f4 [128, 48, 1, 1]
0	0xbd65ed20	-0.056134343
1	0xbde47853	-0.111557625
2	0xbdd1cc68	-0.102440655
3	0x3db3116d	0.08743558
4	0xbe73ee03	-0.23821263
5	0x3b541c2b	0.0032365422
6	0xbd78261e	-0.060583226
7	0xbdddd312	-0.10831274
8	0xbcca47bf	-0.024692414
9	0xbd1f0303	-0.03882123
10	0xbd820881	-0.06349278
11	0xbb55c80c	-0.0032620458
12	0xbe3ffa60	-0.18747854
13	0xbc30edbb	-0.010798867
14	0xbd178991	-0.036996428
15	0xbded2e38	-0.11581081
16	0xbc3180ba	-0.010833913
17	0xbdb4cbc0	-0.08827925
18	0x3d443bad	0.047908474
19	0x3e007dd3	0.12547998
20	0x3dd15646	0.102215335
21	0xbb19d564	-0.0023473138
22	0x3b28fcea	0.0025785514
23	0x3cd23747	0.025661124
24	0x3d287c3a	0.041134097
25	0x3e052345	0.13001736
26	0x3de2a422	0.11066462
27	0x3cf7ac81	0.030233623
28	0x3d805c40	0.06267595
29	0x3b5bfeaf	0.0033568551
30	0xbd8d7e6b	-0.06908878
31	0x3d379182	0.0448165
32	0xbe136e83	-0.14397626
33	0x3d5ad1ee	0.05342286
34	0xbc2e6559	-0.01064428
35	0xbd6a8221	-0.057253007
36	0x3c1294f8	0.00894665
37	0xbd44f6da	-0.04808698
38	0xbe04f915	-0.12985642
39	0x3d08933e	0.033343546
40	0xbce79861	-0.028270902
41	0x3d5a5e82	0.053312786
42	0x3e7e80be	0.24853799
43	0x3d44fb99	0.048091505
44	0xbd620d65	-0.055188555
45	0x3e5e050b	0.21681611
46	0x3dd0ded6	0.101987526
47	0x3d9ec8f8	0.077531755
48	0x3de58ef6	0.11208908
49	0xbd19c385	-0.037539978
50	0x3de20e67	0.11037903
51	0x3befdb3a	0.007319835
52	0xbd162575	-0.036656816
53	0x3d0f6d86	0.03501656
54	0xbcbfb0b9	-0.023399698
55	0xbe2fca4e	-0.17167017
56	0xbc93a929	-0.018024998
57	0xbd6a32f0	-0.057177484
58	0xbc7f8b0d	-0.015597117
59	0x3cd4054f	0.025881438
60	0x3e45e4eb	0.19325607
61	0xbd9e5528	-0.07731086
62	0xbd9a4599	-0.07532806
63	0xbd6161f4	-0.055025056
64	0xbd648a2b	-0.05579583
65	0xbd14787c	-0.036247715
66	0x3e1e259d	0.15444036
67	0x3ca4eb56	0.020131748
68	0x3bef3f04	0.007301213
69	0xbdaeb065	-0.08529738
70	0xbd3f833e	-0.04675602
71	0xbd09cd82	-0.033643253
72	0xbe01fa9a	-0.12693253
73	0x3df24b78	0.11830801
74	0xbdd6f47f	-0.10495853
75	0xbe204e79	-0.15654935
76	0x3d4d57f6	0.050132714
77	0x3d6349e0	0.055490375
78	0x3cfbb4a6	0.030725788
79	0x3db1da47	0.08684211
80	0x3c8888b7	0.016666753
81	0xbd8d5131	-0.06900252
82	0x3d877e7d	0.066159226
83	0xbcb1090d	-0.021610761
84	0x3e342be8	0.17594874
85	0xbcb853bb	-0.022500863
86	0xbd5810d7	-0.052750435
87	0x3dc63922	0.09678866
88	0xbdba2c59	-0.0909049
89	0x3d2b1344	0.04176642
90	0x3e110a0c	0.14163989
91	0x3ce45bf0	0.02787587
92	0xbd99cf9a	-0.075103
93	0x3cf94bdd	0.030431682
94	0xbd5d87db	-0.05408464
95	0x3da82ce8	0.0821169
96	0xbca2511a	-0.019814063
97	0xbd14d73f	-0.036338087
98	0x3de770e6	0.113008305
99	0x3d93c451	0.07215179
100	0x3ddf2bb7	0.1089701
101	0xbd1c3e4f	-0.03814536
102	0xbd9783b1	-0.07398165
103	0x3e3778e8	0.17917216
104	0xbde8081b	-0.11329671
105	0xbdf621ef	-0.12018191
106	0x3c672a9f	0.014109283
107	0xbd9fbabe	-0.0779929
108	0x3d19e821	0.03757489
109	0xbcc0fcfd	-0.023558134
110	0xbcceed2d	-0.025259579
111	0x3e567a13	0.20945005
112	0x3d00f585	0.031484146
113	0x3e26546c	0.16243142
114	0x3db3e07f	0.087830536
115	0x3de8dca4	0.11370209
116	0xbd5a213c	-0.05325435
117	0xbc185a44	-0.009298865
118	0xbd41da11	-0.047327105
119	0xbd4ecd5e	-0.050488822
120	0xbe1c1632	-0.15242842
121	0x3cb12dd1	0.021628292
122	0xbcbac1d5	-0.022797504
123	0xbda5150c	-0.08060655
124	0xbd25ceb9	-0.04048035
125	0xbe1cd4f2	-0.15315607
126	0x3cc78040	0.024353147
127	0x3e05df4a	0.1307346
128	0xbdad6d33	-0.08468094
129	0xbe09df50	-0.13464093
130	0x3d1076d0	0.03526956
131	0xbbd6c66d	-0.006554416
132	0x3de9b72c	0.114118904
133	0x3d2bcc19	0.04194269
134	0x3dd7790c	0.10521135
135	0xbe234924	-0.1594587
136	0xbccf2d2f	-0.0252901
137	0xbe0ff209	-0.14057173
138	0x3d822427	0.06354552
139	0xbe639f90	-0.22228837
140	0x3d1fb8c4	0.038994566
141	0xbd97bb4d	-0.07408772
142	0xbd0c588a	-0.034264125
143	0x3d2964f0	0.041356027
144	0x3ddfe5bd	0.10932491
145	0xbb788f6d	-0.0037927285
146	0x3d615348	0.055011064
147	0x3e109548	0.14119446
148	0x3cd91538	0.026499376
149	0xbd433dca	-0.04766635
150	0x3e065e40	0.13121891
151	0xbd519e93	-0.05117662
152	0x3d2f473a	0.042792536
153	0x3e63cd73	0.22246341
154	0xbc46bc91	-0.012129919
155	0xbcd57c0c	-0.026060127
156	0xbe83da12	-0.25752312
157	0x3a93b484	0.0011269008
158	0xbc70fcca	-0.014708707
159	0x3d9c0598	0.076182544
160	0x3c834e05	0.016028414
161	0x3d02eb32	0.03196258
162	0x3dd2a00e	0.10284434
163	0x3d12ab06	0.035807632
164	0x3bc7f7cb	0.0061025373
165	0xbdb1a0a7	-0.0867322
166	0xbd2a2f56	-0.04154905
167	0x3cb74c57	0.022375269
168	0x3d81f1db	0.063449584
169	0x3d24ef7d	0.040267456
170	0xbd3c7668	-0.04601136
171	0xbd969be9	-0.07353956
172	0xbd32b40e	-0.043628745
173	0x3cfc1624	0.030772276
174	0x3be04173	0.0068437397
175	0xbc7ae640	-0.015313685
176	0xb9b19e95	-0.00033878224
177	0x3de4f063	0.11178663
178	0x3baed6a1	0.0053356444
179	0xbcd9c638	-0.026583776
180	0x3e837a2c	0.25679147
181	0xbc92acd6	-0.01790468
182	0xbc645ec0	-0.013938606
183	0x3dc06071	0.09393395
184	0xbc049c0e	-0.008093847
185	0xbb07aab4	-0.0020701112
186	0xbd9be255	-0.07611529
187	0xbc5d56cf	-0.013509466
188	0xbb6115b0	-0.0034345202
189	0xbe285868	-0.16439974
190	0x3d566b14	0.05234821
191	0x3c23ba07	0.009993083
192	0x3d1321cc	0.035920903
193	0xbe26f809	-0.16305555
194	0x3de463ff	0.11151885
195	0xbdf3ec0f	-0.11910259
196	0x3d80c6c8	0.062879145
197	0xbd6eb653	-0.058279347
198	0xbc08babc	-0.008345302
199	0x3cff6c57	0.03117959
200	0x3db82aee	0.08992563
201	0xbe4493e0	-0.19197035
202	0xbd5cf859	-0.05394778
203	0x3ce40672	0.027835105
204	0xbe31fa37	-0.17380606
205	0xba66aa0c	-0.00087991427
206	0xbcc1ac60	-0.023641765
207	0xbd481975	-0.048852403
208	0x3c8280f2	0.015930627
209	0x3e0b9339	0.1363038
210	0xbd4c2726	-0.049842022
211	0x3cbd6572	0.023119662
212	0x3d671700	0.05641842
213	0xbcb15c0e	-0.02165034
214	0xbbce082b	-0.006287595
215	0xbdd742c6	-0.10510783
216	0xbbc39f53	-0.0059699207
217	0xbda382dc	-0.07983944
218	0xbd36ebfb	-0.044658642
219	0xbcb06a20	-0.02153498
220	0xbd80ac38	-0.06282848
221	0xbc64cac1	-0.013964356
222	0x3cd1472f	0.025546638
223	0xbe0597be	-0.13046166
224	0xba85223d	-0.0010157299
225	0x3dc84ad3	0.097798966
226	0x3d98fd30	0.07470167
227	0x3bfc22b8	0.0076945685
228	0x3dc7bdc3	0.09752991
229	0x3e333c08	0.17503369
230	0xbd5fce16	-0.0546399
231	0x3e013ee9	0.12621655
232	0xbcd8c3bc	-0.02646052
233	0xbd0b0336	-0.03393861
234	0x3db6f03d	0.089325406
235	0x3e1d4f8a	0.15362373
236	0x3e23aa4a	0.15982929
237	0x3d84ad4d	0.06478367
238	0x3e1f4a94	0.15555793
239	0x3d3e0555	0.046391804
240	0x3c8a4ea3	0.0168832
241	0x3dd60e91	0.10451997
242	0x3d3655b6	0.044515334
243	0x3e1ad824	0.15121514
244	0x3dc13bc3	0.09435227
245	0xbe259557	-0.1617025
246	0x3e0707c6	0.13186559
247	0xbd6580e5	-0.056031127
248	0xbdbe4392	-0.09290232
249	0xbcf1cf48	-0.029517785
250	0x3d5f30bc	0.054489836
251	0x3da57341	0.080786236
252	0x3e81f1ec	0.25379884
253	0xbda411b3	-0.08011188
254	0x3d949861	0.072556265
255	0xbe640695	-0.22268136

brain.0.bias f4 [128]
0	0xbc83cf09	-0.016089933
1	0x3dabc405	0.08386997
2	0xbda28c66	-0.07936935
3	0xbe879dc3	-0.2648755
4	0x3d3486ac	0.044073746
5	0xbbd392d0	-0.0064567104
6	0xbd2d4f64	-0.04231204
7	0x3cf8d4a6	0.030374836
8	0xbe584f07	-0.21123897
9	0xbe961e47	-0.29319975
10	0xbc28cf59	-0.010303342
11	0xbe05e1fd	-0.13074489
12	0xbcc4c0c3	-0.024017697
13	0x3d19c285	0.037539024
14	0x3d327ec9	0.043577943
15	0x3d139efd	0.036040295
16	0xbce6f323	-0.028192108
17	0x3da0c93c	0.078508824
18	0xbe15d773	-0.14632969
19	0xbdb024e5	-0.08600787
20	0x3c453306	0.012036091
21	0xbd5b6d4b	-0.053571027
22	0x3d182021	0.037140016
23	0xbe36617d	-0.17810626
24	0xbbbe3ef9	-0.005805847
25	0xbe06780d	-0.13131733
26	0x3cbcf673	0.023066735
27	0xbce55d9c	-0.027998738
28	0x3c991cbc	0.01869046
29	0xbe1f586f	-0.15561078
30	0x3c7906b4	0.015199352
31	0xbc2ff50a	-0.010739574
32	0xbe222ade	-0.15836665
33	0x3c707f81	0.014678837
34	0xbe16523a	-0.14679804
35	0xbddda221	-0.10821939
36	0xbe07d526	-0.13264903
37	0xbe1b4d24	-0.15166146
38	0xbe343058	-0.17596567
39	0xbcc0bf56	-0.023528736
40	0xbcbb78c9	-0.022884743
41	0xbd6b31c5	-0.05742051
42	0x3c489db3	0.01224463
43	0xbd6544f4	-0.055973962
44	0xbe3ad742	-0.18246177
45	0xbe72fe07	-0.23729716
46	0x3c868da9	0.01642497
47	0xbde55f5b	-0.11199828
48	0xbd5e6965	-0.05429973
49	0xbd65ec25	-0.056133408
50	0x3bde29a5	0.0067798668
51	0xbdfe1728	-0.124067605
52	0x3a9d7093	0.0012011699
53	0xbd724159	-0.05914435
54	0x3c3c9832	0.011510896
55	0xbe0afab5	-0.135722
56	0xbc1e78aa	-0.009672323
57	0xbe0ab027	-0.1354376
58	0xbe034111	-0.1281779
59	0x3d1736c7	0.036917474
60	0xbc04703e	-0.008083401
61	0xbdc88d0b	-0.09792527
62	0xbe49c338	-0.19703376
63	0xbe2d7f71	-0.16943146
64	0x3d70455e	0.058659904
65	0x3ce2956f	0.027659146
66	0xbd90aaa2	-0.070637956
67	0xbe939488	-0.28824258
68	0xbb92a906	-0.0044757156
69	0xbd8f1d80	-0.069880486
70	0x3d9065dd	0.07050679
71	0xbe15dcfc	-0.1463508
72	0xbe0001b9	-0.12500657
73	0xbbb118c8	-0.0054045655
74	0xbcea9684	-0.028636225
75	0x3cfc72cc	0.030816458
76	0xbde7721c	-0.113010615
77	0xbe1b49ec	-0.15164918
78	0x3c3d7e1a	0.0115657095
79	0xbd30b6ee	-0.043143205
80	0xbd9724af	-0.07380044
81	0xbe00f0e7	-0.12591897
82	0xbccd8334	-0.025086977
83	0xbe21bcde	-0.15794703
84	0xbb89b72f	-0.0042027454
85	0x3c87d34f	0.016580252
86	0xbdbd1e11	-0.0923425
87	0xbe0a23c7	-0.1349021
88	0xbe1f7f18	-0.15575826
89	0xbe3f7770	-0.18697906
90	0x3c825bd7	0.015912933
91	0x3d2daa73	0.04239888
92	0x3b5de9e2	0.003386133
93	0xbda22a32	-0.07918204
94	0xbda8958f	-0.08231651
95	0x3d080282	0.033205517
96	0xbe10ce32	-0.14141157
97	0x3c97959c	0.018503956
98	0xbd1338b0	-0.035942733
99	0xba9d939c	-0.001202214
100	0xbd1ab3c4	-0.037769094
101	0xbe23f95a	-0.16013089
102	0xbe08aced	-0.13347216
103	0xbceaef6b	-0.028678617
104	0xbdf5c26e	-0.11999975
105	0x3bb77655	0.005598823
106	0x3dadff6e	0.08495985
107	0x3db05fed	0.086120464
108	0xbc57a5ff	-0.013162135
109	0x3dc28a1a	0.09498997
110	0xbdf241f9	-0.118289895
111	0x3cd42637	0.025897129
112	0xbdb5783b	-0.08860823
113	0xbd0cbe62	-0.03436125
114	0x3da79b4d	0.08183918
115	0x3ce86a6c	0.028371058
116	0xbe240767	-0.16018449
117	0xbe20d72f	-0.15707086
118	0xbdcb6099	-0.09930534
119	0xbe0fc9d8	-0.14041841
120	0x3d7d35c0	0.061818838
121	0xbcf0f085	-0.029411564
122	0x3a91366a	0.0011078839
123	0xbe1da834	-0.15396196
124	0xbe690e7d	-0.22759433
125	0xbe0f7ce7	-0.1401249
126	0x3d51c2fd	0.051211346
127	0x3d92a50e	0.07160388

brain.2.weight f4 [16, 128, 1, 1]
0	0x3be83647	0.0070865485
1	0xbc5bec14	-0.013422985
2	0x3cff1c45	0.03114141
3	0xbcb6a809	-0.022296922
4	0x3ccdee1c	0.025137953
5	0xbb9fe204	-0.004879238
6	0xbcbd031f	-0.023072777
7	0x3d0483d0	0.03235227
8	0x3d15f510	0.036610663
9	0x3d1e7e54	0.038694695
10	0x3c8d054c	0.01721444
11	0x3d11f72d	0.035636116
12	0xbc76f732	-0.015073584
13	0x3d3b8c0e	0.045787863
14	0x3ca18256	0.01971547
15	0x3c859b40	0.01630938
16	0x3c9c92b6	0.019112926
17	0x3d038004	0.032104507
18	0xbd3170f2	-0.043320604
19	0xbd1e9531	-0.0387165
20	0x3cb33d95	0.02187995
21	0x3b2e0619	0.0026553927
22	0xbbfaba2b	-0.0076515875
23	0xbd7ddbf9	-0.06197736
24	0x3c179698	0.009252213
25	0x3d22f511	0.039784495
26	0x3d1b3602	0.037893303
27	0x3b6f5073	0.0036516457
28	0x3c4af9af	0.012388631
29	0xbca8231b	-0.020524552
30	0x3bf2fb72	0.0074152285
31	0xbb820f6a	-0.0039691227
32	0xbc878efb	-0.01654767
33	0x3c93ef4d	0.018058443
34	0x3d2c810d	0.04211526
35	0x3d3c96f7	0.04604241
36	0xbd119723	-0.035544526
37	0xbcd97221	-0.026543679
38	0xbda0960c	-0.07841119
39	0x3d3989c1	0.045297388
40	0x3d4978c3	0.049187433
41	0x3d215cb5	0.039395053
42	0xbb2249dd	-0.0024763264
43	0x3d8a95ff	0.06766891
44	0x3c2991a3	0.010349664
45	0xbd0b0bb2	-0.0339467
46	0x3d128508	0.0357714
47	0x3d83f9d1	0.06444133
48	0xbb2ca269	-0.0026341921
49	0xbd07d4a5	-0.033161778
50	0x3afba89c	0.001920003
51	0x3b31b3fa	0.002711533
52	0xbbbfca75	-0.005852992
53	0x3d2e51b4	0.042558387
54	0x3c11e304	0.008904222
55	0xbdae8c75	-0.08522884
56	0xbc84cf76	-0.016212206
57	0xbd4d5f62	-0.050139792
58	0xbd331409	-0.04372028
59	0x3ce3709a	0.027763654
60	0x3c8e1d55	0.017347971
61	0x3d032022	0.032013066
62	0x3db0012d	0.08593974
63	0xbda0807f	-0.07837009
64	0xbcf23af1	-0.029569121
65	0xbca41883	-0.02003122
66	0xbd980f78	-0.074248254
67	0xbc15a98c	-0.009134661
68	0x3cd57c9c	0.026060395
69	0x3bdde650	0.00677184
70	0x3c94fdce	0.01818743
71	0x3bec5e16	0.0072133644
72	0x3d12dde5	0.035856146
73	0x3c9787eb	0.018497428
74	0x3c935972	0.017986987
75	0x3d588102	0.052857406
76	0x3cf1c704	0.029513843
77	0xbd9e1799	-0.07719345
78	0x3cc6f7ca	0.024288077
79	0xba8ad31b	-0.0010591479
80	0x3d1b9e1c	0.03799258
81	0x3cf62278	0.030045733
82	0x3ca9cf95	0.020728866
83	0x3c8b8085	0.017029056
84	0x3d0a52fc	0.033770546
85	0xbb924275	-0.0044634887
86	0xbc569b96	-0.013098618
87	0xbd4f7ef4	-0.05065818
88	0xbdfa9790	-0.122359395
89	0x3da4d9e5	0.080493726
90	0x3bda090c	0.0066539105
91	0x3bccdafd	0.0062516914
92	0xbd513e88	-0.051085025
93	0x3c64b6a0	0.013959557
94	0x3cf583ed	0.029970134
95	0xbd4fc178	-0.050721616
96	0x3d0a6d0d	0.033795405
97	0x3cfab579	0.030604111
98	0x3ccbf8ce	0.024898913
99	0x3c5149a4	0.012773905
100	0xbbc838cd	-0.006110287
101	0xbb96cf48	-0.0046023466
102	0x3d5e06e6	0.054205798
103	0x3ca50e52	0.02014843
104	0x3c6eec80	0.014582753
105	0x3cb569d8	0.022145197
106	0xbb6970e0	-0.0035620257
107	0x3c883a25	0.016629288
108	0x3c70f696	0.014707228
109	0xbbd88d04	-0.0066086072
110	0x3d6be471	0.057590906
111	0xbb6d982c	-0.0036254032
112	0x3ced4516	0.028963607
113	0x3c9e7358	0.01934211
114	0xbcd20a3f	-0.025639651
115	0xbcd194ce	-0.02558365
116	0x3c65efa4	0.014034186
117	0x3d431c2d	0.047634292
118	0x3d16a092	0.036774226
119	0x3d8c473f	0.068495266
120	0x3be3a0e6	0.006946671
121	0xbd68b2d5	-0.056811173
122	0x3c17627f	0.009239792
123	0x3d7131ad	0.058885265
124	0x3d917f94	0.07104412
125	0x3b8ebb61	0.0043558334
126	0x3d01c308	0.031680137
127	0x3c52e756	0.012872538
128	0x3c339a83	0.010962131
129	0xbc3fa4d0	-0.011697009
130	0x3c9e32f2	0.019311402
131	0xbca48da1	-0.020087065
132	0x3c9903a4	0.018678494
133	0xbbb02e8f	-0.005376644
134	0xbc4e70bc	-0.01260012
135	0x3cd4a098	0.025955483
136	0x3ca47359	0.020074533
137	0x3d0cd6d9	0.034384582
138	0x3b86b1e0	0.00411056
139	0x3cc11197	0.023567958
140	0xbc797430	-0.015225455
141	0x3d11ee46	0.035627626
142	0x3c36f648	0.011167116
143	0x3c8ae41d	0.016954476
144	0x3c51759b	0.012784387
145	0x3cca6787	0.024707569
146	0xbce92c5d	-0.028463537
147	0xbd0520dd	-0.032502044
148	0x3c2f8990	0.01071395
149	0xbb08eda2	-0.0020893593
150	0xbb4f6b93	-0.0031649813
151	0xbd46c941	-0.048531774
152	0x3c9e777c	0.019344084
153	0x3cdeda54	0.027203716
154	0x3cd4f052	0.0259935
155	0x3a4f80fc	0.00079156435
156	0x3ca23d4f	0.019804625
157	0xbcfee6dd	-0.031115944
158	0xb91e7189	-0.0001511035
159	0x3cd06af0	0.025441617
160	0xbbe958ec	-0.007121196
161	0x3c1530c4	0.009105865
162	0x3d055bd0	0.032558262
163	0x3d07c175	0.03314348
164	0xbce2f278	-0.027703509
165	0xbcd008e9	-0.025394874
166	0xbd519e42	-0.051176317
167	0x3d1c59d9	0.038171623
168	0x3d1e16ce	0.038595967
169	0x3d09841e	0.033573262
170	0xbc1cd8ca	-0.009573171
171	0x3d2ab75c	0.04167877
172	0x3b45195e	0.0030074934
173	0xbcbe299e	-0.023213204
174	0x3cbb8e8c	0.02289512
175	0x3d3ce2b1	0.046114627
176	0xb98a5c27	-0.0002639007
177	0xbc4b593b	-0.012411411
178	0xbb4156f5	-0.0029501293
179	0xba9b05c6	-0.0011827282
180	0xbaa557fd	-0.0012614724
181	0x3d25d54e	0.040486626
182	0x3aaae794	0.0013038986
183	0xbd6e45dd	-0.058172096
184	0xbbedc69c	-0.007256342
185	0xbcd0992d	-0.025463665
186	0xbce713c7	-0.028207673
187	0x3cb7e222	0.022446696
188	0x3c54fe6f	0.013000115
189	0x3c71c0f2	0.014755474
190	0x3d8a083c	0.06739852
191	0xbd504430	-0.05084628
192	0xbcdfdbf6	-0.027326565
193	0xbbc7c869	-0.006096889
194	0xbd674c8c	-0.056469485
195	0xbb18cc9f	-0.0023315323
196	0x3c981797	0.018565936
197	0x3c0bab68	0.008524753
198	0x3c90f58c	0.01769521
199	0x3c31a625	0.010842835
200	0x3cacf3ae	0.02111229
201	0x3c7bd482	0.01537049
202	0x3c907b5b	0.017636945
203	0x3d1f802f	0.038940605
204	0x3d097c87	0.033566024
205	0xbd59354e	-0.05302935
206	0x3ca3ad4e	0.019980099
207	0xbb7c639b	-0.0038511518
208	0x3ce520e8	0.027969792
209	0x3c9ee59f	0.019396601
210	0x3c71a52d	0.014748854
211	0x3c0e8534	0.00869875
212	0x3caa2200	0.020768166
213	0xbc2e293f	-0.010629951
214	0xbc5796a0	-0.01315847
215	0xbd0af1ab	-0.03392188
216	0xbd9d9383	-0.07694151
217	0x3d812ba1	0.0630715
218	0xbafb7013	-0.0019183181
219	0xbb3dfe33	-0.0028990626
220	0xbd2747af	-0.040839847
221	0x3ab26e70	0.0013613235
222	0x3c463eaf	0.012099906
223	0xbd1f4525	-0.0388843
224	0x3c8a110f	0.016853837
225	0x3ca23ec2	0.019805316
226	0x3ca3560d	0.019938493
227	0xbc3e1752	-0.01160224
228	0xbb8c8922	-0.0042888084
229	0xbc09000a	-0.008361826
230	0x3cf13e82	0.029448751
231	0x3cc59773	0.024120068
232	0x3bdad89a	0.006678653
233	0x3c9019fb	0.017590513
234	0xba906af7	-0.0011018206
235	0x3ccc1e78	0.024916872
236	0x3c3011bd	0.010746417
237	0xbc26bbc0	-0.010176599
238	0x3cefe407	0.029283537
239	0xbbc13360	-0.005896017
240	0x3cf2d1e4	0.0296411
241	0x3c84a476	0.016191702
242	0xbc811930	-0.01575908
243	0xbc99070b	-0.018680116
244	0x3c3e6198	0.011619948
245	0x3d0709d2	0.03296835
246	0x3cb261b6	0.021775108
247	0x3d58cef5	0.052931745
248	0x3bfde91c	0.007748736
249	0xbd0ef8c2	-0.034905203
250	0x3c38732d	0.011257929
251	0x3d0be9e5	0.034158606
252	0x3d3bd26c	0.04585497
253	0x3bd39284	0.006456675
254	0x3c51c406	0.012803083
255	0x3b585b7c	0.0033013513
