outputs/nca/Brini_interrupted_epoch599_model.pt (torch, 37186 bytes, 3 tensors)

brain.0.weight f4 [128, 48, 1, 1]
00000000: 8175 c83d 8f77 f3bd 050d c93b aae4 683d
00000010: b0d9 e0bc d359 25be a61a 06be b602 fbbd
00000020: 8530 d2bc 2218 b1bb 86a7 dc3d 070b 213d
00000030: ee57 00be 8b54 dcbd 633c fbbd ef36 dd3c
00000040: 8ac8 09bd 676c 52bd ce70 1bbe 25df ffbc
00000050: 121d 023d 4119 e63e 26b2 e6bd da0a de3c
00000060: d61e 38bd 57c0 c2bd cd72 11be 3e8e afbd
00000070: 2786 b83d f7d4 b13d 04a9 773d b82a a33b
00000080: b514 55bb 6bc6 25be 574a 1fbd 8d33 efbd
00000090: 33b5 1abe b43b 0a3e 7b9f 4a3d 935b eabc
000000a0: 7d4f 713d 4c7d 733c 7edc 2f3d 33b7 433c
000000b0: 4f35 afbd 2abe 87bb 3596 b83d 7e35 0b3d
000000c0: e3e1 7a3b d4a1 27be e2c4 84bd 3e4b d3bc
000000d0: d436 563d 778c 38bd ab2d d9bd 35f0 b53d
000000e0: 3b2d febc de92 273e e55b 163e 4697 d03c
000000f0: 2bb5 96bc 7813 613c 3593 a1bd ba97 c53d
00000100: 1de7 25bc 2f0c 863c 60d3 f23d c78e 02be
00000110: 8903 a13d 94d1 1dbe 3aa2 f6bc 5707 693c
00000120: 09ee 383d 7fb9 343d aaa0 153c 5e9d 863e
00000130: e859 483d 2257 ef3c 1680 6ebd 7f1a f3bb
00000140: c129 ee3c 6313 78bd f7d8 6b3c df19 c53b
00000150: 0471 2d3e 816d 49bb 7175 e6bd 05b4 be3d
00000160: 1bca efbc f352 a7bd 8091 333d 8bc3 de3d
00000170: 1b3f 54bd 8275 25be 3b12 a3bd 5517 373d
00000180: 9808 2e3b 5742 a13d 887f 9a3d e600 98bc
00000190: 13d2 56bd c2f4 673d f85f 91bd 7f8e af3b
000001a0: 0c0f cbbc d40e 9f3c b183 c7ba af6d a83d
000001b0: 69b9 223e f464 0cbe 91eb 233d 4c7b 8dbd
000001c0: bbf8 c2bc 994f c83c eb7f 5b3c 2a38 123e
000001d0: 530d e83c bc9e e3bc e14e 043d fcee ab3d
000001e0: f3be 49be ad76 65bc d429 05be 6d20 fabc
000001f0: 8b6c c03d e3c2 933d b901 20bd db40 adbd
00000200: 8d91 863d 88ac 833d 13d8 c0bc e269 b5bd
00000210: c7d3 e93d 112e c7bd d38d 293d 0edb 4bbc
00000220: c35d c63c 6d36 36be a6b1 0bbd 389d 893d
00000230: 738d e93c 3f1d 043e 8622 b13c 4612 113e
00000240: 386b 923d be67 903d a852 333c 1819 b83c
00000250: 96cc 0fbe cc6f 9ebc f4b1 b3bb 23d6 cd3a
00000260: 17ec c73d 3cde 2ebe 28be 91bd 3d95 b53d
00000270: e021 ce3d 5b46 3d3e 5342 3fbd aa00 a8bd
00000280: 44b5 693d 56e0 993c ebd3 4b3e cbcc 973d
00000290: e6a9 34bd fd65 2abc 0fac 353d 2d5f 40bd
000002a0: ccb0 26bd 9f90 983b 3232 11be f1d5 303c
000002b0: b543 5abb 7513 21be a530 d33d c422 75bd
000002c0: 20f2 3abc 368e 4e3d 78f8 07bd fd53 bc3d
000002d0: 6cbe 063d 0f90 d23d b727 683d 439b 25be
000002e0: c714 4abd 86f0 2b3d 310a 17bd 0ba7 3dbe
000002f0: 681c c03d 1533 913d 629f 1bbe 18bb 8d3d
00000300: 88dc 17be f45c f5bd 4a6a 283d 0788 80bd
00000310: 9992 fa3c 1442 c3bd b570 5ebe 9483 07be
00000320: 6f2a febc 398c 1ebe 8608 923d 4fc4 f03d
00000330: 54ef b13c 55da 11be 6d7c 49bd 8626 d93e
00000340: 6450 363e fd8a 253e be19 503e 6abf ef3d
00000350: 2cb4 ecbc 3572 27bd 4091 29be b59a c0bd
00000360: cb94 f83d 853e 893d a271 2cbe d501 253e
00000370: e7d0 32bd b05c acbb 1b9b ac3d c1b1 8cbd
00000380: 9fb3 a4bc d14d 773d acfc 63bc bfd5 4f3d
00000390: b81a e7bd f103 ba3d 2fd3 64bc bbb3 6cbd
000003a0: 3b58 f93b 177d d5bd 8593 1a3d 5e72 8c3d
000003b0: c8a9 4d3d 284c 893c 9f75 3bbb 7267 763d
000003c0: 49b5 04be 5dfe ac3d a97e 433d 7fea ad3d
000003d0: af1a d1bd 983f 99b9 7ddf e4bd 2266 14be
000003e0: 512b b5bd 1fb0 20be 102f 8ebd d25a a43d
000003f0: c2bc 093e ed2a 193e 4ca3 93bd 0b4d ae3d
0.09788037 -0.11888038 0.0061355853 0.056858696 -0.027447551 -0.16147546 -0.13096103 -0.122563764
-0.025657902 -0.005404488 0.1077414 0.039317157 -0.12533543 -0.10758313 -0.12267377 0.027003733
-0.033638515 -0.05137291 -0.1517975 -0.031234333 0.031766005 0.44941142 -0.11264448 0.027104784
-0.044951282 -0.09509342 -0.1420395 -0.085720524 0.090099625 0.08683198 0.06046392 0.0049794577
-0.0032513563 -0.16188972 -0.038889255 -0.116797544 -0.15108185 0.13499337 0.0494685 -0.02860812
0.058913697 0.014861416 0.042934887 0.011945534 -0.0855509 -0.0041425424 0.09013025 0.03398656
0.0038281612 -0.16370326 -0.06482865 -0.025792714 0.052298382 -0.045055833 -0.106044136 0.088837065
-0.031027427 0.16364619 0.14683492 0.025462758 -0.018396934 0.013737552 -0.07889406 0.0964808
-0.0101259025 0.016363231 0.11856723 -0.12749778 0.078620024 -0.15411979 -0.030106653 0.014222941
0.045148883 0.044122215 0.009132544 0.26291937 0.048913866 0.029216353 -0.05822762 -0.00741893
0.029072644 -0.060565364 0.01439499 0.006015047 0.16937643 -0.0030735435 -0.11252869 0.0931168
-0.029271176 -0.08170118 0.04383993 0.108771406 -0.051817995 -0.16158107 -0.079624616 0.044699986
0.0026555415 0.078739814 0.07543856 -0.018555116 -0.052446436 0.056629904 -0.07098383 0.005357563
-0.024787448 0.01941625 -0.0015221742 0.082240455 0.15891041 -0.13710386 0.040019576 -0.06908283
-0.023800245 0.024452018 0.013397197 0.14279237 0.028326666 -0.027785651 0.032301787 0.08395192
-0.19701748 -0.014005345 -0.13004237 -0.03053304 0.09395703 0.07214906 -0.039064143 -0.08459636
0.0657073 0.06429392 -0.023540532 -0.08858086 0.114173464 -0.09725583 0.04139502 -0.012442363
0.024214631 -0.177942 -0.034104966 0.0671944 0.028509831 0.12901781 0.021622907 0.14167127
0.071493566 0.07051037 0.010945 0.022472903 -0.14042887 -0.019340418 -0.00548386 0.0015704077
0.097618274 -0.17076963 -0.071163476 0.088663556 0.10065055 0.1848387 -0.04669411 -0.08203252
0.057057634 0.01878373 0.19905059 0.07412108 -0.04410734 -0.010400292 0.04435354 -0.046965767
-0.04069595 0.004655912 -0.14179304 0.010793195 -0.0033304517 -0.15730079 0.103120126 -0.05984761
-0.011410266 0.05042859 -0.033195943 0.09195707 0.032896444 0.10281383 0.0566785 -0.16172509
-0.04933622 0.041977428 -0.036874954 -0.18520753 0.09380418 0.07089821 -0.15197518 0.06920451
-0.1483022 -0.1198062 0.04111699 -0.06275945 0.030587481 -0.09534088 -0.21722682 -0.13233787
-0.031026093 -0.15483178 0.07130532 0.11756193 0.021720566 -0.14243443 -0.049190927 0.42412204
0.17804104 0.16166301 0.2032232 0.11706431 -0.028894506 -0.0408804 -0.16559315 -0.09404508
0.12137755 0.06701378 -0.16840222 0.1611398 -0.043656256 -0.0052600726 0.084280215 -0.06869841
-0.020105181 0.060376946 -0.013915222 0.050740954 -0.11284393 0.09082783 -0.013966366 -0.05778859
0.007609395 -0.104242496 0.03773834 0.06857751 0.050210744 0.016759947 -0.0028604043 0.060157247
-0.1295978 0.084469534 0.047728214 0.08491992 -0.102101676 -0.00029229815 -0.111754395 -0.14492086
-0.088461526 -0.15692185 -0.0694257 0.08025135 0.13450912 0.14957781 -0.07208881 0.085107885

brain.0.bias f4 [128]
00000000: fdb7 1fbe 9b4c 23be 19bf 71be 92a0 113d
00000010: 08ab 21be 7dc1 bc3c 7073 19bd 247a c8bc
00000020: 106b a5bb f7ba 38bb f738 41bc 7627 82bd
00000030: ab00 9a3d f731 b13d fbfc 193c c9ea 313b
00000040: 9ea3 febd 9907 e9bd 641c 3bbd 8364 c13d
00000050: b139 fbbd 3061 663c 2b8f d33c 2816 57bd
00000060: e793 37be 4877 56be 74f5 82bc d637 76bd
00000070: feea 60be 22f8 23bd 2217 2b3d 2057 31be
00000080: 41fc 24be c33c bebb df79 973c b752 3cbe
00000090: b176 853d 54e8 6b3d 628a 963b b702 bcba
000000a0: 08f6 e7bc 2de7 623d ef20 c0bd 1fa3 ca3c
000000b0: 5dba 95bc 23b6 d4bd 36f5 c7bc 9b50 423c
000000c0: 0cff 2dbc d6f4 013c daab b2bd 2a70 81ba
000000d0: 2ff6 0fbe e395 86be cd6e 1abe 9caf bcbd
000000e0: 1390 f3bd 0f63 053d 9df0 ffbd 0703 88bd
000000f0: a0b5 613c d9d5 07be a50e 26be 9e1b ebba
00000100: 55a8 1fbd 292c eabd a215 03bd e96e 2a3d
00000110: e891 223c a759 30bd 6f40 94ba f1ae 54be
00000120: dab6 b0bd 5011 243c 3ca5 27be c7f5 cfbd
00000130: d736 17be 6856 12bd 73cf 003a 91d9 003d
00000140: b8d7 6cbc 25b7 57be 69c2 e8bd 3e3e f0bc
00000150: babd 973b c719 12be a6ab 493d c406 8b3d
00000160: dd7e 28be fb89 51bd d461 94bd 8fee 733d
00000170: 4fb1 a93a e36b 18bc aba7 8ebc 43cb 6ebd
00000180: e27e c2bb 5824 06be a95a 0f3d 481b 063c
00000190: 0e53 11bd 0a1a 4b3d c3cb 25bc bea6 39bd
000001a0: 6103 ecbd c593 2abe c1d0 f6bd 1f44 173d
000001b0: f662 ffbd 8975 aa3c 0b62 4a3d 220b b3bc
000001c0: c5b5 70bd 00af f6bd 3f5d 44be ecab a7bd
000001d0: e42f 04be 3402 253d 1d56 ca3c 32a4 563d
000001e0: b562 823d a830 f23c eec4 c8bc b9da 03be
000001f0: 2d72 3ebc b39c 00be 004c 993d 7a4e 43be
-0.1559753 -0.15947191 -0.23608054 0.035553522 -0.157879 0.023041481 -0.037463605 -0.024472304
-0.0050481632 -0.0028187612 -0.011793367 -0.06355183 0.07519659 0.08652108 0.009398694 0.0027148
-0.12433551 -0.11378402 -0.045681372 0.09442999 -0.12266863 0.014061257 0.025825104 -0.052511364
-0.17927514 -0.2094394 -0.015986182 -0.060111843 -0.21964642 -0.04003156 0.041770108 -0.17318392
-0.16111852 -0.005805583 0.01849073 -0.18390928 0.06516779 0.057594612 0.0045941332 -0.0014344071
-0.028315559 0.055396248 -0.093812816 0.024735985 -0.018277341 -0.10386302 -0.024408918 0.011860038
-0.01061989 0.007931909 -0.08724184 -0.0009875346 -0.14058755 -0.2628623 -0.1508133 -0.09213182
-0.11892714 0.032565173 -0.12497065 -0.066412024 0.013776213 -0.1326517 -0.16216524 -0.0017937308
-0.038978893 -0.11434204 -0.032003053 0.04160968 0.009922482 -0.04305425 -0.0011310707 -0.2076986
-0.08628626 0.010013893 -0.16371626 -0.101543 -0.14767013 -0.035726935 0.0004913725 0.031457487
-0.014455728 -0.21065958 -0.11365206 -0.029326554 0.0046307715 -0.14267646 0.049235962 0.067884
-0.16454645 -0.05115698 -0.07245222 0.05955368 0.0012946519 -0.009303066 -0.017413935 -0.058299314
-0.0059355358 -0.13099802 0.03499857 0.008185215 -0.035479598 0.04958538 -0.010119381 -0.045325033
-0.11524082 -0.16657932 -0.120515354 0.0369302 -0.12470047 0.020807998 0.049409907 -0.021855894
-0.0587671 -0.12045097 -0.19176196 -0.08187088 -0.12908894 0.040285304 0.024699265 0.052402683
0.06366483 0.029564217 -0.024507966 -0.12876405 -0.011623901 -0.12559776 0.07485199 -0.19072905

brain.2.weight f4 [16, 128, 1, 1]
00000000: cfd1 70bd 5118 e3bc 4517 5e3c 35a7 53bc
00000010: 2377 ccbb fe3a 923c 1eed be3b cf78 00bd
00000020: 0282 eb3b 98d5 b63c aed5 a93b 967b 9b3c
00000030: f159 f83b 2317 36bc 6a81 d2b8 ad7f f439
00000040: f44e 223d 28c6 93bc 1fb5 ee3c babb 62bc
00000050: 6428 193c 340a 243d fd11 c13c c413 f5bc
00000060: 895f bd3c f5ee 7b3d 0fb8 2fbd 7573 b9bc
00000070: d1e2 0dbb a788 c8bc 9f3e 7f3c 77b7 33bd
00000080: 5458 43bc 4641 683c 0acc c53c c7df 60bc
00000090: 3b55 503c cf70 b0bb 85f3 203d 2cf4 ab3c
000000a0: 1a6d 0cbd 9e07 a13b 6973 b5bc 5821 4d3c
000000b0: b8ca ce3b 3926 293d f4dc fa3c 7256 393c
000000c0: 2986 113d fa3f 8f3c 3d16 34bd 48fb 863c
000000d0: 6a67 c5bc 25a5 383d 32a1 6f3d 91eb c2bb
000000e0: b803 823d 83b7 ec39 6908 1abd 64ec 2e3d
000000f0: 1b49 d1ba 1ce3 e1bc e943 42bc 8c40 d33c
00000100: 5836 8f3c 9806 61bc 781a 173d 87b8 833c
00000110: e75b 0a3d bcad 353c 996a fbbc 3dcb 163d
00000120: a802 cabb d378 0c3d 6199 573d ac73 34bd
00000130: 2584 60bd eb83 de3c 68be 893c f77c abbc
00000140: a37d fe3b f8a6 c73b 479d 283d 6fc2 8e3c
00000150: e512 153d 038f 323d 160a 2c3c 1b1c 0ebc
00000160: 086e 553d 1dd5 90bc b7b8 333d 1bee d03c
00000170: 568b f73c a6e1 e53c 2651 eb3c 64e3 e53b
00000180: c332 13bd 7d68 1abd 6dcd 253c b435 0a3d
00000190: 74bc ad39 8c1f ae3b 023b d2bb 1162 47bc
000001a0: 27f3 4fbd d7ea 07bd 04dd f03c 06d4 79bc
000001b0: 616d d63c 853f af3c f31f 293c 722b e93c
000001c0: 29c8 03bd 94a6 25bd 401e f7bc 39e6 7f3c
000001d0: b2b9 a43c da8b d23b 898b b5bc e8a6 48bc
000001e0: 8527 b5bb efb1 cf3c 240d d63c ce34 c43c
000001f0: 448e 4d3c 4431 033d 8c90 e4bc 4d94 cbbc
00000200: 1950 3ebd 2a9d bcbc b7ef 4a3c 214c acbb
00000210: 553c babc f3f7 4b3c ac6b 5a3c 0337 92bc
00000220: 2494 de3b 96e6 803c ded3 4b3b 2282 273c
00000230: 524f 2d3c c93f 29bb 1327 c93b c246 c0b8
00000240: fbf9 f73c b2c2 32bc a99b 483c 486b 3f3b
00000250: 7416 3f3b 0980 103d aec4 5b3c 534a a4bc
00000260: 82ef 8d3c 0496 2a3d 8b65 0bbd a1d5 22bc
00000270: b334 a8bb c405 b5bc 2c40 5d3c 50f3 09bd
00000280: 9e83 29bc f8c3 4e3c 84a6 9a3c 1a61 a5bc
00000290: eb05 083c c13b 00ba 1ddf 003d 362f 773c
000002a0: 1df7 cbbc d439 a03b 1a78 86bc 0a5e 463c
000002b0: 6788 fdb6 99fd d53c 9049 a63c 2ec7 5f3c
000002c0: c7f7 d73c 18d7 9a3b b57b 14bd 0226 e23b
000002d0: 6cca 94bc 0cc7 053d 6a61 1e3d 8f72 42bb
000002e0: c464 3b3d 0428 ef39 92b9 ccbc e771 f83c
000002f0: a2b1 1c3c 1f5b 77bc a77d 89bc d027 fb3b
00000300: ed12 773c d3d5 17bb 83ef d43c bb9b 923c
00000310: 6c9b c13c eb6f ca3a 1b55 d0bc 5fb6 d63c
00000320: dcbe 42bb 2e0c 843c 2243 303d 36f3 dfbc
00000330: b29b 24bd 9ad8 a93c 619b 353c 22b4 5fbc
00000340: 6f9d 353c e3e9 debb 849f ca3c ebef a73b
00000350: b3a1 dc3c baa9 e03c 75f4 3b3c 4bca bfbb
00000360: 31ac 2b3d 2861 28bc 03a9 023d 8940 513c
00000370: bd75 c93c 10b0 a73c 2e10 a43c b207 9d39
00000380: c768 98bc 18af d6bc aa1a 343c 9759 c73c
00000390: ea3b 18bb 256b 883b 13c8 81bb 6dd6 35bc
000003a0: 5c69 e1bc a350 e6bc 1676 9c3c fd17 5cbc
000003b0: 1e11 8f3c ff54 9e3c c129 203c 6391 873c
000003c0: 6f04 bcbc b17b 13bd 2806 f3bc 21a2 083c
000003d0: 843b 2b3c 38f5 6d3b 14d0 b0bc 8b15 b1bc
000003e0: 786f 653a 3ee5 933c 65d3 453c 51a3 823c
000003f0: 5372 813c 62cf c73c 9939 e1bc 7eb9 8ebc
-0.05879384 -0.027721556 0.013555353 -0.012918283 -0.006239788 0.017850395 0.0058266064 -0.031365212
0.007187129 0.022318646 0.0051829433 0.018979829 0.007579081 -0.011113915 -0.000100376856 0.00046634433
0.039626077 -0.018038824 0.0291391 -0.013838703 0.009348009 0.040048793 0.023568148 -0.029916652
0.023116844 0.061507184 -0.04290014 -0.022638062 -0.0021650086 -0.024479223 0.015578895 -0.043876138
-0.011922915 0.014175719 0.024145145 -0.013725228 0.012715633 -0.0053845416 0.03929474 0.020990454
-0.034283735 0.004914238 -0.022149758 0.012520157 0.006310787 0.041296218 0.030622937 0.011312114
0.035528336 0.017486561 -0.04396652 0.016477242 -0.024097163 0.04507937 0.058503337 -0.005948492
0.063483655 0.00045150155 -0.037605677 0.04270591 -0.0015967222 -0.027574115 -0.011857011 0.025787614
0.017481968 -0.013734482 0.036890477 0.0160792 0.03377905 0.011088785 -0.030690478 0.036814917
-0.0061648674 0.034294914 0.052636508 -0.044055626 -0.054813523 0.027162513 0.016814426 -0.020933611
0.007766442 0.0060929023 0.041165616 0.017426698 0.036394972 0.043593418 0.010500452 -0.008673693
0.052106887 -0.017679745 0.04387733 0.025504163 0.030217808 0.0280617 0.028725218 0.0070156325
-0.035937082 -0.037697304 0.010119778 0.03374262 0.0003313754 0.0053138193 -0.0064157257 -0.012169377
-0.050768998 -0.033182945 0.029402263 -0.015248304 0.026175203 0.021392593 0.010322559 0.0284631
-0.03217331 -0.040442064 -0.030165792 0.015618854 0.020108078 0.006425363 -0.022161262 -0.012246825
-0.0055283927 0.0253534 0.026129313 0.02395096 0.012546126 0.032029405 -0.027900957 -0.024850989
-0.046463106 -0.02302416 0.012386254 -0.0052580987 -0.022733847 0.012449252 0.013331335 -0.017848497
0.006792562 0.015734952 0.0031101624 0.010223897 0.0105779935 -0.0025825372 0.006138691 -9.168453e-05
0.030270567 -0.010910677 0.0122441435 0.0029208232 0.002915767 0.035278354 0.013413591 -0.020054972
0.01732612 0.041646972 -0.034032386 -0.009938628 -0.0051332354 -0.022097476 0.013504069 -0.033679307
-0.010346321 0.012619965 0.018878229 -0.020187903 0.008302192 -0.00048917165 0.031462777 0.01508694
-0.024898106 0.004889706 -0.01641469 0.012107382 -7.555867e-06 0.026121901 0.02029875 0.013658328
0.026363267 0.004725348 -0.03625079 0.0069015035 -0.018162929 0.03266053 0.03866712 -0.0029670333
0.045750394 0.00045615446 -0.02499083 0.03032775 0.009563835 -0.015097409 -0.016783549 0.007664658
0.015080196 -0.002316822 0.025993114 0.017896524 0.023633681 0.0015444731 -0.025431206 0.026210008
-0.0029715812 0.016119089 0.043032773 -0.027337652 -0.040187545 0.020733166 0.0110844085 -0.013653787
0.011084898 -0.006802784 0.024734266 0.005125036 0.026932573 0.027424682 0.011471857 -0.0058529726
0.04191226 -0.01027707 0.031899463 0.012771734 0.024592275 0.020469695 0.020027246 0.00029951107
-0.01860465 -0.026206538 0.010992685 0.024334712 -0.002322907 0.0041631632 -0.0039606183 -0.011098486
-0.02751606 -0.028114622 0.019099277 -0.013433454 0.017464217 0.019327639 0.00977558 0.016548818
-0.022951333 -0.036006633 -0.029666021 0.008339436 0.010451201 0.0036309492 -0.021583594 -0.021616718
0.0008752267 0.018053647 0.012074326 0.015947016 0.015801584 0.02439088 -0.027493285 -0.017422434
