outputs/nca/Brini_128x128_model.pt (torch, 63949 bytes, 3 tensors)

brain.0.weight f4 [128, 48, 1, 1]
00000000: 51d7 f33c c368 f9bb c702 9b3d 3a41 a13d
00000010: 0ac8 b93d 7bbb 96bd 2840 1dbe 8565 4ebd
00000020: 0269 1bbe 6344 d03c 1c23 d3bd e83c d3bb
00000030: 65b6 dbbc 5615 5dbd a7a4 e43d 847b a9be
00000040: 20ae 24bd f33e 403d e2d4 2d3e 13c4 a3bd
00000050: 1d01 643c 27d8 90be a21c b4bd b7ac 45bd
00000060: fbc6 8fbe 708c ad3c e340 0f3d 5974 68be
00000070: cc94 4e3d 81f3 7a3d d383 52be 8e2f 0c3c
00000080: 17fe bebb ff2a 203c 3904 e83c ed58 45bd
00000090: 89b6 47bd 12b3 043d 650d 81bd bb08 b03d
000000a0: 820a 5c3d e6eb 0bbd 3d28 86be cd6d 423d
000000b0: 168b 2dbc aaa6 863d 7ea0 2c3d 6015 bbbd
000000c0: c39e 44be 98ec 1d3d 0fa1 093d 0516 4b3d
000000d0: 7394 d23d e378 33bc 71a8 f4bd d957 4d3d
000000e0: 9e2e 5b3e 631a 563d bfbd 5b3d 3a54 1f3d
000000f0: daf8 853d 6f23 2b3d e3c2 a3bd 013c e63d
00000100: 5fb2 8c3c 9e00 df3d 4e68 133e a28c c73d
00000110: fb4d 863c ef78 143e 95d1 a4bd 7153 fc3d
00000120: 6db3 183e ed5e 28bc 0a2a 95bd 26dd febc
00000130: 14ea 263d 451a 95bd b4dd d5bd f05a bf3d
00000140: 0f6f a33d 1cce a53e 4f51 c7bd 3c7e d43c
00000150: 52a6 fcbd 1387 cbbd 74ad 85bd 6a34 803e
00000160: c0d5 f5bc c817 073b 5808 1d3e 1723 0c3d
00000170: 11e2 cf3d 1067 033d e8bd 76bc 5e50 e8bd
00000180: 1962 a8be 4504 81bd 4b11 92bd a70e bdbe
00000190: e940 503d bd27 32bd 961a b7be 70e8 c8bc
000001a0: f43b bcbd 9606 1fbe 9c11 a4bd 30b6 f03d
000001b0: 16a2 b73e 3ccc ea3c 04d5 5d3d 33a5 b63c
000001c0: 9652 383d ec94 203c 2c80 5fbd 5733 043a
000001d0: 84cb cc3c 28ae 113e 5406 a83d fbd3 b4bc
000001e0: 26f1 9dbd 14d9 4e3d e763 e33c 05b2 33be
000001f0: c8f7 b4bc 7730 aa3d c704 4e3e 0e02 123d
00000200: ec8d 833b 07b0 84bd dfd0 3ebd b8bd 66bc
00000210: e3ef 0dbe e374 9c3d 5f40 6fbd 4fb7 3c3e
00000220: b54b 493d b2a9 e33a 4376 bebe 6d06 353c
00000230: e76f c9bc 46f4 ed3d 2af0 e83c 71fc 54bd
00000240: bcc4 16be 3608 993d e28e 563d e470 08bd
00000250: 7ff9 883d c124 353d cbdd f2bc 5809 e13b
00000260: a988 2bbb 87e2 653e 770d c4bc bde3 1a3d
00000270: 2b62 493d 3370 f7bc 8846 13bd 7c8c fd3d
00000280: 2928 aa3d 20a1 babd 723c e03c 9961 f5bc
00000290: 7ced 413c a302 713c 584e 96bd 7d42 48bd
000002a0: 6ca0 183d bc5f 4fbd f379 a13d 1dfd 16be
000002b0: 149b 753d 1ff5 103d 1ea0 2c3e 2a48 77bb
000002c0: 5000 813c 91fa 5f3c 42af e73d 4733 25bd
000002d0: a421 f3bd 83aa db3c b0b1 103d 3012 043e
000002e0: 59ce 983c 5c53 0e3c c07a 473e ce21 dcbc
000002f0: abf3 5abd 7ede 273d 88a7 7a3d 249d 283e
00000300: 0665 a93d b0bf c43c d35d 39bd 2fd8 943d
00000310: 096f 513b 83ef 973d e7ec 53be 10df 2abe
00000320: 16d2 50bd 7eef 01be 73aa 63bd 62ba 0abd
00000330: 3a86 05be 09f5 15bd 9f56 bd3d 21a0 8a3e
00000340: a3a8 9a3d c9af 293d 0025 a63d 5937 4d39
00000350: 51ee 0abd cb12 103e 94fa 71bd 7213 12bd
00000360: 5e96 bbbc 1c4d 493d 7903 e1bd f2ac 4a3e
00000370: c756 6a3d d276 bb3c 17bc 7a3d e9f8 4d3c
00000380: 503c eabd b577 623e 60cd f03b 97fa 14bd
00000390: f898 8f3d 7238 38bd 9983 2e3c 3fdc 24bb
000003a0: 1699 11be 05f7 303e 6445 663e c3f0 11be
000003b0: 39fb f7bc 3435 ad3d 47a2 6abe 615e 0d3e
000003c0: ff68 9ebd 2958 e63d 43d9 ee3d 6831 b7be
000003d0: 1cc7 c8bd cb7f 573e df84 21be 86f8 2a3d
000003e0: 9d02 0c3e 2163 123e f001 4e3d 677a 10bd
000003f0: 5b81 94be 5684 98bc b242 613b 3811 83be
0.029765757 -0.0076113655 0.07568889 0.07873769 0.090713575 -0.07359978 -0.15356505 -0.050389785
-0.15176776 0.025423234 -0.10309431 -0.0064464696 -0.02682037 -0.053975426 0.111642174 -0.33102047
-0.04020512 0.046935033 0.1697574 -0.079963826 0.013916281 -0.2828991 -0.08794524 -0.048260417
-0.28081498 0.02118513 0.03497399 -0.22700633 0.050434873 0.06126738 -0.205581 0.00855626
-0.0058286297 0.009775876 0.028322326 -0.04818051 -0.048758063 0.032397337 -0.06301383 0.08595415
0.05372096 -0.034160517 -0.26202574 0.047467995 -0.010592243 0.065747574 0.042145245 -0.09134936
-0.19201188 0.03855571 0.033600863 0.049581546 0.10282221 -0.010954115 -0.1194619 0.050132606
0.21404502 0.052271258 0.053647753 0.038898684 0.06541605 0.04178184 -0.07996156 0.112419136
0.017174898 0.108887896 0.14395258 0.097436205 0.016394606 0.14499258 -0.08047787 0.12320603
0.14912196 -0.010276538 -0.07283409 -0.031111311 0.040750578 -0.07280401 -0.10442677 0.09343517
0.07980167 0.3238381 -0.09732305 0.0259391 -0.123364106 -0.09937873 -0.06527224 0.2503999
-0.03000915 0.002061354 0.15335214 0.03421315 0.101505406 0.03208071 -0.015059926 -0.11343454
-0.32887343 -0.062996425 -0.071322046 -0.3692524 0.050843153 -0.04349493 -0.3576247 -0.024524897
-0.09191123 -0.15529856 -0.08011171 0.117534995 0.3586585 0.02866184 0.054158226 0.02229557
0.045000635 0.009801131 -0.054565594 0.00050430506 0.024999388 0.14226592 0.08204332 -0.022073736
-0.07712011 0.05049999 0.027757598 -0.17548378 -0.022090808 0.08310025 0.2011901 0.03564649
0.004014721 -0.06478887 -0.046585914 -0.014083318 -0.13861041 0.07639482 -0.058411 0.18429302
0.049144465 0.0017369299 -0.37199602 0.011048895 -0.024589492 0.11618857 0.028434832 -0.05199856
-0.14723486 0.07472269 0.052382357 -0.033310786 0.066882126 0.044224504 -0.029646775 0.006867569
-0.0026173985 0.22449695 -0.023932202 0.037814844 0.049165886 -0.030204868 -0.035955936 0.12380311
0.08308441 -0.091127634 0.027372573 -0.029953765 0.011836406 0.014710101 -0.07339162 -0.048891533
0.037262365 -0.05062841 0.07884588 -0.14744993 0.059962347 0.035390016 0.16857955 -0.0037732222
0.01574722 0.0136705795 0.11312725 -0.040332105 -0.11871651 0.026814705 0.035325706 0.12897563
0.018653082 0.008686867 0.19480419 -0.026871588 -0.053455036 0.04098367 0.061194927 0.16466194
0.08271222 0.024017185 -0.045255493 0.07267796 0.0031957051 0.0741873 -0.2069584 -0.16686654
-0.050981604 -0.12689015 -0.055582475 -0.033869155 -0.13039485 -0.036610637 0.09245037 0.27075294
0.07551696 0.041427407 0.08112526 0.00019570942 -0.033918682 0.14069669 -0.05907686 -0.035663076
-0.02289885 0.049145803 -0.109869905 0.19792536 0.057211664 0.022883806 0.061214533 0.012571552
-0.11437285 0.22115977 0.0073487014 -0.036371794 0.07011598 -0.044975705 0.0106514925 -0.002515569
-0.14218554 0.1728173 0.22487408 -0.14252 -0.03027116 0.08457413 -0.22913466 0.13805534
-0.0773487 0.11247284 0.11662533 -0.3577988 -0.09803602 0.21044843 -0.15773343 0.041740917
0.13672872 0.14295627 0.050294816 -0.035272982 -0.2900494 -0.01861779 0.003437203 -0.25599074

brain.0.bias f4 [128]
00000000: a9e2 c6bd 5dcc a23d ba38 59be 2872 41be
00000010: b1a4 05be 598b 223d 1f27 3cbe 6289 a1bd
00000020: c614 773c 6d92 febd 5814 803c 6557 863d
00000030: 5243 9dbc 0275 5dbc 006f 793d 141f 76be
00000040: b49f 4fbd cfaa 41be ebf9 80bd c2dd f33b
00000050: acd8 01be 19a8 8abe 6fd4 aa3d 96f1 babd
00000060: f7fe da3d e643 063d 3be1 393d fb16 7bbe
00000070: f8f1 363d 77ec 993d 8f91 783d cb25 cc3c
00000080: cb2a c23d 0cf4 7abd f881 16bd f970 edbd
00000090: b974 0f3c 0453 543d 67fa 49be d181 99bd
000000a0: d27d c73c 20a8 c6bd 41bd bcbd a344 a3bd
000000b0: 2445 403d 5bf9 bcbc 31a5 fa3c 2972 1ebe
000000c0: 4621 8f3d a6f9 bfbd 6465 963d b02c 1fbc
000000d0: 49d9 c2bd 06a3 01bd d378 55be 01e7 d93d
000000e0: 3084 ccbd 994f 993c 7a2f 13be 7579 643d
000000f0: ecb7 c13d 64f7 7ebd e2d8 26be 80d5 973c
00000100: a39d b23d 2587 d43c 7921 f5bc 8aa3 333d
00000110: 73d9 7cbe c309 28be 3a07 2b3d 9ad0 41be
00000120: 5f50 dd3d bf21 f13d 1678 8e3d 2c67 3fbd
00000130: 611c 10be 67be 6cbe a8e9 3e3d c80c 7ebe
00000140: 9450 443d 5ed3 3bbe 99f0 09be 88e7 cabd
00000150: 5008 a93d 30e3 90bd 901a cfbd 85bc 57be
00000160: cd87 b03c b7b3 da3b d66d 0cbe 5f45 10be
00000170: b60d ff3d 9f46 383d bf8a 84be d61e 60be
00000180: a783 c43d f3c0 20be cb3f 0d3c 1776 56be
00000190: e5a1 b23d 0022 223d 1102 f2bd 09fb f5bd
000001a0: 3d63 bfbd 6a03 76be 0d44 bd3c e05b a4bd
000001b0: f409 e5bd ee1c 52bc 63eb 2dbe 7111 38be
000001c0: 9c89 c5bd bf70 c8bc 6de7 53bd 6a8f 08be
000001d0: 5878 7dbe a484 9cbd e5e6 6b3c 40da 843d
000001e0: f081 07be fe2c 5c3d 8cdb 4fbd 24fa 29bd
000001f0: 504d 243e dee7 4fbe b721 c53b 4f7f 023d
-0.09711201 0.079491355 -0.21213046 -0.18891203 -0.13051106 0.039683674 -0.18374299 -0.07887532
0.015080636 -0.12430272 0.0156347 0.06559638 -0.01919714 -0.013516666 0.060896873 -0.24035293
-0.050689414 -0.18912815 -0.06297668 0.007442207 -0.1268031 -0.27081373 0.083413 -0.0912811
0.10693162 0.032779597 0.045380812 -0.24520485 0.044664353 0.07515805 0.06068569 0.024920365
0.09480818 -0.061267897 -0.03674504 -0.115938134 0.008755856 0.051836982 -0.19724427 -0.07495464
0.024351988 -0.09700036 -0.09215785 -0.07972076 0.046940938 -0.02306812 0.030596348 -0.15473236
0.06988768 -0.093737885 0.073435575 -0.009715244 -0.095141 -0.031649612 -0.20846872 0.106397636
-0.0998615 0.018714713 -0.1437358 0.055779893 0.094589084 -0.06224765 -0.16293672 0.018534422
0.08721473 0.025943348 -0.029923188 0.043857135 -0.24692325 -0.16409974 0.04175494 -0.18927231
0.10806345 0.11774015 0.06956498 -0.04672925 -0.14073326 -0.23119508 0.04660955 -0.24809563
0.047928408 -0.18342349 -0.13470687 -0.09907442 0.082535386 -0.070745826 -0.10112488 -0.21068008
0.02154913 0.0066742557 -0.13713774 -0.14088963 0.12453787 0.044989225 -0.25887105 -0.21886763
0.09595423 -0.15698604 0.008621166 -0.20943485 0.08722285 0.039583206 -0.118168004 -0.12010772
-0.093451 -0.2402474 0.023103738 -0.08025336 -0.11183539 -0.01282428 -0.16984324 -0.17975403
-0.096453875 -0.024467824 -0.051734377 -0.13335958 -0.24752939 -0.07642487 0.014398311 0.064869404
-0.13233161 0.053753845 -0.050746486 -0.04149832 0.16045117 -0.20303294 0.006015982 0.031859692

brain.2.weight f4 [16, 128, 1, 1]
00000000: 5d13 5ebb fcf1 253d cf68 873d dcfc 633c
00000010: 3c7b 14bc 6869 8b3d f275 16bd 4c81 993c
00000020: 6c65 a3bd 6a60 24bc 634f 0abc 0211 91bc
00000030: cc4a 80bc 4df4 483c a15b 1f3d 85db 13bc
00000040: 8b51 1d3d ab14 9a3c 2e05 7e3d 4175 d53c
00000050: 68b9 203c 113a 6bbd c75f 723c c154 a73a
00000060: 0ade 103d 274a 303d b7ab 36bd 7d5e bf3c
00000070: 645f 603c bad9 a5bc 5726 7abd 0163 0f3d
00000080: f926 94bd a0a7 bdbc 36c8 d53a b443 393d
00000090: c194 d33c 6478 f3bc cd4d eebb dc8f b23c
000000a0: 12e7 9fbb b9b2 6c3d 965f dfbc e675 973b
000000b0: 7aff 173d 3d0f 723d 97a4 173c 920c 433c
000000c0: d1bb 28bc 2ddc 453d 9ed6 79bd 6853 eebb
000000d0: 2288 083d ea87 d23c e5f7 61be 7f36 aebc
000000e0: 7564 7a3d 3e79 bfbb 2c9e 323d 9266 093e
000000f0: b0f0 1fbd 7243 9abd b2b1 ea3c d4ff 833d
00000100: c9fe a1ba 0faa 69bc 3b6a 043d 8afb 763d
00000110: d09f e33c dc5a 8fbc 98ac 613d 30b6 b4bd
00000120: 64d9 eabc 378c 36bc c4ad 0b3e 9754 a53b
00000130: ed54 193d a9e7 f8bc 18dc 2a3d 115a f4bc
00000140: 911a 313c dcce 7ebd eb7b e63b c841 9c3d
00000150: c8fc 97bc 22cd 36bd 26ea b43c 7731 24bd
00000160: 1713 71bd 1a1c b0bc a705 e0bc 6530 e13c
00000170: d4d1 b53c f321 2ebb 5dbf 4ebd 3948 3fbb
00000180: 6fab 84bc d998 da3c 2332 42bd a41f 45bd
00000190: 8a38 6b3b ab3f c93c 314c 25bd 5943 b8bd
000001a0: aa25 38bc bd49 59bd f7ae 943c d8a6 f03c
000001b0: 6f2c 3d3d 7377 073d 59da 23bc e39e 0abd
000001c0: de4d 7aba 8585 0abc fa6f 13bc 21aa 8dbb
000001d0: 1097 6e3c 00ee 07bd f667 823c 0c7e 953c
000001e0: 054b a7bd 6eb2 913c f8e8 3fbb 6ea2 b2bd
000001f0: fb8e 9cbc 207e e4bc 2ce3 62bc 4daa 203d
00000200: 0a26 043c 3dcf 043d 86a5 893d a562 e6bc
00000210: 89d8 33bc 3f03 a53d daa2 b4bc a2fe 223d
00000220: 519b 94bc b7df 30bc 508f 1cbd ab5b 00bd
00000230: 958f 27bc 7492 62bb 88ab 4abc 58d0 e8bc
00000240: 4ec0 f13c 87dc b53a 3766 1a3d 78e6 153d
00000250: 492d 1b3c 0f40 e3bc 8b11 98bb 030d 853b
00000260: 9a0d bc3c a71b 473c 3198 39bd 1d83 b8bc
00000270: c6be dd3c c0e0 753c b80c 4ebc f9bd 7c3c
00000280: 551e 30bd b7f8 94bc d54c 92bd e163 88bd
00000290: f908 0f3d 045c bcbc 2e53 b0bb 6dd8 9abc
000002a0: 9af4 4abb cc29 e73c ed15 d9bc 305a 1cbb
000002b0: b969 cd3c 0446 6d3d c9ca 783c b802 d9bb
000002c0: a68a 5f3c 7f5f aabc 9505 87bc 2334 18bc
000002d0: 7321 8c3d bf1d 8e3c f8e4 e4bd 2f54 683c
000002e0: 51c5 763c 27e0 3ebc 3927 c33c e7a1 a43d
000002f0: 32cc 95bc 5751 49bd 2f19 713d 7c46 e63c
00000300: 139f 2bbc 4249 713c e906 203d bb7f d5bc
00000310: 149c 9b3c ec08 613c 6a7b 233d cf14 55bd
00000320: ddb7 883b 9959 22bd cc83 ac3d c81d 7c3d
00000330: 4da9 d13a 3aa6 acbc 1b69 ce3c a74b cfbc
00000340: 2bec 13bb 388a 79bd 3b71 c73c 0911 433d
00000350: 57b7 83ba b17d 823d 0c3f ad3c 98c0 6bbb
00000360: ee6a 43bd d055 abbc 70dc 0b3d 642a 113b
00000370: 4e12 243d 2bf1 bbb8 5153 11bc 78de e53c
00000380: f615 00bc 891b 48bc d17d ee3c 6e7d c9bb
00000390: 4bb8 c3ba 6051 363d 63cf 45bd 8a51 5bbd
000003a0: 2b04 19bc f351 2ebd 8fd1 113c d1fd ef3c
000003b0: a711 b03c d837 523b a0a9 573c 01dc dfbc
000003c0: 2214 80bd db88 0bbd efba f63c d0d0 ddbc
000003d0: 1015 09bd d6e7 02bd 91b3 3abc bb15 0c3d
000003e0: 312c 87bd 84a8 2ebb 3aa3 a73c 648f e9bc
000003f0: 1f3f c1bc 7899 0d3b dbeb 78bc bea6 b43c
-0.0033886053 0.040513977 0.066117875 0.013915267 -0.0090625845 0.06807214 -0.036733575 0.018738411
-0.07978329 -0.0100327525 -0.008441779 -0.017708305 -0.015660666 0.012265277 0.038905744 -0.0090245055
0.038407844 0.018808683 0.06201666 0.026056888 0.009809829 -0.057428423 0.014793343 0.0012766347
0.035368003 0.043039467 -0.044597354 0.023360485 0.013694618 -0.020245422 -0.06107172 0.035006527
-0.07233996 -0.023151219 0.0016310278 0.045230582 0.025827767 -0.029720493 -0.007272458 0.021797113
-0.0048798406 0.05778763 -0.027267259 0.004622209 0.037108876 0.059096564 0.00925555 0.011904852
-0.010298685 0.04830568 -0.06099569 -0.0072731264 0.03333295 0.025699575 -0.2206722 -0.02126622
0.06113096 -0.0058433106 0.043607876 0.13418034 -0.039047897 -0.075323954 0.028649185 0.0644528
-0.0012359257 -0.014261737 0.03232787 0.06029848 0.027786165 -0.01749938 0.05509624 -0.08823812
-0.028668113 -0.011141828 0.13640505 0.0050454843 0.037434507 -0.030383902 0.041713804 -0.029828103
0.010809557 -0.062208995 0.007033815 0.07629734 -0.018553153 -0.044629224 0.022084307 -0.040086236
-0.058856096 -0.021497775 -0.027346445 0.027488897 0.02219478 -0.0026570528 -0.050475467 -0.0029187335
-0.016195027 0.026684212 -0.047411095 -0.048125878 0.0035891854 0.024566492 -0.040355865 -0.089972205
-0.011239449 -0.053048838 0.018149836 0.029376432 0.046184953 0.0330729 -0.010000789 -0.033842932
-0.0009548346 -0.008454685 -0.008998865 -0.0043232595 0.014562383 -0.03318596 0.015918713 0.01824858
-0.08168606 0.017785277 -0.0029283147 -0.08722387 -0.019111147 -0.027892172 -0.013848107 0.03922491
0.00806571 0.0324242 0.06721024 -0.02812321 -0.010976919 0.0805726 -0.02205031 0.039793618
-0.018140467 -0.010795525 -0.03822261 -0.03133742 -0.010227104 -0.0034572156 -0.012369998 -0.028419659
0.029510643 0.0013874926 0.037695136 0.036596745 0.009471246 -0.027740506 -0.004640763 0.004060389
0.022955704 0.012152589 -0.045311157 -0.022523457 0.027068507 0.015007198 -0.012576275 0.015426152
-0.042997677 -0.018185003 -0.07143561 -0.066596754 0.034920666 -0.022993095 -0.0053810095 -0.018902028
-0.0030968548 0.028218172 -0.026499713 -0.0023857467 0.025074827 0.0579281 0.0151850665 -0.0066226386
0.013643896 -0.02079749 -0.016482154 -0.009289774 0.068423174 0.017348168 -0.11176485 0.014180227
0.015061692 -0.011650122 0.023822414 0.08038693 -0.018285844 -0.049149837 0.058861908 0.028109781
-0.010474938 0.014726939 0.03906909 -0.026061883 0.018995322 0.013735037 0.03991262 -0.052021798
0.004172309 -0.03963623 0.08423576 0.06155184 0.001599589 -0.021075357 0.025196603 -0.025304629
-0.0022571187 -0.06092283 0.024345985 0.047623668 -0.0010049146 0.0637163 0.021148227 -0.003597295
-0.047709398 -0.020914942 0.034145772 0.002215051 0.04005652 -8.961776e-05 -0.008869962 0.028060183
-0.007817736 -0.012213596 0.029112728 -0.0061489856 -0.0014932243 0.0445112 -0.048293483 -0.05354456
-0.009339373 -0.04255862 0.00890006 0.029295834 0.021492792 0.0032076743 0.013163 -0.027326586
-0.0625384 -0.034066062 0.030118434 -0.027077109 -0.033467352 -0.031959377 -0.011395351 0.03420041
-0.06600226 -0.0026650736 0.020463575 -0.028510757 -0.023589669 0.0021606367 -0.015192951 0.022052165
