outputs/nca/ragnopiccolo_model.pt (torch, 36996 bytes, 3 tensors)

brain.0.weight f4 [128, 48, 1, 1]
-0.078059524 0.091923416 -0.014358284 0.019757379 -0.00066508685 0.10798132 -0.15982525 0.13077132
-0.06719803 -0.02017794 -0.019436158 0.013469325 -0.08542222 -0.029932603 0.019007001 -0.053738855
0.08998385 -0.11595127 0.0019622787 -0.024241414 0.102702096 -0.0962619 -0.0077041234 -0.037310615
-0.026156034 -0.028016625 -0.04924564 -0.12432818 -0.048103712 -0.00015776526 0.1116707 -0.15186255
0.032021027 -0.06552111 0.08116115 -0.08687 0.12628157 -0.036212403 -0.047737062 0.13319504
0.07665538 -0.06567029 -0.059130847 0.14649948 -0.064855695 -0.092496924 -0.094874226 -0.05419338
0.06870144 -0.10728422 0.037829425 -0.19350131 0.007780277 0.014030206 -0.009741211 0.09096707
-0.16519777 -0.1761361 0.08906738 0.047990363 0.0455702 0.009113567 -0.049900506 -0.12353965
-0.09282825 -0.04579091 -0.14943427 0.011856217 0.0380177 0.19999374 -0.04813054 0.03790778
0.0248793 -0.14173323 0.05591856 -0.08760666 -0.10049359 0.015008415 -0.1669666 0.07207132
-0.08972943 -0.0886132 0.011859908 -0.089910425 0.1797753 0.13651702 0.06253114 -0.14116594
-0.057188477 -0.07994217 -0.07664511 0.10339431 0.098914966 -0.11160857 0.004266049 -0.039329905
-0.17948139 -0.022336282 -0.07309318 -0.018326618 -0.010973375 -0.117431365 0.07420248 -0.097081155
0.08356208 0.014515097 -0.08946786 0.1025232 -0.04926566 0.10804085 -0.016475055 -0.08555319
-0.13379234 -0.0023457606 -0.15516447 0.07407687 -0.13163105 -0.04278311 0.06367021 0.053491484
0.09864931 -0.05887231 -0.09822225 0.08472376 0.093264535 -0.0014866096 -0.047135275 0.026436158
-0.09955829 0.089110896 -0.09782513 -0.11721641 0.021378277 0.1080354 0.10946152 0.112717174
-0.15949564 -0.042444494 0.036582567 0.094224855 -0.14184232 -0.15612507 -0.029971233 0.13695122
0.08702269 0.10416366 0.10786463 0.06418109 -0.028720696 0.02284642 -0.04767285 0.062286586
0.06753274 -0.05025363 -0.11873521 -0.09568803 0.08971563 -0.02569653 0.10277393 -0.019021863
0.04603159 -0.11292824 -0.15150368 -0.0025015501 -0.08481898 -0.046027143 -0.018457098 -0.011986176
0.105257325 -0.026111638 0.04744163 -0.078619786 -0.07433887 -0.1029647 0.068619065 -0.07272873
0.07440852 -0.08469509 -0.07480312 0.077339664 0.12209795 0.055716798 -0.12662096 0.10239401
0.03270052 -0.14231947 0.10480522 0.12721212 0.14770433 -0.124755196 0.035999905 0.11382512
-0.06155943 -0.049044672 -0.049256675 0.05386868 0.059920307 0.13695619 0.06698544 0.002446327
-0.030565979 -0.14012855 -0.020986605 -0.04700857 -0.113715395 0.11347169 -0.13886295 -0.01357563
0.0029313548 -0.037180476 0.10320082 0.037149023 -0.03179657 0.15657802 0.111989744 0.11044573
0.0043900055 0.15435965 0.0020142205 -0.03636377 0.11087811 0.10945396 0.13659549 -0.057892893
0.06677806 -0.07728378 0.07420544 -0.021539241 -0.102923155 -0.10033767 -0.10730834 -0.031863615
-0.12287175 -0.018313058 0.009624604 -0.041730173 -0.05028992 0.09539996 -0.121172 0.15756775
-0.045340322 0.12045432 0.033048913 0.06670608 0.07686425 0.08121562 0.07561092 -0.007204416
0.009725902 -0.02589797 -0.13043723 0.06982706 -0.037637293 -0.083567664 0.100632265 -0.011844759
00000000: acdd 9fbd 5842 bc3d 023f 6bbc 3ada a13c
00000010: 3959 2eba 4f25 dd3d 3ba9 23be ebe8 053e
00000020: 1f9f 89bd 354c a5bc 9438 9fbc 72ae 5c3c
00000030: d8f1 aebd 3835 f5bc 92b4 9b3c 461d 5cbd
00000040: 7449 b83d dc77 edbd 9399 003b ee95 c6bc
00000050: 7a55 d23d f624 c5bd df72 fcbb 04d3 18bd
00000060: 2e45 d6bc 1f83 e5bc ccb5 49bd c69f febd
00000070: 6608 45bd ca6d 25b9 9cb3 e43d db81 1bbe
00000080: 7b28 033d ef2f 86bd d137 a63d e6e8 b1bd
00000090: f54f 013e 7553 14bd f087 43bd 4864 083e
000000a0: 7ffd 9c3d 257e 86bd 3033 72bd f603 163e
000000b0: 10d3 84bd 076f bdbd 6b4d c2bd e1f9 5dbd
000000c0: 57b3 8c3d d4b7 dbbd 07f3 1a3d 3525 46be
000000d0: b2f1 fe3b f3de 653c 9a99 1fbc f14c ba3d
000000e0: 9b29 29be 065d 34be f568 b63d 8b91 443d
000000f0: d1a7 3a3d 1251 153c 7964 4cbd 5b02 fdbd
00000100: bd1c bebd 408f 3bbd 4c05 19be 9440 423c
00000110: 73b8 1b3d 29cb 4c3e 8724 45bd 3045 1b3d
00000120: accf cb3c 8422 11be dc0a 653d 1f6b b3bd
00000130: 95cf cdbd dbe5 753c 4bf9 2abe 219a 933d
00000140: 10c4 b7bd d67a b5bd 0f50 423c f522 b8bd
00000150: 0417 383e 1ecb 0b3e 5410 803d ce8d 10be
00000160: 773e 6abd b8b8 a3bd 1df8 9cbd 65c0 d33d
00000170: ee93 ca3d 0993 e4bd 36ca 8b3b 6518 21bd
00000180: f8c9 37be 94fa b6bc e1b1 95bd b421 96bc
00000190: acc9 33bc db7f f0bd 78f7 973d 7cd2 c6bd
000001a0: 9922 ab3d bbd0 6d3c ed3a b7bd aff7 d13d
000001b0: caca 49bd 8544 dd3d b2f6 86bc 8336 afbd
000001c0: dc00 09be 55bb 19bb 6fe3 1ebe 9db5 973d
000001d0: 4aca 06be 583d 2fbd 8765 823d e319 5b3d
000001e0: a608 ca3d 1724 71bd bf28 c9bd a783 ad3d
000001f0: 7a01 bf3d 57da c2ba eb10 41bd a490 d83c
00000200: 37e5 cbbd c67f b63d 8b58 c8bd 280f f0bd
00000210: 7f21 af3c aa41 dd3d 5d2d e03d 43d8 e63d
00000220: d352 23be 47da 2dbd 9ad7 153d f6f8 c03d
00000230: 1d3f 11be 40df 1fbe 3b86 f5bc f13c 0c3e
00000240: f438 b23d c253 d53d 22e8 dc3d 6071 833d
00000250: aa47 ebbc 6a28 bb3c 9b44 43bd 3820 7f3d
00000260: 9b4e 8a3d c0d6 4dbd 722b f3bd 16f8 c3bd
00000270: d4bc b73d 8781 d2bc 237b d23d bdd3 9bbc
00000280: 9f8b 3c3d ec46 e7bd c823 1bbe 0cf1 23bb
00000290: 93b5 adbd f586 3cbd 5733 97bc aa61 44bc
000002a0: 2791 d73d 13e8 d5bc 2852 423d 6903 a1bd
000002b0: fa3e 98bd 28df d2bd 2788 8c3d cdf2 94bd
000002c0: 7e63 983d 9f74 adbd 6132 99bd 4264 9e3d
000002d0: 7d0e fa3d 4c37 643d eda8 01be f3b3 d13d
000002e0: fbf0 053d 32bc 11be 1fa4 d63d e543 023e
000002f0: ce3f 173e a77f ffbd a374 133d 251d e93d
00000300: be25 7cbd 11e3 48bd 5ec1 49bd 68a5 5c3d
00000310: ff6e 753d 3e3e 0c3e aa2f 893d 8e52 203b
00000320: 8165 fabc dc7d 0fbe 1aec abbc 0f8c 40bd
00000330: 9ee3 e8bd d863 e83d 1732 0ebe 526c 5ebc
00000340: f91b 403b 8e4a 18bd f45a d33d 9329 183d
00000350: 1f3d 02bd fd55 203e e15a e53d 5f31 e23d
00000360: 09da 8f3b 7510 1e3e 0301 043b 2df2 14bd
00000370: 1014 e33d 6629 e03d b0df 0b3e 1921 6dbd
00000380: efc2 883d f546 9ebd 06f9 973d 1073 b0bc
00000390: 60c9 d2bd d67d cdbd 7ac4 dbbd 6c83 02bd
000003a0: 2fa4 fbbd 4405 96bc 84b0 1d3c 42ed 2abd
000003b0: cefc 4dbd 0e61 c33d 0729 f8bd 7159 213e
000003c0: c6b6 39bd c1b0 f63d 4c5e 073d 339d 883d
000003d0: 016b 9d3d 6054 a63d e6d9 9a3d 0613 ecbb
000003e0: 6459 1f3c fb27 d4bc 5691 05be 7d01 8f3d
000003f0: 9029 1abd 8625 abbd 4a18 ce3d 8510 42bc

brain.0.bias f4 [128]
0.0038359223 0.033968177 -0.068822764 -0.17491749 -0.17137516 -0.09075429 -0.13285269 -0.13339818
0.040831853 -0.009974969 -0.06251412 -0.07555059 -0.16446334 -0.14052863 0.023944074 0.014861369
0.0073119723 0.041196264 -0.1064058 -0.08668459 0.050802223 -0.15819189 0.015814964 0.029403236
-0.16877063 -0.05648781 0.00066096726 -0.06622284 0.026044715 -0.07407347 -0.12367429 -0.13870187
-0.114105724 -0.14559655 -0.10525803 -0.053333733 0.023791187 -0.16159166 -0.13453218 -0.09726942
-0.03493137 0.009058782 -0.13573241 -0.11131255 -0.092558764 -0.14061946 -0.090208694 -0.014820426
-0.13560478 0.031753995 -0.13813299 -0.14530277 -0.07864935 -0.03963177 -0.06134587 0.042414494
-0.13963437 -0.047739457 -0.1779009 -0.0964829 -0.054838497 -0.13737759 -0.00942379 -0.01908561
-0.18029898 -0.16114269 -0.027925607 0.04534462 -0.10065839 -0.12978444 -0.16236664 -0.010542153
0.010983794 -0.17760974 -0.082089335 -0.15110736 0.05494419 -0.01601041 -0.1700027 0.024104338
-0.13270804 -0.1645016 -0.08875882 -0.10243756 -0.16394597 -0.078389 -0.17997898 0.024370328
-0.16650814 -0.0036770478 -0.15262029 0.033367842 -0.14994383 -0.1745604 -0.1525227 -0.13807118
-0.14958338 -0.09258783 -0.057051845 -0.030039703 -0.05220216 0.031292245 -0.103866674 0.007616584
-0.059517097 -0.08231646 -0.07795936 -0.06656608 -0.008012685 -0.025951605 -0.044786718 -0.109314054
-0.062353246 0.009036222 -0.17995271 -0.16909674 0.034639597 -0.09793674 0.06344412 -0.07574881
-0.025124718 -0.16659449 0.06327875 -0.1353061 0.066827245 -0.10259302 -0.0948691 -0.081136666
00000000: 1964 7b3b 3722 0b3d f3f2 8cbd 921d 33be
00000010: f87c 2fbe 63dd b9bd 890a 08be 8899 08be
00000020: 4d3f 273d 0d6e 23bc 6707 80bd 45ba 9abd
00000030: 1469 28be bde6 0fbe 5d26 c43c 197d 733c
00000040: 4599 ef3b 6abd 283d 49eb d9bd b187 b1bd
00000050: fe15 503d 0efd 21be 628e 813c 0edf f03c
00000060: 35d2 2cbe c35f 67bd c344 2d3a d79f 87bd
00000070: ba5b d53c d5b3 97bd f248 fdbd dd07 0ebe
00000080: 43b0 e9bd 4317 15be 8691 d7bd 7974 5abd
00000090: bce5 c23c 4978 25be cec2 09be 3135 c7bd
000000a0: 3214 0fbd 496b 143c 70fd 0abe d6f7 e3bd
000000b0: 738f bdbd 8cfe 0fbe 56bf b8bd 5fd1 72bc
000000c0: fbdb 0abe 7a10 023d bc72 0dbe 40ca 14be
000000d0: e912 a1bd ec54 22bd cf45 7bbd d2ba 2d3d
000000e0: 50fc 0ebe 738a 43bd a72b 36be d498 c5bd
000000f0: 559e 60bd b6ac 0cbe 3d66 1abc 6d59 9cbc
00000100: 4ca0 38be 9702 25be 3ec4 e4bc 48bb 393d
00000110: fc25 cebd 36e6 04be 7143 26be ffb8 2cbc
00000120: 5ff5 333c 54df 35be 741e a8bd e3bb 1abe
00000130: 290d 613d 4328 83bc 3015 2ebe 7676 c53c
00000140: 9ee4 07be 1c73 28be 2fc7 b5bd c9ca d1bd
00000150: 74e1 27be 698a a0bd 694c 38be 48a4 c73c
00000160: 1c81 2abe a0fa 70bb 7e48 1cbe b8ac 083d
00000170: e08a 19be f6bf 32be e92e 1cbe 8862 0dbe
00000180: 632c 19be b09e bdbd 32af 69bd d315 f6bc
00000190: efd1 55bd 4c2c 003d 0db8 d4bd 8a94 f93b
000001a0: 33c8 73bd 8895 a8bd 28a9 9fbd cc53 88bd
000001b0: a347 03bc 7698 d4bc 4772 37bd 0ce0 dfbd
000001c0: 1e66 7fbd a90c 143c 8645 38be b227 2dbe
000001d0: 40e2 0d3d 0f93 c8bd feee 813d 3122 9bbd
000001e0: 5ad2 cdbc bf97 2abe 4a98 813d af8d 0abe
000001f0: b9dc 883d 4a1c d2bd bb4a c2bd fb2a a6bd

brain.2.weight f4 [16, 128, 1, 1]
0.018892543 -0.0024788412 0.037773628 0.020694401 0.01193994 -0.011121606 -0.022293046 -0.009687563
0.0008880043 0.025361195 0.02158596 0.007035017 0.014878335 0.021504615 0.030577648 0.0070297094
-0.015119327 0.027169118 0.006120844 -0.011563869 -0.014171672 0.008852778 -0.0022223091 -0.0099649085
-0.016287412 0.0021714172 0.0142913135 -0.012572896 0.028121084 0.009030264 -0.033120025 0.012003522
0.036083397 0.006625669 0.003320695 0.0058220164 0.0062106834 0.007453539 -0.012931021 -0.002863975
0.023700546 0.011792172 -0.017311117 0.014867759 -0.023797812 -0.014582325 0.022826094 0.018063718
0.008206534 0.014253612 0.010497967 0.019549109 -0.008235042 -0.004625682 0.005180248 -0.0074021085
0.02523418 -0.00042569338 -0.015288863 0.0006580317 0.018921029 -0.026421364 -0.0021698033 0.015481298
-0.019690523 0.018456232 0.0011710662 0.007969967 0.016244717 -0.002144568 0.0030055789 0.008043137
0.003908726 -0.02935507 0.019809246 0.026923388 0.0020584457 0.009948535 -0.013705431 -0.020564565
0.01303339 -0.012739748 0.0054752915 0.0133651635 -0.014735041 0.0027236985 0.033880148 0.013150188
-0.02912661 -0.0025872688 -0.0035979918 0.004556235 -0.00057072536 0.05641919 0.00794714 -0.01382232
-0.028725114 0.008201827 0.0016023946 0.004040964 0.0183577 0.007882622 -0.013709278 0.012011779
0.017048549 -0.019816633 -0.018615501 0.008878368 0.015434649 0.0026169247 0.029509313 -0.014087923
0.023177467 -0.0005956798 0.029072855 0.016644163 -0.0002718326 0.017334731 0.0014362037 0.024405284
-0.008318398 0.012581163 0.0073389076 -0.007995529 0.03214558 0.016241938 0.0007629711 -0.042049967
0.0005296168 0.020450607 0.017410774 0.00019522329 -0.045193765 -0.010644091 -0.023866422 -0.028995644
-0.002807873 0.02669626 0.0416392 0.0022760835 0.03388335 0.0153634865 0.01545596 0.0017249817
-0.033369977 0.017394654 0.010259041 -0.001667269 -0.011204244 0.0066435155 0.017322367 -0.0059063653
0.0016552508 0.02007299 0.020994775 -0.010778068 0.013203456 0.023406357 -0.026219854 0.0120301265
0.0149190035 -0.01738556 0.022404999 0.027190637 0.02168409 -0.021052893 -0.0064647277 0.019270698
0.012382304 -0.0042242818 -0.01588961 -0.006221941 -0.008001094 -0.021224126 0.028817408 -0.004489558
-0.04138453 0.0170801 0.036738645 -0.006846564 -0.01156264 -0.00090070267 0.02857095 0.006794047
-0.003869439 0.002210299 -0.040235445 -0.0011689595 0.009651705 -0.018722773 -0.00763428 0.013511049
-0.01718978 -0.0069523705 -0.00028084635 0.028312495 -0.0005965835 -0.0151430685 -0.0061539584 0.009506502
0.0038071836 0.008069748 0.0014313255 0.031108122 0.009362339 0.0035627955 -0.004245409 -0.017206144
0.027787577 -0.006187635 -0.0027404146 -0.0057773287 0.010927116 -0.025355665 0.0028081336 0.015950833
-0.04095697 0.030173564 -0.03694898 0.0033138755 -0.010040239 -0.036948886 0.0020147844 -0.030677963
-0.011811741 0.018408637 -0.012139787 0.017710546 0.003262449 0.013571307 0.014079641 -0.018888535
0.0025609604 -0.0042672204 -0.019370323 0.011399888 0.0044873236 0.034450997 0.023144664 -0.021590807
0.015341931 -0.008183982 0.021612102 0.004094128 0.008114005 0.017728332 -0.0012121672 0.049193203
0.012875378 -0.00039752218 0.016309412 -0.006242509 0.006915358 0.0065373597 0.023971649 -0.019241504
00000000: 89c4 9a3c 0e74 22bb 85b8 1a3d 4e87 a93c
00000010: bd9f 433c 6637 36bc e89f b6bc 96b8 1ebc
00000020: f6c8 683a 48c2 cf3c 0ad5 b03c 0086 e63b
00000030: 43c4 733c 722a b03c fa7d fa3c 7a59 e63b
00000040: 0eb7 77bc c591 de3c 5c91 c83b 6276 3dbc
00000050: 4d30 68bc 3e0b 113c 29a4 11bb db43 23bc
00000060: 2e6d 85bc 564e 0e3b 1d26 6a3c 8cfe 4dbc
00000070: 305e e63c acf3 133c dda8 07bd 6caa 443c
00000080: 2fcc 133d 241c d93b 04a0 593b 9dc6 be3b
00000090: fd82 cb3b d13c f43b a2dc 53bc 87b1 3bbb
000000a0: a627 c23c f433 413c 0bd0 8dbc e797 733c
000000b0: a1f3 c2bc b4ea 6ebc cafd ba3c 5dfa 933c
000000c0: b374 063c fb87 693c aaff 2b3c 7425 a03c
000000d0: 45ec 06bc 0893 97bb 12bf a93b 638d f2bb
000000e0: e9b7 ce3c 992f dfb9 247e 7abc c37f 2c3a
000000f0: 4600 9b3c 9e71 d8bc 4233 0ebb 45a5 7d3c
00000100: 054e a1bc 8631 973c 767e 993a 7794 023c
00000110: a413 853c e18b 0cbb 3ff9 443b 5dc7 033c
00000120: c514 803b 0b7a f0bc 0047 a23c 708e dc3c
00000130: fde6 063b 2eff 223c be8c 60bc 0577 a8bc
00000140: 008a 553c 60ba 50bc 136a b33b 8ff9 5a3c
00000150: 3e6b 71bc 1480 323b e9c5 0a3d e373 573c
00000160: ee9a eebc 2b8f 29bb 49cc 6bbb 784c 953b
00000170: bb9c 15ba cf17 673d b934 023c 0377 62bc
00000180: ee50 ebbc f560 063c 7107 d23a 106a 843b
00000190: e362 963c 1d26 013c e19c 60bc 0dcd 443c
000001a0: 66a9 8b3c 7e56 a2bc 897f 98bc 9376 113c
000001b0: 9ce1 7c3c b680 2b3b 84bd f13c 08d1 66bc
000001c0: acde bd3c 6527 1cba 322a ee3c 5759 883c
000001d0: c184 8eb9 9101 8e3c 003f bc3a 97ed c73c
000001e0: e449 08bc 3921 4e3c 387b f03b aeff 02bc
000001f0: 15ab 033d d00d 853c 2002 483a 963c 2cbd
00000200: fbd5 0a3a 0888 a73c 0aa1 8e3c dab4 4c39
00000210: 191d 39bd 8e64 2ebc 8483 c3bc 4688 edbc
00000220: 4b04 38bb 1db2 da3c de8d 2a3d 582a 153b
00000230: 45c9 0a3d 22b7 7b3c ff3a 7d3c c818 e23a
00000240: f5ae 08bd 3c7f 8e3c 8915 283c 4488 daba
00000250: 0192 37bc d9b1 d93b a3e7 8d3c 2f8a c1bb
00000260: 00f5 d83a 1c70 a43c 3cfd ab3c 7e96 30bc
00000270: 4f53 583c b0be bf3c 05cb d6bc 021a 453c
00000280: d66e 743c 296c 8ebc b08a b73c e6be de3c
00000290: d5a2 b13c 1e77 acbc 11d6 d3bb 95dd 9d3c
000002a0: 26df 4a3c d86b 8abb ed2a 82bc 6de1 cbbb
000002b0: 0517 03bc 38de adbc 7c12 ec3c 241d 93bb
000002c0: d382 29bd 91eb 8b3c 437b 163d 2459 e0bb
000002d0: 3a71 3dbc 221d 6cba a00d ea3c 99a0 de3b
000002e0: 6a96 7dbb aada 103b eccd 24bd c637 99ba
000002f0: 2f22 1e3c 8060 99bc fb28 fabb 725d 5d3c
00000300: 95d1 8cbc b6d0 e3bb 8f3e 93b9 9bef e73c
00000310: 0a64 1cba a21a 78bc 25a7 c9bb 29c1 1b3c
00000320: f181 793b fa36 043c 509b bb3a 76d6 fe3c
00000330: 7f64 193c ca7d 693b 121d 8bbb e6f3 8cbc
00000340: c6a2 e33c a5c1 cabb 8798 33bb bf4f bdbb
00000350: a507 333c afb6 cfbc aa08 383b 52ab 823c
00000360: 7fc2 27bd 8d2e f73c d057 17bd 9b2d 593b
00000370: d17f 24bc b757 17bd 790a 043b 5a50 fbbc
00000380: 0886 41bc b6cd 963c f5e5 46bc b515 913c
00000390: d0ce 553b 305a 5e3c 4bae 663c 21bc 9abc
000003a0: c9d5 273b 0ad4 8bbb 83ae 9ebc 99c6 3a3c
000003b0: 660a 933b 7d1c 0d3d e199 bd3c 34df b0bc
000003c0: b95c 7b3c 1c16 06bc dd0b b13c 0928 863b
000003d0: 9bf0 043c 023b 913c 95e1 9eba d07e 493d
000003e0: 40f3 523c 866a d0b9 519b 853c f68d ccbb
000003f0: 3a9a e23b 5937 d63b 3160 c43c 5ca0 9dbc
