outputs/nca/Vale_Ettore_128x128_model.pt (torch, 64067 bytes, 3 tensors)

brain.0.weight f4 [128, 48, 1, 1]
000000 db bb 0e 3e 4a df cc bb ac 3d 16 3b a0 61 f7 3d
       0.13938849 -0.006252204 0.0022924943 0.12079167
000010 d7 c6 78 bc 0b b0 af bd ff 4c e1 3d 04 3e 0b be
       -0.015184126 -0.085784994 0.11001014 -0.13597876
000020 28 05 7e 3d 1d fd 9e bd 8a f3 42 3d e4 89 9c 3d
       0.062016636 -0.07763121 0.04759554 0.07643488
000030 92 6d 11 3e 8b 5b b4 bc 39 b9 08 3d 4f 0e b4 bd
       0.14201954 -0.022016307 0.033379767 -0.08791792
000040 77 f3 c0 3c 66 97 13 3d e6 2a 0b be 8d ce 4e 3d
       0.023553593 0.036033057 -0.13590583 0.05048995
000050 75 94 2b 3d 6d 50 39 bd 38 93 6b bc a1 7b e4 3b
       0.041889627 -0.045242716 -0.014378361 0.0069727455
000060 c3 a6 8a be e2 eb 7e 3c 1f 25 c0 3d e2 11 b9 be
       -0.27080354 0.0155591685 0.0938208 -0.36146456
000070 60 9c 20 3c 23 ab 81 bd 62 7e 51 be dd e1 4d bc
       0.009802908 -0.0633147 -0.20458367 -0.012566057
000080 56 63 e7 bd fc 09 ba 3d 1b 89 f8 3b ea d5 7c bb
       -0.11298244 0.090839356 0.0075847036 -0.003857965
000090 19 76 a3 bc 9f 78 9e bd d2 b6 eb 3c e5 fa 1b 3e
       -0.019953774 -0.077378504 0.028773699 0.15232427
0000a0 a3 82 a7 bc f0 ed d0 bb 35 8e 76 3b 7d 6e 50 bb
       -0.020448035 -0.0063760206 0.0037621383 -0.0031804137
0000b0 c5 af 8e 3d 21 f0 57 3e e9 82 80 3d ce 42 9e 3d
       0.06967119 0.21087696 0.06274969 0.07727586
0000c0 4b 8b 44 bd b2 b1 03 3d 6f e7 b7 bd 71 6c b9 3c
       -0.047984403 0.032151885 -0.08979689 0.022634717
0000d0 3e 41 0d be 6b cc ca bd 6d 1c 70 3e 10 bf 70 bc
       -0.13794419 -0.09902271 0.23448344 -0.01469399
0000e0 30 af c3 3c 1d 99 1b be a3 9a f5 bd a6 08 93 3c
       0.023887247 -0.15195127 -0.11992385 0.01794846
0000f0 52 bc 57 be 60 f0 cd bd bb 85 d9 bc c3 44 15 3c
       -0.21067932 -0.100556135 -0.026553025 0.009110632
000100 9e 9b bf 3a d5 52 29 3d 18 7c 77 3d 14 92 1f bb
       0.0014618521 0.04133876 0.06042108 -0.0024348544
000110 ef e2 55 3d df 7e 52 be 22 0e 75 bd 23 81 c8 bd
       0.052218374 -0.2055621 -0.05982793 -0.09790256
000120 08 53 d5 3d cf 75 ed 3c c3 51 24 bd 82 25 9d be
       0.104162276 0.02898684 -0.040117037 -0.3069268
000130 99 96 bf 3c 4a 8f 4b 3c 89 8e 80 be 91 c8 99 bd
       0.02338724 0.0124242995 -0.25108746 -0.07508958
000140 81 49 c8 bd 81 c6 78 3e 1e dd af 3d a9 d9 28 3d
       -0.09779645 0.24294473 0.08587097 0.041223202
000150 dd bc 86 be 43 a5 cc 3d e4 e5 3c 3c fb e8 f2 bd
       -0.26315966 0.09992459 0.01152942 -0.11860844
000160 9b 92 f0 3c 9a 87 ef bd c6 16 25 be 31 7b 5c 3d
       0.029366782 -0.11695786 -0.16121969 0.053828422
000170 ee 76 89 bd 9f f0 6e 3e d1 15 e8 bd 74 b3 e9 3c
       -0.06712137 0.23333977 -0.11332286 0.028527953
000180 4f 28 02 3e 04 6c 2a 3c 4c 0e 6c bc 6d ce c7 3c
       0.12710689 0.0104017295 -0.0144077055 0.024390424
000190 ae 19 c5 3c 61 45 ae bd 9f a2 b6 3d 6d e2 15 bd
       0.024060097 -0.08509327 0.08917736 -0.03659289
0001a0 bb 5b 51 3d 88 76 12 be 63 b4 1b 3d 8c 47 1f 3c
       0.05111287 -0.14303029 0.038013827 0.009721648
0001b0 48 a8 bf 3d e4 b3 89 bc a1 24 53 bb 51 63 ba 3d
       0.09358269 -0.016809411 -0.0032217877 0.09100974
0001c0 6c 65 93 bd 6c 56 fd bd 3f ee cd bd 6d 28 19 3a
       -0.07197079 -0.12369999 -0.100552075 0.0005842511
0001d0 6e 79 d3 3b 7b e2 ab 3e 78 03 0a 3d a3 69 5f bc
       0.0064536845 0.33571228 0.033694714 -0.013636026
0001e0 7e d2 c6 be 44 68 6d bc 0b 8a 7b 3d 89 65 99 3e
       -0.38832468 -0.014490191 0.061410945 0.29960278
0001f0 fa 64 1b bc 73 c9 62 3d 0c 19 2e bd 38 22 dc 3d
       -0.009484524 0.0553679 -0.042504355 0.10748714
000200 9f 00 7e bd 58 d5 0d 3e ec 06 d2 bb e4 f2 b0 bc
       -0.06201231 0.13850915 -0.0064095166 -0.021600194
000210 a1 eb db be e7 25 17 3d 2d b3 fd 3c 4b 77 be bd
       -0.42953208 0.03690138 0.030969227 -0.09300097
000220 4d 77 8a bd b9 91 ff bc 2d c3 25 be 58 9d 1a 3d
       -0.06761036 -0.031197416 -0.16187735 0.03774771
000230 44 7b 8e 3b 43 0b 47 be 0f af c2 bc 7a d7 5a bc
       0.0043481905 -0.1943789 -0.023765115 -0.013357038
000240 2e 18 3f be c8 18 cc bc f8 68 9c bd 09 24 6d bd
       -0.18661568 -0.02491416 -0.07637209 -0.057895694
000250 a6 b5 e1 bd 32 49 91 bd eb a5 3b be 45 7b 4d 3c
       -0.11020975 -0.07094039 -0.18325011 0.012541597
000260 c2 16 b9 3d 1d fa a6 bd 9b cf fe bd 61 d0 32 bd
       0.09037544 -0.08153174 -0.12441941 -0.043655757
000270 b1 c9 14 3e d9 0b 16 3d 50 1e c0 3d 27 ac 56 bd
       0.14530064 0.036632393 0.09380782 -0.05241027
000280 fe b3 21 bd 8d d6 7c 3d f7 01 67 3c e2 ab b0 bd
       -0.039478295 0.06172805 0.01409959 -0.08626534
000290 9b 89 52 3d 69 12 c4 3e 4a 7b ab 3d bc 55 11 bd
       0.051400762 0.38295296 0.08373125 -0.035482153
0002a0 42 88 99 bc 6b 0f 3b 3d ae ed c2 3c 96 4f 93 3e
       -0.01874173 0.045669 0.023794975 0.28771657
0002b0 bb 5a aa bc 4a d9 54 be 1d 80 ee 3d 98 d7 dc 3a
       -0.020795217 -0.20786014 0.116455294 0.001684892
0002c0 67 9d 71 bc e1 ac 48 3c 5a d1 55 3c 3c 68 be bd
       -0.014747 0.012248249 0.013050402 -0.09297225
0002d0 a8 5b a3 3d 41 ca 43 3c 70 6e 61 bd d1 a3 32 bd
       0.079764664 0.011950077 -0.055036962 -0.04361326
0002e0 09 ec 35 bd 08 f1 40 bd cd a6 24 be 96 b8 28 bd
       -0.044414554 -0.047104865 -0.16079254 -0.04119166
0002f0 35 ba c7 3d b2 a3 9d 3d 60 f1 ba 3a 55 d3 08 be
       0.09752313 0.07697238 0.0014262609 -0.13361867
000300 98 8a d8 bd 7d 99 07 be f7 bb 90 3c 34 33 48 3e
       -0.1057331 -0.13242145 0.017667754 0.19550782
000310 6c c5 8d bd 42 97 b6 bb c4 87 57 3e ab 42 03 3e
       -0.06922421 -0.0055722306 0.21047884 0.128184
000320 c0 99 70 bd 4a 55 c9 bd f7 2f c3 3d b5 ec c3 3c
       -0.058740377 -0.09830721 0.09530633 0.023916582
000330 e2 d7 e2 3d 3b 8d 33 bd 18 07 4c bd 40 ec f0 bd
       0.11076333 -0.04383586 -0.049811453 -0.11763811
000340 44 4c 59 3d e2 9a 77 bd 4e 83 f7 3e b2 f4 03 3e
       0.05305125 -0.060450442 0.48342365 0.12886313
000350 18 bf 94 bc 5e 9e 01 be 0c e4 ee bc 9a 8a 4c 3b
       -0.018157527 -0.12658069 -0.029161476 0.0031210543
000360 49 84 e4 bd 20 13 0a bd eb a9 b8 3c 35 06 9f 3d
       -0.11158044 -0.033709645 0.02254196 0.07764856
000370 61 a4 e9 bc de 65 21 3d 70 2b 8a 3d 79 50 ab 3d
       -0.028520765 0.03940379 0.06746566 0.08364958
000380 d1 8b f2 bc ad 5b 12 3e 31 1f b3 bd 62 93 ba bc
       -0.029607685 0.14292784 -0.08746184 -0.022775356
000390 d1 29 05 3e 5c da 29 bd d3 7b 8a bd 31 2b 33 bd
       0.13004233 -0.04146801 -0.06761899 -0.043742362
0003a0 52 7e 2b bb 5b e9 b9 3d e5 e3 46 3e 10 a6 ea 3b
       -0.0026167822 0.09077712 0.19422872 0.0071609095
0003b0 44 b4 f2 3d d2 08 49 3e b0 ab a6 3d 01 ec 1c 3d
       0.11850789 0.19632271 0.081382155 0.03831101
0003c0 bf 96 f6 bd 22 ae e7 bd 03 5c 8a 39 ba b3 16 bc
       -0.12040471 -0.1131251 0.00026389965 -0.009198124
0003d0 49 eb e0 3d 24 a9 36 be 58 e7 74 be ba e2 33 bd
       0.10982377 -0.1783796 -0.23916376 -0.043917395
0003e0 db dc 2c be 7a be 9f 3c 39 79 39 3c 9b 30 13 bd
       -0.16881125 0.019500006 0.011320406 -0.035935026
0003f0 9c cd 1d 3d 72 b1 ce 3d 93 17 6b bd 2a d0 d8 3d
       0.038526163 0.10092439 -0.05739553 0.10586579

brain.0.bias f4 [128]
000000 7a e2 49 3d 04 c8 3e bd 68 de 8a bc a6 20 07 be
       0.04928825 -0.04657747 -0.016951755 -0.13196048
000010 49 54 01 be 7d 30 27 3d ea 5e 7e bd 52 a7 a9 3c
       -0.12629808 0.040817726 -0.062102236 0.020709667
000020 eb e2 69 3d fe 86 80 bd 9a 1c 25 3d 5d cf 26 be
       0.05710117 -0.06275748 0.04031048 -0.1629004
000030 b6 65 84 be 9e 1f b2 bd 9c 5d db 3d 54 a8 d7 bd
       -0.2585885 -0.08697437 0.10711214 -0.10530153
000040 cc 35 8a bd 99 bb bb bd 01 00 49 3d 22 76 82 3d
       -0.06748542 -0.09166641 0.04907227 0.06370188
000050 d4 6d 47 bc 86 9e 4a 3d 1b 25 56 bd 7e cd 3a be
       -0.012172181 0.049467586 -0.05228148 -0.18242452
000060 1c c2 e0 3d 00 0e 9b 3d eb fa 6c bd 28 b9 c7 3d
       0.109745234 0.0757103 -0.05785648 0.097521126
000070 01 d5 7a 3d 9c 6e ce bd 93 fa 5e 3d 27 eb 6c be
       0.061238293 -0.10079691 0.054438185 -0.23136579
000080 9a ec 58 be 4c 29 7b bd c9 d8 16 3e 88 89 09 be
       -0.21184006 -0.06131868 0.14731134 -0.1343137
000090 b0 00 93 bd 59 07 93 3d a7 76 ba ba 84 a2 5e be
       -0.071778655 0.07179136 -0.0014226035 -0.21741682
0000a0 ff 61 21 be d8 8f 03 bd 56 15 f0 bd 37 f2 9a bd
       -0.15760039 -0.032119602 -0.117228195 -0.0756573
0000b0 85 c9 10 bd cf ba 05 bd b9 a7 ed bd 20 d9 57 3d
       -0.035348434 -0.032648858 -0.11604256 0.0526973
0000c0 84 47 24 be 8c bd 51 bc 97 2f ff bc 8b 6f 74 3c
       -0.16042906 -0.012801539 -0.031150622 0.014919172
0000d0 bc 6b f4 3c b6 af 62 3b 8d d9 97 3b ec 98 13 be
       0.029836528 0.0034589595 0.0046340884 -0.14413804
0000e0 fa 16 fc bd 48 30 be bc de 77 e5 bc cf b1 70 be
       -0.1230907 -0.023216382 -0.028011259 -0.23505329
0000f0 10 c1 60 bd 84 68 66 bb 4b 9e 01 bd 4e e2 f2 bd
       -0.05487162 -0.003515751 -0.0316451 -0.118595704
000100 33 90 11 be a1 0d 9d 38 d8 8f a6 3d 08 64 d8 3c
       -0.14215164 7.488882e-05 0.08132905 0.026414886
000110 7b 25 1b bd 0b 4f 1d 3d 34 93 4f 3d 9e 28 5f be
       -0.03787754 0.03840546 0.050677493 -0.21792838
000120 fd a7 14 bd eb bc 7b bd 3c aa 83 bc db 67 5f bd
       -0.03629302 -0.061459463 -0.016072385 -0.054542404
000130 b6 6f d3 bc 50 a8 fb 3c f9 e8 70 bd 27 a1 af bd
       -0.025810104 0.030719906 -0.05881593 -0.08575659
000140 7f 4b 32 be 5e 97 1b be f5 be ab 3d fe 5f a8 bd
       -0.17411612 -0.15194461 0.083860315 -0.08221434
000150 df cc 78 3c 30 4f 10 bd b3 2c 14 bd 64 40 39 be
       0.015185564 -0.03523177 -0.03617544 -0.1809097
000160 b4 64 af bd db 04 85 be 67 95 58 be e6 9a 15 3d
       -0.085641295 -0.25980267 -0.21150742 0.036524676
000170 03 01 7f bd b3 d1 8f 3c e4 d1 ce 3c 6d 15 1e bd
       -0.062256824 0.017556047 0.025246568 -0.038594652
000180 59 d2 0d 3e 4e 1c 39 be a1 91 45 3c 99 29 13 be
       0.13849773 -0.18077204 0.012058646 -0.14371337
000190 93 88 39 be a5 a2 a5 bd a0 5a 70 be a4 30 10 be
       -0.18118505 -0.080876626 -0.2347207 -0.14081055
0001a0 3d 48 34 be 92 ea c1 bd 80 ab 19 be c2 8e 1b bd
       -0.17605682 -0.09468569 -0.15006828 -0.03797794
0001b0 4c d5 0b be 05 f1 a1 3d ff 55 6c be 49 3a 94 3c
       -0.13655585 0.07907299 -0.2307968 0.018094199
0001c0 a1 16 4b be 64 74 9d be cd 9c d5 3c d4 4a 6c be
       -0.19832851 -0.30752861 0.026075745 -0.2307542
0001d0 97 73 85 be c4 76 ff bc fc 89 54 3c 08 b9 2e 3d
       -0.2606475 -0.031184562 0.012972351 0.04265693
0001e0 1c a0 ac 3d 77 19 ff 3d 4b 98 cf bd 43 ee 50 3c
       0.08428976 0.12456029 -0.101364695 0.0127521185
0001f0 e3 c5 16 3b 17 b1 2f bd 11 17 ba bd 06 4c 91 bd
       0.0023006133 -0.042893495 -0.09086431 -0.070945784

brain.2.weight f4 [16, 128, 1, 1]
000000 b7 0f 7d bd 2e 27 4b bd 68 b0 ee bb d8 8e f6 bb
       -0.061782565 -0.04959791 -0.007284213 -0.0075243525
000010 24 b4 86 bc be a1 d3 3c 22 72 a1 bc 01 21 9c bd
       -0.01644332 0.02583396 -0.019707743 -0.076234825
000020 fa 03 bb 3c d8 13 75 3d 7d 64 83 bd f9 a8 59 3d
       0.022829045 0.059833378 -0.06415651 0.05313966
000030 20 f7 b0 bc 3d 04 9f bd a6 06 8f bc 35 6b 9e bc
       -0.021602213 -0.0776448 -0.017459225 -0.01933823
000040 11 0e 06 bb 89 22 c8 bc 7f 80 cf 3c e6 e7 d5 3c
       -0.0020455162 -0.02443053 0.025329826 0.026111554
000050 ad bd 02 bd 6a b2 20 3d a3 ff 66 bd ac 0e 68 3c
       -0.03191917 0.03923265 -0.056396138 0.014163654
000060 81 82 b0 bc b0 41 b5 3c d3 6c 55 3d 93 12 f0 3d
       -0.021546604 0.022126049 0.052105736 0.11722293
000070 47 a2 4d 3d b7 3f 52 3c db 7a 1b bc 11 e4 21 bc
       0.050203588 0.012832574 -0.00948974 -0.009881035
000080 3a 4f 68 bc 33 e0 71 3b 65 a0 32 3b 19 e0 17 3d
       -0.014179045 0.0036907315 0.0027256247 0.03707895
000090 e0 51 3a 3c 37 18 b6 3c 89 04 b0 3d 2b 16 da 3b
       0.01137206 0.022228343 0.08594615 0.0066554747
0000a0 4c 78 1f bc cc 84 00 bd df fb b4 3c 42 46 01 3d
       -0.009733271 -0.031376645 0.022092758 0.031561144
0000b0 f6 f7 1f 3d d2 52 36 3c a6 22 58 3c 5e 20 f4 3c
       0.039054833 0.011128144 0.013191855 0.02980059
0000c0 2f 4e 91 3d a9 5e 45 3d 1d a1 0c 3d c8 0d 3e 3d
       0.070949905 0.048185978 0.034333337 0.04639986
0000d0 ef e7 9f 3a a4 3a 74 3d 2d 7d 71 bc 36 f2 3f 3d
       0.0012199859 0.059626237 -0.014739317 0.04686185
0000e0 0e 7a a2 3b 7e 46 8d 3c 7d 6f 27 3d da 25 39 3d
       0.0049583977 0.017245527 0.040877808 0.045202114
0000f0 95 16 18 bc d6 29 81 3d 0f a7 bd ba f2 a7 66 3d
       -0.009282728 0.06306808 -0.0014469343 0.05631251
000100 ca d2 43 3d 75 39 2c bd 0b bb 5c bb 88 11 a9 3b
       0.047808446 -0.042046983 -0.0033680822 0.0051595606
000110 f3 b6 90 bb 8f 8f c8 bc 79 9a 2b bc c9 04 04 3d
       -0.0044163405 -0.024482517 -0.010473841 0.032231126
000120 98 89 78 3c 3d d2 16 bd 38 03 ea 3d f1 be da bc
       0.015169524 -0.036821593 0.11426395 -0.026702376
000130 dd 52 a2 3d 00 56 18 3c db d0 8b 3d 89 99 95 3d
       0.07925961 0.009297848 0.068269454 0.07304675
000140 75 91 27 3d cf ac aa 3d dd 9d d2 3b a5 1f 57 bd
       0.040910203 0.08333742 0.00642751 -0.052520413
000150 4e 45 63 3d 68 9e 4f bc 8e f7 1c 3d 11 fd 3f bd
       0.055486016 -0.012672044 0.038322024 -0.046872202
000160 e2 ea df bc 4a ce 31 3c c0 f2 a9 3c b8 c3 7e bc
       -0.02733368 0.010852406 0.020745635 -0.015549593
000170 8d 3b 65 bd 1c da d0 3c 77 d3 c2 3b 25 33 e3 3a
       -0.055964995 0.025494628 0.0059456187 0.0017333968
000180 0e 3f 00 bd 28 73 ec bd 47 c2 05 bd f2 07 ec 3c
       -0.031310134 -0.11545402 -0.03265598 0.028812382
000190 85 a9 b2 3c 06 e5 5b 3c c8 88 98 bb 56 f9 bf 3c
       0.021809349 0.013421303 -0.0046549775 0.023434322
0001a0 d3 fe de bc 16 b1 c8 bc 4a 40 6c 3d 30 16 28 bc
       -0.027221119 -0.024498504 0.0576785 -0.010259196
0001b0 a0 a0 c8 3c be cf 04 bc 24 b1 dd bd 1a 7a 1d 3b
       0.024490654 -0.00810617 -0.108248025 0.0024029077
0001c0 16 1c 80 bc 76 5c 92 bc d6 84 dc bc 59 21 13 ba
       -0.015638392 -0.017866354 -0.02691881 -0.0005612574
0001d0 97 4a 48 3a 2b 76 d4 bc fa 6c af bb 21 57 8b bc
       0.0007640509 -0.025935253 -0.005353567 -0.01700932
0001e0 ae 6b e3 3b 97 f9 f6 bb 96 d0 62 bd 4c f7 62 bd
       0.0069403267 -0.0075370776 -0.055374704 -0.055411622
0001f0 52 d1 f9 3b 4e 00 aa 3d 02 fb 9d bd bd 54 00 3d
       0.00762383 0.08300839 -0.077138916 0.031330813
000200 65 17 8f bd 5e 80 90 bd 3f db 87 3c bc a1 a3 3a
       -0.06986884 -0.07055734 0.016584037 0.0012484114
000210 a8 83 82 bb e6 b4 8e 3c 72 11 1e bd f4 1f 3c bd
       -0.00398298 0.017420243 -0.038590856 -0.04592891
000220 c5 75 38 3d 6e a6 34 3d 38 1b 3a bd 67 b9 10 3d
       0.04503419 0.044104032 -0.045436114 0.035333063
000230 5b 9f e1 bc e0 1f 85 bd 63 d4 21 3c 93 ec b2 bb
       -0.027541807 -0.0650022 0.009877297 -0.0054603308
000240 67 83 5a bd 4e fc bd 3b 30 e4 12 3c 91 41 52 bb
       -0.05334797 0.0057978993 0.008965537 -0.0032082538
000250 03 f8 9d 3c 3f 31 2b 3d e1 1c 51 bd 63 ef 82 3b
       0.0192833 0.04179501 -0.05105293 0.0039958223
000260 62 df f2 3c af 59 5d 3b de a9 32 3d 8c 13 45 3d
       0.029647533 0.003377538 0.04361903 0.048114344
000270 f2 64 42 3d 31 f0 17 bd 65 0a f9 bb a3 54 c5 bc
       0.04745955 -0.0370943 -0.007600116 -0.02408821
000280 66 28 2e 3c 97 af 8a bc 32 49 9e bc a0 eb b1 bc
       0.010629749 -0.01692943 -0.019322012 -0.0217188
000290 51 75 cd 3b 0c d1 f4 3c 8c cf 82 3d 41 c5 d4 3b
       0.0062700887 0.029884838 0.06387243 0.006493241
0002a0 1d 37 fd ba 72 06 97 bc a9 ff ed 3c d0 dd cd bb
       -0.0019318793 -0.01843569 0.029052572 -0.0062825456
0002b0 eb 5c 8f ba 7b fc e5 3d 85 cc 9d 3d 0b a6 08 3d
       -0.0010937726 0.112297975 0.07705025 0.033361476
0002c0 ee a1 8f 3d bc 9e 20 3d c3 be 91 3c 4b 3c 33 3d
       0.070133075 0.03921388 0.017791158 0.04375867
0002d0 e4 79 8c 3c 8a f4 1b 3d 33 e8 ba bc 61 15 81 3d
       0.017147966 0.038075007 -0.0228158 0.06302906
0002e0 ee b9 a0 3c 16 e3 31 3b 64 d2 f0 3c a9 c4 1d 3d
       0.019619908 0.002714341 0.029397197 0.038517628
0002f0 4d 2e 4a 3c 36 f0 15 3d e7 53 39 bc 63 69 fc 3c
       0.0123401405 0.036606036 -0.011311508 0.030811971
000300 b1 55 72 3d 81 83 be 39 3b 40 a0 bc 9f 9e 36 bd
       0.059163753 0.00036337602 -0.019561877 -0.044584867
000310 f9 93 a4 bd 51 ea d8 bc 1f 8d 3f 3d d5 09 09 3d
       -0.08036036 -0.026478918 0.046765443 0.033456642
000320 c8 5d ab 3c a4 2e 0c 3d ea 05 a5 3d bb 9e 4e bc
       0.020918742 0.034224167 0.08057769 -0.0126110865
000330 76 c4 92 3d e0 cf a1 bb a8 33 02 3d 22 26 0d 3d
       0.07166378 -0.0049381107 0.031787544 0.034460194
000340 47 71 ef 3c 1b 91 3b bd 93 fe a2 bc 2b 69 36 bb
       0.02922882 -0.04579268 -0.019896781 -0.002783368
000350 73 02 4e 3d b6 e3 16 3b 33 f3 b9 3c e6 e8 77 bd
       0.050295305 0.002302391 0.022698974 -0.060524844
000360 6b 3b 3d 3d 33 44 0f 3a 17 3a 76 bd 99 11 22 bd
       0.046199244 0.00054651796 -0.060113993 -0.039567564
000370 0a dc 03 bd c4 be a3 3c fc 4a 98 bb b0 0a 59 3b
       -0.032192267 0.019988425 -0.0046476107 0.0033117943
000380 6a 92 9f bc 0d d1 b2 bd e9 48 15 bd ef 8f 05 3d
       -0.019478995 -0.087312795 -0.036446486 0.03260797
000390 91 a8 4e 3c da 76 56 bd ed 0a 35 bd 4a ab a9 3c
       0.012613432 -0.05235944 -0.044199873 0.02071156
0003a0 2f 49 7e bc 83 2e e4 bc e6 a0 b3 3d 45 cc c5 bc
       -0.015520378 -0.02785421 0.08770923 -0.024145255
0003b0 5b c6 36 3c 23 b8 75 3c fa cc ba bd c2 1c a6 3a
       0.01115569 0.014997515 -0.091211274 0.0012673365
0003c0 b7 87 ef 3c df b7 2b 3a 8b 8a 0c bd 9f 5c 69 3c
       0.029239519 0.0006550531 -0.034311812 0.014243274
0003d0 52 47 36 bc a0 e8 a0 3d 75 5e 99 bd 8e 48 13 3d
       -0.0111254025 0.0785687 -0.074887194 0.035957865
0003e0 9a b3 96 bb 4e b6 ad bb 14 4e 29 bd 1a 18 3c bd
       -0.004599047 -0.0053012734 -0.041334227 -0.045921423
0003f0 85 a9 4b 3c 6d b9 d0 3d 14 ce 9d bd cc 10 86 3c
       0.012430553 0.10191617 -0.07705322 0.016365431
