outputs/nca/Vale_Ettore_128x128_model.pt (torch, 64067 bytes, 3 tensors)

brain.0.weight f4 [128, 48, 1, 1]
00000000: bde2 ba3c cd0e 043e 38bd 7abd ae04 aebd
00000010: 8d07 80bd fbc0 9b3c 9feb 4cbe 6bce 153d
00000020: 1702 043c 4617 7cbc 0a5f fd3b f764 133e
00000030: f502 433e 4325 023e 9bcc d03b a74a 9c3d
00000040: cc5a 2a3d a380 80bc a48c ca3b 2fae c1bc
00000050: d088 fd3d b128 4c3e 151a 583d 503d a7bd
00000060: 6264 233e 6211 e43c 8341 6abd 1d41 563d
00000070: 766c cd3c 0d7f 813d c1b1 8cbe 457e cabd
00000080: 18ff 3e3d a701 443d ad30 523b e852 9a3c
00000090: 53b9 a0bd a502 04bd f497 573d 7172 87be
000000a0: 1a9c 103b 2d93 3dbd c34a 9f3c c3ff ee3b
000000b0: 423c babc 0e26 36be 0076 253c 6d0d c3bb
000000c0: 1791 07be e58f c93d 74ce 5fbe 6237 f3bd
000000d0: 9ce9 d8bd ce96 c8bd 2781 f93d 2e80 c1bd
000000e0: 8738 973d 7a6e b33b 1095 833d e7ec 0f3d
000000f0: 3904 a4bd eac5 f23c ff43 0abd 99ba 52bd
00000100: 56cc 11bc 684c 973c e4b2 3b3d 7184 853d
00000110: c9be 033d c9b9 82be b58f 973d 2410 283d
00000120: 1ede 7c3e 9819 1ebe a71d dcbd b180 303e
00000130: ea8c 5abc 9804 063d 0ffd 123c 6110 df3d
00000140: 5eb6 97bd 4034 a73d 00e4 fabd 0665 8dbd
00000150: c12e 233e d21b a43d 7062 cf3d cddc 39be
00000160: 2571 03bd 09dd 893c 72b7 5cbd 69ab afbd
00000170: 23e3 24bc abdc 703e 9037 8bbc 3e7e a13d
00000180: 92dc c33d f28d 673d de88 953d c857 c33d
00000190: 35bb 90bd de53 1dbd 3131 46bc b9b8 42bd
000001a0: 308b e63c c8d5 03be ec47 2ebd c338 77bd
000001b0: 77e7 293e 968a 1dbd 2301 ed3d f114 193e
000001c0: c384 56bc 78cc 833d 6f77 213d 0505 a23d
000001d0: b84c 5b3c 9766 063e e57c d43a f670 b93b
000001e0: 74f1 b93c 2ba1 813d 60be a0bd 4762 9a3c
000001f0: 0189 fa3c 10b7 e1ba 37cf cfbc 4fee 97bc
00000200: 7dc6 a23b 933e 943c 47ba f0bd d5f3 aabd
00000210: 381d dabd 6327 383b 5f9d ceba c5ba 0bbe
00000220: 9e88 91bd d60d 82bc 8f17 15be 3169 153e
00000230: 65ee 77bd 1cec 223e 2011 f9bc 15c6 073e
00000240: 3c5f 0c3e 05b1 bdbd 9303 303d b548 bebe
00000250: 8562 c73a 71d2 57bc 0971 b73e cc6b 7c3d
00000260: 7167 4dbd 212b 2d3e 5819 94bc d80e f0bb
00000270: 9050 51bd 6158 7b3b 1d2e 71ba efeb 19bd
00000280: 8edf c2bc 9515 acbc ea33 57bd 9d07 f2bc
00000290: 5d4c 11bc 5240 d6bd 4e6f 2a3d 84f9 793b
000002a0: 2fab a7bd 34a1 1abd a474 3c3c 1b30 17bd
000002b0: fdb9 013d 0501 873c f41b 803e cb36 eebb
000002c0: 9a66 f73b 481b d0bc 1ff0 dabb 6e6b b0bc
000002d0: a10b f1bd 5a97 323c 2394 4b3b 9d9d b43e
000002e0: 68ee 393c bc1d 31bd 4d69 37bd a4f7 7a3c
000002f0: 1ed7 c53c e6b3 d9bd 6312 a23b 927f c0bc
00000300: 69ee c3be 156c 68bd 8542 f33c e19e bbbd
00000310: 4106 c13d b1b7 373d c88f e1be 2327 e2bd
00000320: f31e ab3c a19c eabd f5fb febd 7ebd 2ebd
00000330: bd77 47be 853a 9bbd 8d97 1e3b 7cdc 443e
00000340: c172 de3d 40fc f33c 970a ff3d 83ca eb3c
00000350: cd7c 873d 6da9 70be e310 a73b 6fa8 a73c
00000360: fb65 2c3e eef2 a83d 8ad5 7fbd fae7 4cbd
00000370: f553 80bb 93f2 a33d 9781 063e 4ac7 02bd
00000380: aaad 8b3c 6438 253d b48a 1e3d 00d1 10bc
00000390: 6343 fcbd ce1a 7a3c bd9d 2b3c 5ff5 d9bd
000003a0: 724c 553b 951c d43d 68f4 003e 46de d83d
000003b0: 0800 963d ec2b 133e 4376 c63b 9735 5c3d
000003c0: 24a1 943e 1362 f83d dd44 20bc 3e3e 01bf
000003d0: 9e4f dfbd 99dc e63c 51f9 e6be bbef a6bd
000003e0: 7bdd 9b3c 8bbc f13d bebd 963c 23db 06bd
000003f0: 4ee2 a43c 4dc3 b6bc f9ca f33a 0823 88bd
0.022813195 0.12896271 -0.06121561 -0.08496986 -0.0625144 0.019012919 -0.20011757 0.03657381
0.008057139 -0.015386408 0.007732277 0.14393984 0.19044097 0.12709527 0.006372047 0.07631426
0.041590497 -0.015686339 0.0061813165 -0.023642628 0.123796105 0.19937398 0.05275925 -0.08165991
0.15956262 0.02784032 -0.057191383 0.05230819 0.025076132 0.06323061 -0.27479365 -0.09887365
0.046629995 0.04785314 0.003207247 0.01883836 -0.07847848 -0.032229085 0.05263515 -0.264545
0.00220657 -0.046282936 0.019444829 0.0072936728 -0.022733811 -0.17787954 0.010098934 -0.005952528
-0.13238941 0.09841899 -0.218561 -0.11875798 -0.105914325 -0.09794389 0.12182837 -0.094482765
0.073838286 0.0054758163 0.06424916 0.035138037 -0.08008618 0.029635388 -0.033756252 -0.051447485
-0.008898815 0.01846905 0.0458249 0.06519402 0.03216437 -0.25532368 0.07400457 0.041031018
0.24694106 -0.1543945 -0.10747843 0.17236592 -0.013339261 0.032719225 0.008971467 0.10891796
-0.07407831 0.08164263 -0.12250519 -0.06904034 0.15935804 0.08013119 0.10126197 -0.18150635
-0.032090325 0.01682903 -0.053885885 -0.08577616 -0.010063919 0.23521678 -0.016994268 0.07885407
0.09563555 0.056531854 0.07301496 0.09538227 -0.07066957 -0.03841006 -0.012096689 -0.047539447
0.028142542 -0.1287452 -0.04254906 -0.060356867 0.16592203 -0.038462244 0.115724824 0.14949395
-0.013093176 0.06435484 0.03942054 0.07911114 0.01338499 0.13125072 0.0016211538 0.005659218
0.022698142 0.063295685 -0.07848811 0.01884569 0.030582907 -0.0017220695 -0.025367362 -0.018546252
0.0049675093 0.018096244 -0.117542796 -0.083472885 -0.10650104 0.0028099648 -0.0015763453 -0.13645466
-0.07106136 -0.015875738 -0.14559768 0.14590909 -0.060530085 0.15910381 -0.030403674 0.13259156
0.13708204 -0.092622794 0.04297216 -0.37164846 0.0015211856 -0.013172732 0.35828426 0.06162624
-0.050147478 0.16910984 -0.018078491 -0.0073259883 -0.05110222 0.0038352238 -0.0009200292 -0.03757852
-0.02378824 -0.021006385 -0.052539743 -0.029544646 -0.008868304 -0.10461487 0.041610055 0.0038143108
-0.081869476 -0.03775139 0.011502419 -0.03691111 0.031671513 0.016479978 0.25021327 -0.0072697154
0.007550073 -0.025403634 -0.0066814567 -0.021535601 -0.11769796 0.010900343 0.0031063638 0.352765
0.011348344 -0.043241248 -0.044778157 0.015317831 0.024150427 -0.10630016 0.0049460395 -0.02349833
-0.3826783 -0.0567437 0.029694805 -0.09161163 0.09425021 0.044852916 -0.4405501 -0.11042621
0.020888781 -0.11455656 -0.12450401 -0.042661183 -0.1947927 -0.07579521 0.0024199218 0.19224733
0.10861731 0.029783368 0.12453192 0.028783089 0.06615601 -0.23502131 0.0050984486 0.020466058
0.16835777 0.0824946 -0.062459506 -0.050025918 -0.0039162585 0.08005252 0.13135372 -0.031928338
0.017050583 0.04033698 0.038706496 -0.008838892 -0.123175405 0.01526518 0.010474619 -0.10642504
0.0032546786 0.10357014 0.12593234 0.1058927 0.07324225 0.14372224 0.0060565784 0.053762045
0.2902919 0.12128081 -0.009782043 -0.504856 -0.10903858 0.028181361 -0.45112088 -0.08151194
0.019026509 0.1180354 0.018401023 -0.03292383 0.020127442 -0.022309924 0.0018599919 -0.06647307

brain.0.bias f4 [128]
00000000: 76c4 7d3d edf3 49bd ab65 833d 632e 24be
00000010: 2c17 783d 25ca 90bd b5f2 abbc 3a8d c6bb
00000020: b380 b0bd 9b54 1dbd 21d4 41bd 6113 713c
00000030: e343 ecbc 038f a6bd 7bd0 39be 23d3 b43c
00000040: 6b7e 223d c9bf 11bd 8ba7 d33c b522 5e3c
00000050: 1881 66be 7398 5bbe 6c67 503d 126e 383d
00000060: bb10 23be 038c aebc da71 843d b83a e6bb
00000070: 3db6 1a3d da51 bdbd d41d bb3c f1d8 523d
00000080: 2fb4 d9bc 11a0 04bd c1d7 b6bd e020 25bd
00000090: c0b6 203d 542c 82bd d69f ffbd 4297 9cbd
000000a0: 1533 acbd ca52 cebd e6c5 32be ad4c 44be
000000b0: 5d83 223d e9e6 cabc 7165 b03d 5740 3bbe
000000c0: 4bdc 65bd 6e63 83bc 6999 d6bd d960 883d
000000d0: a963 0e3d e6b6 ebbd b24f d8bd c0a4 cbbd
000000e0: 1efa dbbd f5df 33be 6cb5 833d cb0e fabd
000000f0: 91f7 51be 2a35 6cbd 3b66 64be 17be 00be
00000100: 04b7 57bc e3df 213d de42 41be f4a3 8cbe
00000110: afbd 56be ee60 1dbe a98e 72be 2660 b73c
00000120: 3462 32be ec09 98bd f478 6fbd 4069 8dbd
00000130: 1ee1 8d3c 93e5 753d e4b3 883c f307 30bd
00000140: 56e3 80be 3016 0cbe 2e33 71bd 8879 95bd
00000150: da33 2dbe e683 f93d 195d d4bc 6daa f23d
00000160: 4e9f 73be e424 1d3c 351f 56bc de46 773d
00000170: 42c3 01be 59ad 8ebe 3c0e 37be 3a7d 53bd
00000180: 90f8 bbbc df8b 89bd e0c5 d2bd 2368 5dbe
00000190: 5443 50be 0611 0d3e cad7 003d 9138 23be
000001a0: 4eba e43c f7d9 aa3c d0f7 b2ba eb23 45be
000001b0: 5f7c 083e be66 c7bd 7871 2cbc 4712 ffbc
000001c0: 189f af3c 7b5e 43bd b94d 42bd 5bcf 60bc
000001d0: d176 87bc fabc bfbd fd60 053d d939 56be
000001e0: e7ed 953c fcb6 c33d 641b 3f3d 82e8 fbbd
000001f0: 0a15 903d c5d0 f5bd 67c3 93be 19da 53be
0.061954938 -0.04930489 0.06415876 -0.1603332 0.060568973 -0.07069806 -0.020989755 -0.006059316
-0.086182974 -0.038410764 -0.047321443 0.014714093 -0.028840965 -0.08132746 -0.18145935 0.022073334
0.039671343 -0.03558329 0.025836727 0.0135580795 -0.22510183 -0.21444874 0.05087988 0.045026846
-0.15924351 -0.021306997 0.06467028 -0.007026043 0.037771452 -0.092441276 0.022841372 0.051476423
-0.026575176 -0.032379214 -0.089278705 -0.040314555 0.039236784 -0.06356111 -0.12481658 -0.07646038
-0.084081806 -0.100743845 -0.17458305 -0.19169874 0.03967606 -0.02476831 0.086130984 -0.18286262
-0.05611829 -0.016038623 -0.104784794 0.06659097 0.034763012 -0.115094945 -0.10562076 -0.09943533
-0.107410654 -0.17565902 0.06431088 -0.12209853 -0.20504595 -0.05766789 -0.22304623 -0.12572514
-0.013166193 0.039520156 -0.18873164 -0.27468836 -0.20970796 -0.15369007 -0.23687233 0.022384714
-0.17420274 -0.074237674 -0.05846496 -0.069048405 0.017319258 0.060033392 0.016687341 -0.04297633
-0.25173444 -0.13680339 -0.0588867 -0.07298571 -0.16914311 0.12183361 -0.025923299 0.118489124
-0.23791239 0.009591315 -0.013068964 0.06037032 -0.12672141 -0.2786663 -0.17876524 -0.051633097
-0.022945672 -0.067161314 -0.10291648 -0.21621756 -0.20338184 0.13776025 0.031455792 -0.15939547
0.027920868 0.020855887 -0.0013654176 -0.19251983 0.13328694 -0.097363934 -0.0105251 -0.031136645
0.021438166 -0.047697525 -0.047437403 -0.013721312 -0.016536148 -0.09362216 0.0325632 -0.20920505
0.018301917 0.09556386 0.04665698 -0.12300207 0.07035263 -0.1200271 -0.28860018 -0.20688666

brain.2.weight f4 [16, 128, 1, 1]
00000000: 9421 f6bc b5be 2d3d 5c25 2cbc 8c28 7bbc
00000010: a919 663d 28fc 8ebd fdf7 b3bc ad2a 30bd
00000020: 91e8 a5bb 4d01 afbc e4b7 c43d 8020 58bd
00000030: fa6b 483d e968 5dbd 88a7 d9bb ef12 48bd
00000040: 2b03 d83b 137c aabd fcd3 0cbd e108 883d
00000050: f9c3 b3bd 4adc 00bd d61a c03b 55d6 3e3d
00000060: 25f0 16bd 4818 5e3c 3e46 093d 2c32 ce3c
00000070: 5323 1d3d 1ce0 363d ebcb 513d b7a9 7a3c
00000080: 5827 cabc b164 513d 20bf d1bc a9b6 80bc
00000090: 0a25 df3a d4ff 7fbc 66c7 b0bc b3ea d13c
000000a0: 9307 ac3b 229e 15bd e249 b3bc ce29 ec3c
000000b0: 7a8a 833d f26f 493c fbb6 683d 0a1f c43d
000000c0: 5a96 be3a c8cb ba3d 7e15 fdbb 1b28 1fbd
000000d0: 489c dabc 64c7 563d 2859 4cbd cce8 2e3d
000000e0: 5fa0 953d 157b 8d3c 13eb 893c ea11 cf3d
000000f0: ba77 533c 4828 9b3c 9408 b8bc d031 bf3a
00000100: 9c12 f0bb 886f 1ebd 2ca2 93bd 5462 6fbc
00000110: f1a2 723d bfb1 613d a9a4 143c 3364 3dbd
00000120: 9703 10bc fee8 c93c f8c7 8f3b 5e3e 6c3d
00000130: 42aa 9f3d 93c5 b6bc 3d22 9e3c 9e42 3d3d
00000140: 3b6a 54bc b03b 95bc 7f94 6bbd c6fb f4bb
00000150: 3d2d a8bc b645 9dbb 03c5 81bd 023e c83c
00000160: e261 823c ff03 d8bb 60ca f5bc 2156 f9bb
00000170: a88b abbb ebb1 9e3c 2406 3dbd f32b 3dbd
00000180: 23a0 73bb cdd9 173d 7e4e 19bd bf7b 903c
00000190: 2c53 b4bc 2d9e a7bb 2c63 ed3d 8ef0 6cbd
000001a0: 9b1e a73c 3ddd 653d d3f7 09bd 8a22 4fb9
000001b0: 6af5 4bbd 1cf6 993d 39d7 973b 8dc3 bf3b
000001c0: e843 1ebc 820d be3d 24fb 8d3b 863f 80bd
000001d0: c4b7 82ba 4a9f 983a f245 123c 3a47 debc
000001e0: 1248 7a3d d9c7 5abc 15e2 193d 1fb0 9abc
000001f0: f531 2d3c dbc7 05bd 9f49 5d3d 6b54 713d
00000200: 68f0 aebb 8fbf ff3b d2e8 74bc 04dd 9f3d
00000210: 4f70 6b3c 4582 a33d f039 3cbd 2cf8 86bc
00000220: 98db 483c 4a59 e7bc 9874 8c3d 1e4d 0cbd
00000230: d990 763c 30aa 60bd 5b84 e6b9 25ff d9bb
00000240: 6bd7 a13c edab 20bd 5405 0eba 444c 563d
00000250: 5b06 46bd 80e8 89bb 5faa 85bc 7888 e33c
00000260: a1e7 efbc 02ea 9f3c 0e1c 213d 4d34 843c
00000270: f713 973c a4dd 1f3d c9aa 1f3d 62ca 4a3c
00000280: 3879 6abc c524 e83c fadb 3b3b 9ad5 afbc
00000290: be3d 993c 3a77 8dbc bfbf 9ebc 0028 803c
000002a0: 70b4 0fbb d9f1 10bd a061 21bd 7610 18bc
000002b0: 1957 423d 0cc7 293c c268 223d 1db0 9b3d
000002c0: ec48 533b 5afc 973d 3768 02bd e66f 41bc
000002d0: 63a1 ecbc d787 6b3d 9efe 34bd bd06 22ba
000002e0: dac4 403d d229 223d 83b7 5fbc 3f07 a43d
000002f0: 6361 04bb 6af6 1cbc 50e0 73bc 8594 d9bb
00000300: 78a4 6abc 1988 04bd e92b 3dbd 18b8 a73b
00000310: d097 533d ec8b 3c3d 004f d9bb cfca febc
00000320: de72 a73c 3a3c 3ebb ea78 cabd 43d9 de3c
00000330: ea30 8e3d 98d5 f4bc 9711 a33c 92b7 1e3d
00000340: 102b 37bd 45cb 3e3c 8fa5 47bd 49dc c5bc
00000350: 37fb c23c f6fa aebc 71cf c2bc d2c1 a1bc
00000360: a358 c73c 90a0 0a3c 2510 c8bc a861 cdbb
00000370: 1f58 edbc 06c9 6b3c 62ee 33bd b05f e5bc
00000380: ed1a 493c 9bf5 463d f256 9ebc 26e1 103c
00000390: 1253 63bc 1473 743c 2553 c13d b9f4 38bd
000003a0: e6d8 413c fbd9 7c3d 341c 84bc 5f97 283d
000003b0: 2fc8 1d3d 44d6 873d 1f98 e6bc ef99 083d
000003c0: 8496 6ebc 6b03 97bd 55e0 a6bc 36ce a6bc
000003d0: 0172 933a 30f5 6bbc 1528 333d 880c 84bd
000003e0: b9c1 c83c e163 9cbc 0267 35ba 19c6 9439
000003f0: 3e54 ba3c 4e03 0abd 45ac 423c ff89 383d
-0.030045308 0.0424182 -0.010506954 -0.015329491 0.056176815 -0.06981689 -0.021968836 -0.04300945
-0.0050631245 -0.021362925 0.09605387 -0.05276537 0.0489311 -0.05405513 -0.0066422857 -0.04884618
0.0065921745 -0.083244465 -0.03438185 0.066423185 -0.08777613 -0.031460084 0.005862574 0.04659112
-0.036850113 0.013555594 0.033514254 0.025170408 0.038363766 0.04464732 0.051219862 0.015299252
-0.024676964 0.051121417 -0.02560383 -0.0157121 0.0017024588 -0.015624959 -0.021579456 0.025624609
0.0052499264 -0.03652776 -0.021885816 0.028828528 0.06422897 0.012294756 0.05681513 0.09576233
0.0014540658 0.091208994 -0.0077235093 -0.038856607 -0.026685849 0.052436247 -0.049889714 0.04270248
0.07305979 0.017270604 0.016835725 0.10110839 0.012906963 0.018940106 -0.022465028 0.0014586989
-0.007326437 -0.038680583 -0.07208666 -0.014610846 0.059237424 0.055101153 0.009072461 -0.046238136
-0.008789918 0.024647232 0.004387852 0.057676665 0.07796146 -0.022311008 0.019303435 0.04620611
-0.01296478 -0.018216938 -0.057514664 -0.007476303 -0.020529384 -0.00479957 -0.06336405 0.02444363
0.015915815 -0.0065922732 -0.030003726 -0.0076091443 -0.005235154 0.019371947 -0.046148434 -0.04618449
-0.0037174306 0.037072945 -0.03742837 0.017637132 -0.022012316 -0.0051152916 0.11591181 -0.0578466
0.020400336 0.056119192 -0.03368361 -0.00019753925 -0.049794592 0.07517645 0.004633811 0.005852169
-0.009659745 0.0927992 0.004332917 -0.06262116 -0.0009972979 0.0011644152 0.008927809 -0.027133573
0.061103888 -0.013353311 0.037569124 -0.01888281 0.010570993 -0.0326613 0.05402529 0.058918398
-0.0053387173 0.007804818 -0.014948087 0.07805827 0.014370038 0.07983831 -0.04595369 -0.01647576
0.0122593865 -0.028240819 0.06858176 -0.034253232 0.015049183 -0.054849803 -0.0004396763 -0.00665273
0.01975604 -0.03922646 -0.0005417664 0.052318826 -0.048345905 -0.0042086244 -0.01631659 0.027775034
-0.029285254 0.019520763 0.039333396 0.01613822 0.018442137 0.039029732 0.038981233 0.012377353
-0.014311127 0.028337846 0.0028665052 -0.021464158 0.018706199 -0.017268766 -0.019378541 0.015644073
-0.0021927617 -0.035386894 -0.039399743 -0.009281268 0.047446344 0.010362398 0.039650686 0.0760195
0.003223951 0.07421179 -0.03183767 -0.011806464 -0.028885549 0.057502594 -0.044188134 -0.00061808137
0.047062732 0.039590664 -0.013654592 0.080091946 -0.0020199649 -0.009580234 -0.014885023 -0.0066400194
-0.014321439 -0.032356355 -0.046184454 0.005118381 0.05165845 0.046031877 -0.006631732 -0.031102566
0.020440515 -0.0029027597 -0.09886344 0.027203208 0.06942923 -0.029887006 0.019905848 0.038749285
-0.044718802 0.011645143 -0.048741873 -0.024152892 0.02380143 -0.021359902 -0.023780556 -0.019745741
0.024334257 0.008461133 -0.02442176 -0.006267745 -0.028972683 0.014391189 -0.04392851 -0.027999729
0.012274486 0.04857407 -0.019328568 0.008842742 -0.013874786 0.014920015 0.09439687 -0.04515526
0.011831498 0.06173132 -0.01612673 0.041159984 0.038520988 0.06632665 -0.028148709 0.033349928
-0.014562253 -0.07373699 -0.020370642 -0.020362 0.0011249186 -0.014401719 0.043739397 -0.06447703
0.024506437 -0.019090595 -0.00069199514 0.00028376354 0.022745248 -0.033694558 0.011881893 0.04505348
